…
[1, 4103, 9632, 515, 4223, 304, 306, 2242, 392, 293, 29901, 1724, 437, 366, 864, 29973, 1149, 29871, 379, 1564, 30128, 604, 14468, 20676, 29875, 29973, 448, 379, 30078, 29892, 26977, 29889, 2]
inputs:
<s> Translate from English to Icelandic: What do you want? =>  Hvađ er í gangi? - Hæ, Larry.</s>
label_ids:
[-100, -100, -100, -100, -100, -100, -100, -100, -100, -100, -100, -100, -100, -100, -100, -100, -100, -100, 379, 1564, 30128, 604, 14468, 20676, 29875, 29973, 448, 379, 30078, 29892, 26977, 29889, 2]
labels:
Hvađ er í gangi? - Hæ, Larry.</s>
PeftModelForCausalLM(
  (base_model): MoeModel(
    (model): LlamaForCausalLM(
      (model): LlamaModel(
        (embed_tokens): Embedding(32000, 4096)
        (layers): ModuleList(
          (0-31): 32 x LlamaDecoderLayer(
            (self_attn): LlamaFlashAttention2(
              (q_proj): Linear(in_features=4096, out_features=4096, bias=False)
              (k_proj): Linear(in_features=4096, out_features=4096, bias=False)
              (v_proj): Linear(in_features=4096, out_features=4096, bias=False)
              (o_proj): Linear(in_features=4096, out_features=4096, bias=False)
              (rotary_emb): LlamaRotaryEmbedding()
            )
            (mlp): moe.MLP(
              (base_layer): LlamaMLP(
                (gate_proj): Linear(in_features=4096, out_features=11008, bias=False)
                (up_proj): Linear(in_features=4096, out_features=11008, bias=False)
                (down_proj): Linear(in_features=11008, out_features=4096, bias=False)
                (act_fn): SiLU()
              )
              (moe_router_embedding): ModuleDict(
                (default): Linear(in_features=1, out_features=1, bias=False)
              )
              (moe_experts): ModuleDict(
                (default): ModuleList(
                  (0): LlamaMLP(
                    (gate_proj): Linear(in_features=4096, out_features=11008, bias=False)
                    (up_proj): Linear(in_features=4096, out_features=11008, bias=False)
                    (down_proj): Linear(in_features=11008, out_features=4096, bias=False)
                    (act_fn): SiLU()
                  )
                )
              )
            )
            (input_layernorm): LlamaRMSNorm()
            (post_attention_layernorm): LlamaRMSNorm()
          )
        )
        (norm): LlamaRMSNorm()
      )
      (lm_head): Linear(in_features=4096, out_features=32000, bias=False)
    )
  )
)
Running tokenizer on dataset (num_proc=20):   0%|          | 0/1000000 [00:00<?, ? examples/s]Running tokenizer on dataset (num_proc=20):   0%|          | 0/1000000 [00:00<?, ? examples/s]Running tokenizer on dataset (num_proc=20):   0%|          | 0/1000000 [00:00<?, ? examples/s]Running tokenizer on dataset (num_proc=20):   0%|   
…
/home/yangdezhao/anaconda3/envs/zhouh/lib/python3.10/site-packages/datasets/table.py:1421: FutureWarning: promote has been superseded by promote_options='default'.
  table = cls._concat_blocks(blocks, axis=0)
/home/yangdezhao/anaconda3/envs/zhouh/lib/python3.10/site-packages/datasets/table.py:1421: FutureWarning: promote has been superseded by promote_options='default'.
  table = cls._concat_blocks(blocks, axis=0)
[INFO|training_args.py:1846] 2024-02-21 19:09:51,668 >> PyTorch: setting up devices
PeftModelForCausalLM(
  (base_model): MoeModel(
    (model): LlamaForCausalLM(
      (model): LlamaModel(
        (embed_tokens): Embedding(32000, 4096)
        (layers): ModuleList(
          (0-31): 32 x LlamaDecoderLayer(
            (self_attn): LlamaFlashAttention2(
              (q_proj): Linear(in_features=4096, out_features=4096, bias=False)
              (k_proj): Linear(in_features=4096, out_features=4096, bias=False)
              (v_proj): Linear(in_features=4096, out_features=4096, bias=False)
              (o_proj): Linear(in_features=4096, out_features=4096, bias=False)
              (rotary_emb): LlamaRotaryEmbedding()
            )
            (mlp): moe.MLP(
              (base_layer): LlamaMLP(
                (gate_proj): Linear(in_features=4096, out_features=11008, bias=False)
                (up_proj): Linear(in_features=4096, out_features=11008, bias=False)
                (down_proj): Linear(in_features=11008, out_features=4096, bias=False)
                (act_fn): SiLU()
              )
              (moe_router_embedding): ModuleDict(
                (default): Linear(in_features=1, out_features=1, bias=False)
              )
              (moe_experts): ModuleDict(
                (default): ModuleList(
                  (0): LlamaMLP(
                    (gate_proj): Linear(in_features=4096, out_features=11008, bias=False)
                    (up_proj): Linear(in_features=4096, out_features=11008, bias=False)
                    (down_proj): Linear(in_features=11008, out_features=4096, bias=False)
                    (act_fn): SiLU()
                  )
                )
              )
            )
            (input_layernorm): LlamaRMSNorm()
            (post_attention_layernorm): LlamaRMSNorm()
          )
        )
        (norm): LlamaRMSNorm()
      )
      (lm_head): Linear(in_features=4096, out_features=32000, bias=False)
    )
  )
)
PeftModelForCausalLM(
  (base_model): MoeModel(
    (model): LlamaForCausalLM(
      (model): LlamaModel(
        (embed_tokens): Embedding(32000, 4096)
        (layers): ModuleList(
          (0-31): 32 x LlamaDecoderLayer(
            (self_attn): LlamaFlashAttention2(
              (q_proj): Linear(in_features=4096, out_features=4096, bias=False)
              (k_proj): Linear(in_features=4096, out_features=4096, bias=False)
              (v_proj): Linear(in_features=4096, out_features=4096, bias=False)
              (o_proj): Linear(in_features=4096, out_features=4096, bias=False)
              (rotary_emb): LlamaRotaryEmbedding()
            )
            (mlp): moe.MLP(
              (base_layer): LlamaMLP(
                (gate_proj): Linear(in_features=4096, out_features=11008, bias=False)
                (up_proj): Linear(in_features=4096, out_features=11008, bias=False)
                (down_proj): Linear(in_features=11008, out_features=4096, bias=False)
                (act_fn): SiLU()
              )
              (moe_router_embedding): ModuleDict(
                (default): Linear(in_features=1, out_features=1, bias=False)
              )
              (moe_experts): ModuleDict(
                (default): ModuleList(
                  (0): LlamaMLP(
                    (gate_proj): Linear(in_features=4096, out_features=11008, bias=False)
                    (up_proj): Linear(in_features=4096, out_features=11008, bias=False)
                    (down_proj): Linear(in_features=11008, out_features=4096, bias=False)
                    (act_fn): SiLU()
                  )
                )
              )
            )
            (input_layernorm): LlamaRMSNorm()
            (post_attention_layernorm): LlamaRMSNorm()
          )
        )
        (norm): LlamaRMSNorm()
      )
      (lm_head): Linear(in_features=4096, out_features=32000, bias=False)
    )
  )
)
PeftModelForCausalLM(
  (base_model): MoeModel(
    (model): LlamaForCausalLM(
      (model): LlamaModel(
        (embed_tokens): Embedding(32000, 4096)
        (layers): ModuleList(
          (0-31): 32 x LlamaDecoderLayer(
            (self_attn): LlamaFlashAttention2(
              (q_proj): Linear(in_features=4096, out_features=4096, bias=False)
              (k_proj): Linear(in_features=4096, out_features=4096, bias=False)
              (v_proj): Linear(in_features=4096, out_features=4096, bias=False)
              (o_proj): Linear(in_features=4096, out_features=4096, bias=False)
              (rotary_emb): LlamaRotaryEmbedding()
            )
            (mlp): moe.MLP(
              (base_layer): LlamaMLP(
                (gate_proj): Linear(in_features=4096, out_features=11008, bias=False)
                (up_proj): Linear(in_features=4096, out_features=11008, bias=False)
                (down_proj): Linear(in_features=11008, out_features=4096, bias=False)
                (act_fn): SiLU()
              )
              (moe_router_embedding): ModuleDict(
                (default): Linear(in_features=1, out_features=1, bias=False)
              )
              (moe_experts): ModuleDict(
                (default): ModuleList(
                  (0): LlamaMLP(
                    (gate_proj): Linear(in_features=4096, out_features=11008, bias=False)
                    (up_proj): Linear(in_features=4096, out_features=11008, bias=False)
                    (down_proj): Linear(in_features=11008, out_features=4096, bias=False)
                    (act_fn): SiLU()
                  )
                )
              )
            )
            (input_layernorm): LlamaRMSNorm()
            (post_attention_layernorm): LlamaRMSNorm()
          )
        )
        (norm): LlamaRMSNorm()
      )
      (lm_head): Linear(in_features=4096, out_features=32000, bias=False)
    )
  )
)
/home/yangdezhao/zhouh_temp/transformers/src/transformers/training_args.py:1759: FutureWarning: `--push_to_hub_token` is deprecated and will be removed in version 5 of 🤗 Transformers. Use `--hub_token` instead.
  warnings.warn(
/home/yangdezhao/zhouh_temp/transformers/src/transformers/training_args.py:1759: FutureWarning: `--push_to_hub_token` is deprecated and will be removed in version 5 of 🤗 Transformers. Use `--hub_token` instead.
…
