…
    features: ['input_ids', 'attention_mask'],
    num_rows: 5872167
})
05/16/2024 19:32:23 - INFO - llmtuner.model.loader - trainable params: 811696128 || all params: 2648524800 || trainable%: 30.6471
05/16/2024 19:32:23 - WARNING - llmtuner.data.loader - Loading dataset from disk will ignore other data arguments.
Loading cached shuffled indices for dataset at /home/yangdezhao/ydz_temp/data/arderu6b/cache-32ee8c5574b2e83c.arrow
Dataset({
    features: ['input_ids', 'attention_mask'],
    num_rows: 5872167
})
PeftModelForCausalLM(
  (base_model): MoeModel(
    (model): Qwen2ForCausalLM(
      (model): Qwen2Model(
        (embed_tokens): Embedding(151936, 2048)
        (layers): ModuleList(
          (0-23): 24 x Qwen2DecoderLayer(
            (self_attn): Qwen2FlashAttention2(
              (q_proj): Linear(in_features=2048, out_features=2048, bias=True)
              (k_proj): Linear(in_features=2048, out_features=2048, bias=True)
              (v_proj): Linear(in_features=2048, out_features=2048, bias=True)
              (o_proj): Linear(in_features=2048, out_features=2048, bias=False)
              (rotary_emb): Qwen2RotaryEmbedding()
            )
            (mlp): moe.MLP(
              (base_layer): Qwen2MLP(
                (gate_proj): Linear(in_features=2048, out_features=5504, bias=False)
                (up_proj): Linear(in_features=2048, out_features=5504, bias=False)
                (down_proj): Linear(in_features=5504, out_features=2048, bias=False)
                (act_fn): SiLU()
              )
              (moe_router_embedding): ModuleDict(
                (default): Linear(in_features=2048, out_features=2, bias=False)
              )
              (moe_experts): ModuleDict(
                (default): ModuleList(
                  (0): Qwen2MLP(
                    (gate_proj): Linear(in_features=2048, out_features=5504, bias=False)
                    (up_proj): Linear(in_features=2048, out_features=5504, bias=False)
                    (down_proj): Linear(in_features=5504, out_features=2048, bias=False)
                    (act_fn): SiLU()
                  )
                )
              )
            )
            (input_layernorm): Qwen2RMSNorm()
            (post_attention_layernorm): Qwen2RMSNorm()
          )
        )
        (norm): Qwen2RMSNorm()
      )
      (lm_head): Linear(in_features=2048, out_features=151936, bias=False)
    )
  )
)
[INFO|trainer.py:586] 2024-05-16 19:32:23,812 >> Using auto half precision backend
05/16/2024 19:32:23 - INFO - llmtuner.model.patcher - Gradient checkpointing enabled.
05/16/2024 19:32:23 - INFO - llmtuner.model.adapter - Fine-tuning method: MOE
05/16/2024 19:32:23 - INFO - llmtuner.model.patcher - Gradient checkpointing enabled.
05/16/2024 19:32:23 - INFO - llmtuner.model.adapter - Fine-tuning method: MOE
…
