…
05/10/2024 18:13:40 - INFO - llmtuner.model.loader - trainable params: 463987712 || all params: 463987712 || trainable%: 100.0000
05/10/2024 18:13:40 - WARNING - llmtuner.data.loader - Loading dataset from disk will ignore other data arguments.
05/10/2024 18:13:40 - WARNING - llmtuner.data.loader - Loading dataset from disk will ignore other data arguments.
Caching indices mapping at /mnt/vol1/huangxin/nanda/dataset/CulturaX/qwen-tokenized-bn/cache-85348533efdb7d66.arrow
Dataset({
    features: ['input_ids', 'attention_mask'],
    num_rows: 15581646
})
Qwen2ForCausalLM(
  (model): Qwen2Model(
    (embed_tokens): Embedding(151936, 1024)
    (layers): ModuleList(
      (0): Qwen2DecoderLayer(
        (self_attn): Qwen2FlashAttention2(
          (q_proj): Linear(in_features=1024, out_features=1024, bias=True)
          (k_proj): Linear(in_features=1024, out_features=1024, bias=True)
          (v_proj): Linear(in_features=1024, out_features=1024, bias=True)
          (o_proj): Linear(in_features=1024, out_features=1024, bias=False)
          (rotary_emb): Qwen2RotaryEmbedding()
        )
        (mlp): Qwen2MLP(
          (gate_proj): Linear(in_features=1024, out_features=2816, bias=False)
          (up_proj): Linear(in_features=1024, out_features=2816, bias=False)
          (down_proj): Linear(in_features=2816, out_features=1024, bias=False)
          (act_fn): SiLU()
        )
        (input_layernorm): Qwen2RMSNorm()
        (post_attention_layernorm): Qwen2RMSNorm()
      )
      (1): Qwen2DecoderLayer(
        (self_attn): Qwen2FlashAttention2(
          (q_proj): Linear(in_features=1024, out_features=1024, bias=True)
          (k_proj): Linear(in_features=1024, out_features=1024, bias=True)
          (v_proj): Linear(in_features=1024, out_features=1024, bias=True)
          (o_proj): Linear(in_features=1024, out_features=1024, bias=False)
          (rotary_emb): Qwen2RotaryEmbedding()
        )
        (mlp): Qwen2MLP(
          (gate_proj): Linear(in_features=1024, out_features=2816, bias=False)
          (up_proj): Linear(in_features=1024, out_features=2816, bias=False)
          (down_proj): Linear(in_features=2816, out_features=1024, bias=False)
          (act_fn): SiLU()
        )
        (input_layernorm): Qwen2RMSNorm()
        (post_attention_layernorm): Qwen2RMSNorm()
      )
      (2): Qwen2DecoderLayer(
        (self_attn): Qwen2FlashAttention2(
          (q_proj): Linear(in_features=1024, out_features=1024, bias=True)
          (k_proj): Linear(in_features=1024, out_features=1024, bias=True)
          (v_proj): Linear(in_features=1024, out_features=1024, bias=True)
          (o_proj): Linear(in_features=1024, out_features=1024, bias=False)
          (rotary_emb): Qwen2RotaryEmbedding()
        )
        (mlp): Qwen2MLP(
          (gate_proj): Linear(in_features=1024, out_features=2816, bias=False)
          (up_proj): Linear(in_features=1024, out_features=2816, bias=False)
          (down_proj): Linear(in_features=2816, out_features=1024, bias=False)
          (act_fn): SiLU()
        )
        (input_layernorm): Qwen2RMSNorm()
        (post_attention_layernorm): Qwen2RMSNorm()
      )
      (3): Qwen2DecoderLayer(
        (self_attn): Qwen2FlashAttention2(
          (q_proj): Linear(in_features=1024, out_features=1024, bias=True)
          (k_proj): Linear(in_features=1024, out_features=1024, bias=True)
          (v_proj): Linear(in_features=1024, out_features=1024, bias=True)
          (o_proj): Linear(in_features=1024, out_features=1024, bias=False)
          (rotary_emb): Qwen2RotaryEmbedding()
        )
        (mlp): Qwen2MLP(
          (gate_proj): Linear(in_features=1024, out_features=2816, bias=False)
          (up_proj): Linear(in_features=1024, out_features=2816, bias=False)
          (down_proj): Linear(in_features=2816, out_features=1024, bias=False)
          (act_fn): SiLU()
        )
        (input_layernorm): Qwen2RMSNorm()
        (post_attention_layernorm): Qwen2RMSNorm()
      )
      (4): Qwen2DecoderLayer(
        (self_attn): Qwen2FlashAttention2(
          (q_proj): Linear(in_features=1024, out_features=1024, bias=True)
          (k_proj): Linear(in_features=1024, out_features=1024, bias=True)
          (v_proj): Linear(in_features=1024, out_features=1024, bias=True)
          (o_proj): Linear(in_features=1024, out_features=1024, bias=False)
          (rotary_emb): Qwen2RotaryEmbedding()
        )
        (mlp): Qwen2MLP(
          (gate_proj): Linear(in_features=1024, out_features=2816, bias=False)
          (up_proj): Linear(in_features=1024, out_features=2816, bias=False)
          (down_proj): Linear(in_features=2816, out_features=1024, bias=False)
          (act_fn): SiLU()
        )
        (input_layernorm): Qwen2RMSNorm()
        (post_attention_layernorm): Qwen2RMSNorm()
      )
      (5): Qwen2DecoderLayer(
        (self_attn): Qwen2FlashAttention2(
          (q_proj): Linear(in_features=1024, out_features=1024, bias=True)
          (k_proj): Linear(in_features=1024, out_features=1024, bias=True)
          (v_proj): Linear(in_features=1024, out_features=1024, bias=True)
          (o_proj): Linear(in_features=1024, out_features=1024, bias=False)
          (rotary_emb): Qwen2RotaryEmbedding()
        )
        (mlp): Qwen2MLP(
          (gate_proj): Linear(in_features=1024, out_features=2816, bias=False)
          (up_proj): Linear(in_features=1024, out_features=2816, bias=False)
          (down_proj): Linear(in_features=2816, out_features=1024, bias=False)
          (act_fn): SiLU()
        )
        (input_layernorm): Qwen2RMSNorm()
        (post_attention_layernorm): Qwen2RMSNorm()
      )
      (6): Qwen2DecoderLayer(
        (self_attn): Qwen2FlashAttention2(
          (q_proj): Linear(in_features=1024, out_features=1024, bias=True)
          (k_proj): Linear(in_features=1024, out_features=1024, bias=True)
          (v_proj): Linear(in_features=1024, out_features=1024, bias=True)
          (o_proj): Linear(in_features=1024, out_features=1024, bias=False)
          (rotary_emb): Qwen2RotaryEmbedding()
        )
        (mlp): Qwen2MLP(
          (gate_proj): Linear(in_features=1024, out_features=2816, bias=False)
          (up_proj): Linear(in_features=1024, out_features=2816, bias=False)
          (down_proj): Linear(in_features=2816, out_features=1024, bias=False)
          (act_fn): SiLU()
        )
        (input_layernorm): Qwen2RMSNorm()
        (post_attention_layernorm): Qwen2RMSNorm()
      )
      (7): Qwen2DecoderLayer(
        (self_attn): Qwen2FlashAttention2(
          (q_proj): Linear(in_features=1024, out_features=1024, bias=True)
          (k_proj): Linear(in_features=1024, out_features=1024, bias=True)
          (v_proj): Linear(in_features=1024, out_features=1024, bias=True)
          (o_proj): Linear(in_features=1024, out_features=1024, bias=False)
          (rotary_emb): Qwen2RotaryEmbedding()
        )
        (mlp): Qwen2MLP(
          (gate_proj): Linear(in_features=1024, out_features=2816, bias=False)
          (up_proj): Linear(in_features=1024, out_features=2816, bias=False)
          (down_proj): Linear(in_features=2816, out_features=1024, bias=False)
          (act_fn): SiLU()
        )
        (input_layernorm): Qwen2RMSNorm()
        (post_attention_layernorm): Qwen2RMSNorm()
      )
      (8): Qwen2DecoderLayer(
        (self_attn): Qwen2FlashAttention2(
          (q_proj): Linear(in_features=1024, out_features=1024, bias=True)
          (k_proj): Linear(in_features=1024, out_features=1024, bias=True)
          (v_proj): Linear(in_features=1024, out_features=1024, bias=True)
          (o_proj): Linear(in_features=1024, out_features=1024, bias=False)
          (rotary_emb): Qwen2RotaryEmbedding()
        )
        (mlp): Qwen2MLP(
          (gate_proj): Linear(in_features=1024, out_features=2816, bias=False)
          (up_proj): Linear(in_features=1024, out_features=2816, bias=False)
          (down_proj): Linear(in_features=2816, out_features=1024, bias=False)
          (act_fn): SiLU()
        )
        (input_layernorm): Qwen2RMSNorm()
        (post_attention_layernorm): Qwen2RMSNorm()
      )
      (9): Qwen2DecoderLayer(
        (self_attn): Qwen2FlashAttention2(
          (q_proj): Linear(in_features=1024, out_features=1024, bias=True)
          (k_proj): Linear(in_features=1024, out_features=1024, bias=True)
          (v_proj): Linear(in_features=1024, out_features=1024, bias=True)
          (o_proj): Linear(in_features=1024, out_features=1024, bias=False)
          (rotary_emb): Qwen2RotaryEmbedding()
        )
        (mlp): Qwen2MLP(
          (gate_proj): Linear(in_features=1024, out_features=2816, bias=False)
          (up_proj): Linear(in_features=1024, out_features=2816, bias=False)
          (down_proj): Linear(in_features=2816, out_features=1024, bias=False)
          (act_fn): SiLU()
        )
        (input_layernorm): Qwen2RMSNorm()
        (post_attention_layernorm): Qwen2RMSNorm()
      )
      (10): Qwen2DecoderLayer(
        (self_attn): Qwen2FlashAttention2(
          (q_proj): Linear(in_features=1024, out_features=1024, bias=True)
          (k_proj): Linear(in_features=1024, out_features=1024, bias=True)
          (v_proj): Linear(in_features=1024, out_features=1024, bias=True)
          (o_proj): Linear(in_features=1024, out_features=1024, bias=False)
          (rotary_emb): Qwen2RotaryEmbedding()
        )
        (mlp): Qwen2MLP(
          (gate_proj): Linear(in_features=1024, out_features=2816, bias=False)
          (up_proj): Linear(in_features=1024, out_features=2816, bias=False)
          (down_proj): Linear(in_features=2816, out_features=1024, bias=False)
          (act_fn): SiLU()
        )
        (input_layernorm): Qwen2RMSNorm()
        (post_attention_layernorm): Qwen2RMSNorm()
      )
      (11): Qwen2DecoderLayer(
        (self_attn): Qwen2FlashAttention2(
          (q_proj): Linear(in_features=1024, out_features=1024, bias=True)
          (k_proj): Linear(in_features=1024, out_features=1024, bias=True)
          (v_proj): Linear(in_features=1024, out_features=1024, bias=True)
          (o_proj): Linear(in_features=1024, out_features=1024, bias=False)
          (rotary_emb): Qwen2RotaryEmbedding()
        )
        (mlp): Qwen2MLP(
          (gate_proj): Linear(in_features=1024, out_features=2816, bias=False)
          (up_proj): Linear(in_features=1024, out_features=2816, bias=False)
          (down_proj): Linear(in_features=2816, out_features=1024, bias=False)
          (act_fn): SiLU()
        )
        (input_layernorm): Qwen2RMSNorm()
        (post_attention_layernorm): Qwen2RMSNorm()
      )
      (12): Qwen2DecoderLayer(
        (self_attn): Qwen2FlashAttention2(
          (q_proj): Linear(in_features=1024, out_features=1024, bias=True)
          (k_proj): Linear(in_features=1024, out_features=1024, bias=True)
          (v_proj): Linear(in_features=1024, out_features=1024, bias=True)
          (o_proj): Linear(in_features=1024, out_features=1024, bias=False)
          (rotary_emb): Qwen2RotaryEmbedding()
        )
        (mlp): Qwen2MLP(
          (gate_proj): Linear(in_features=1024, out_features=2816, bias=False)
          (up_proj): Linear(in_features=1024, out_features=2816, bias=False)
          (down_proj): Linear(in_features=2816, out_features=1024, bias=False)
          (act_fn): SiLU()
        )
        (input_layernorm): Qwen2RMSNorm()
        (post_attention_layernorm): Qwen2RMSNorm()
      )
      (13): Qwen2DecoderLayer(
        (self_attn): Qwen2FlashAttention2(
          (q_proj): Linear(in_features=1024, out_features=1024, bias=True)
          (k_proj): Linear(in_features=1024, out_features=1024, bias=True)
          (v_proj): Linear(in_features=1024, out_features=1024, bias=True)
          (o_proj): Linear(in_features=1024, out_features=1024, bias=False)
          (rotary_emb): Qwen2RotaryEmbedding()
        )
        (mlp): Qwen2MLP(
          (gate_proj): Linear(in_features=1024, out_features=2816, bias=False)
          (up_proj): Linear(in_features=1024, out_features=2816, bias=False)
          (down_proj): Linear(in_features=2816, out_features=1024, bias=False)
          (act_fn): SiLU()
        )
        (input_layernorm): Qwen2RMSNorm()
        (post_attention_layernorm): Qwen2RMSNorm()
      )
      (14): Qwen2DecoderLayer(
        (self_attn): Qwen2FlashAttention2(
          (q_proj): Linear(in_features=1024, out_features=1024, bias=True)
          (k_proj): Linear(in_features=1024, out_features=1024, bias=True)
          (v_proj): Linear(in_features=1024, out_features=1024, bias=True)
          (o_proj): Linear(in_features=1024, out_features=1024, bias=False)
          (rotary_emb): Qwen2RotaryEmbedding()
        )
        (mlp): Qwen2MLP(
          (gate_proj): Linear(in_features=1024, out_features=2816, bias=False)
          (up_proj): Linear(in_features=1024, out_features=2816, bias=False)
          (down_proj): Linear(in_features=2816, out_features=1024, bias=False)
          (act_fn): SiLU()
        )
        (input_layernorm): Qwen2RMSNorm()
        (post_attention_layernorm): Qwen2RMSNorm()
      )
      (15): Qwen2DecoderLayer(
        (self_attn): Qwen2FlashAttention2(
          (q_proj): Linear(in_features=1024, out_features=1024, bias=True)
          (k_proj): Linear(in_features=1024, out_features=1024, bias=True)
          (v_proj): Linear(in_features=1024, out_features=1024, bias=True)
          (o_proj): Linear(in_features=1024, out_features=1024, bias=False)
          (rotary_emb): Qwen2RotaryEmbedding()
        )
        (mlp): Qwen2MLP(
          (gate_proj): Linear(in_features=1024, out_features=2816, bias=False)
          (up_proj): Linear(in_features=1024, out_features=2816, bias=False)
          (down_proj): Linear(in_features=2816, out_features=1024, bias=False)
          (act_fn): SiLU()
        )
        (input_layernorm): Qwen2RMSNorm()
        (post_attention_layernorm): Qwen2RMSNorm()
      )
      (16): Qwen2DecoderLayer(
        (self_attn): Qwen2FlashAttention2(
          (q_proj): Linear(in_features=1024, out_features=1024, bias=True)
          (k_proj): Linear(in_features=1024, out_features=1024, bias=True)
          (v_proj): Linear(in_features=1024, out_features=1024, bias=True)
          (o_proj): Linear(in_features=1024, out_features=1024, bias=False)
          (rotary_emb): Qwen2RotaryEmbedding()
        )
        (mlp): Qwen2MLP(
          (gate_proj): Linear(in_features=1024, out_features=2816, bias=False)
          (up_proj): Linear(in_features=1024, out_features=2816, bias=False)
          (down_proj): Linear(in_features=2816, out_features=1024, bias=False)
          (act_fn): SiLU()
        )
        (input_layernorm): Qwen2RMSNorm()
        (post_attention_layernorm): Qwen2RMSNorm()
      )
      (17): Qwen2DecoderLayer(
        (self_attn): Qwen2FlashAttention2(
          (q_proj): Linear(in_features=1024, out_features=1024, bias=True)
          (k_proj): Linear(in_features=1024, out_features=1024, bias=True)
          (v_proj): Linear(in_features=1024, out_features=1024, bias=True)
          (o_proj): Linear(in_features=1024, out_features=1024, bias=False)
          (rotary_emb): Qwen2RotaryEmbedding()
        )
        (mlp): Qwen2MLP(
          (gate_proj): Linear(in_features=1024, out_features=2816, bias=False)
          (up_proj): Linear(in_features=1024, out_features=2816, bias=False)
          (down_proj): Linear(in_features=2816, out_features=1024, bias=False)
          (act_fn): SiLU()
        )
        (input_layernorm): Qwen2RMSNorm()
        (post_attention_layernorm): Qwen2RMSNorm()
      )
      (18): Qwen2DecoderLayer(
        (self_attn): Qwen2FlashAttention2(
          (q_proj): Linear(in_features=1024, out_features=1024, bias=True)
          (k_proj): Linear(in_features=1024, out_features=1024, bias=True)
          (v_proj): Linear(in_features=1024, out_features=1024, bias=True)
          (o_proj): Linear(in_features=1024, out_features=1024, bias=False)
          (rotary_emb): Qwen2RotaryEmbedding()
        )
        (mlp): Qwen2MLP(
          (gate_proj): Linear(in_features=1024, out_features=2816, bias=False)
          (up_proj): Linear(in_features=1024, out_features=2816, bias=False)
          (down_proj): Linear(in_features=2816, out_features=1024, bias=False)
          (act_fn): SiLU()
        )
        (input_layernorm): Qwen2RMSNorm()
        (post_attention_layernorm): Qwen2RMSNorm()
      )
      (19): Qwen2DecoderLayer(
        (self_attn): Qwen2FlashAttention2(
          (q_proj): Linear(in_features=1024, out_features=1024, bias=True)
          (k_proj): Linear(in_features=1024, out_features=1024, bias=True)
          (v_proj): Linear(in_features=1024, out_features=1024, bias=True)
          (o_proj): Linear(in_features=1024, out_features=1024, bias=False)
          (rotary_emb): Qwen2RotaryEmbedding()
        )
        (mlp): Qwen2MLP(
          (gate_proj): Linear(in_features=1024, out_features=2816, bias=False)
          (up_proj): Linear(in_features=1024, out_features=2816, bias=False)
          (down_proj): Linear(in_features=2816, out_features=1024, bias=False)
          (act_fn): SiLU()
        )
        (input_layernorm): Qwen2RMSNorm()
        (post_attention_layernorm): Qwen2RMSNorm()
      )
      (20): Qwen2DecoderLayer(
        (self_attn): Qwen2FlashAttention2(
          (q_proj): Linear(in_features=1024, out_features=1024, bias=True)
          (k_proj): Linear(in_features=1024, out_features=1024, bias=True)
          (v_proj): Linear(in_features=1024, out_features=1024, bias=True)
          (o_proj): Linear(in_features=1024, out_features=1024, bias=False)
          (rotary_emb): Qwen2RotaryEmbedding()
        )
        (mlp): Qwen2MLP(
          (gate_proj): Linear(in_features=1024, out_features=2816, bias=False)
          (up_proj): Linear(in_features=1024, out_features=2816, bias=False)
          (down_proj): Linear(in_features=2816, out_features=1024, bias=False)
          (act_fn): SiLU()
        )
        (input_layernorm): Qwen2RMSNorm()
        (post_attention_layernorm): Qwen2RMSNorm()
      )
      (21): Qwen2DecoderLayer(
        (self_attn): Qwen2FlashAttention2(
          (q_proj): Linear(in_features=1024, out_features=1024, bias=True)
          (k_proj): Linear(in_features=1024, out_features=1024, bias=True)
          (v_proj): Linear(in_features=1024, out_features=1024, bias=True)
          (o_proj): Linear(in_features=1024, out_features=1024, bias=False)
          (rotary_emb): Qwen2RotaryEmbedding()
        )
        (mlp): Qwen2MLP(
          (gate_proj): Linear(in_features=1024, out_features=2816, bias=False)
          (up_proj): Linear(in_features=1024, out_features=2816, bias=False)
          (down_proj): Linear(in_features=2816, out_features=1024, bias=False)
          (act_fn): SiLU()
        )
        (input_layernorm): Qwen2RMSNorm()
        (post_attention_layernorm): Qwen2RMSNorm()
      )
      (22): Qwen2DecoderLayer(
        (self_attn): Qwen2FlashAttention2(
          (q_proj): Linear(in_features=1024, out_features=1024, bias=True)
          (k_proj): Linear(in_features=1024, out_features=1024, bias=True)
          (v_proj): Linear(in_features=1024, out_features=1024, bias=True)
          (o_proj): Linear(in_features=1024, out_features=1024, bias=False)
          (rotary_emb): Qwen2RotaryEmbedding()
        )
        (mlp): Qwen2MLP(
          (gate_proj): Linear(in_features=1024, out_features=2816, bias=False)
          (up_proj): Linear(in_features=1024, out_features=2816, bias=False)
          (down_proj): Linear(in_features=2816, out_features=1024, bias=False)
          (act_fn): SiLU()
        )
        (input_layernorm): Qwen2RMSNorm()
        (post_attention_layernorm): Qwen2RMSNorm()
      )
      (23): Qwen2DecoderLayer(
        (self_attn): Qwen2FlashAttention2(
          (q_proj): Linear(in_features=1024, out_features=1024, bias=True)
          (k_proj): Linear(in_features=1024, out_features=1024, bias=True)
          (v_proj): Linear(in_features=1024, out_features=1024, bias=True)
          (o_proj): Linear(in_features=1024, out_features=1024, bias=False)
          (rotary_emb): Qwen2RotaryEmbedding()
        )
        (mlp): Qwen2MLP(
          (gate_proj): Linear(in_features=1024, out_features=2816, bias=False)
          (up_proj): Linear(in_features=1024, out_features=2816, bias=False)
          (down_proj): Linear(in_features=2816, out_features=1024, bias=False)
          (act_fn): SiLU()
        )
        (input_layernorm): Qwen2RMSNorm()
        (post_attention_layernorm): Qwen2RMSNorm()
      )
    )
    (norm): Qwen2RMSNorm()
  )
  (lm_head): Linear(in_features=1024, out_features=151936, bias=False)
)
Detected kernel version 5.4.0, which is below the recommended minimum of 5.5.0; this can cause the process to hang. It is recommended to upgrade the kernel to the minimum version or higher.
[INFO|trainer.py:586] 2024-05-10 18:13:45,350 >> Using auto half precision backend
Dataset({
    features: ['input_ids', 'attention_mask'],
    num_rows: 15581646
…
