…
{'text': "           | Suprovat Bogura\n             \n          \n           -\n  ():                    ,         \n , ' -    -                     ,  ,   '\n ( )         ()                       \n                                       \n            ,            \n , -                              ,     \n                      , '         ,   '\n , '-          ,             '       , '       \n               ,          ,       '\n                                     "}
Loading cached shuffled indices for dataset at /mnt/vol1/huangxin/nanda/dataset/CulturaX/cache/json/default-4e02b910cc3d648d/0.0.0/c8d2d9508a2a2067ab02cd118834ecef34c3700d143b31835ec4235bf10109f7/cache-0c693562a2a9ceca.arrow
Dataset({
    features: ['input_ids', 'attention_mask'],
    num_rows: 1084187
})
Qwen2MoeaMergeModel(
  (small): Qwen2MoeaGeneratorModel(
    (embed_tokens): Embedding(151936, 1024)
    (layers): ModuleList(
      (0): Qwen2MoeaGeneratorDecoderLayer(
        (self_attn): Qwen2FlashAttention2(
          (q_proj): Linear(in_features=1024, out_features=1024, bias=True)
          (k_proj): Linear(in_features=1024, out_features=1024, bias=True)
          (v_proj): Linear(in_features=1024, out_features=1024, bias=True)
          (o_proj): Linear(in_features=1024, out_features=1024, bias=False)
          (rotary_emb): Qwen2RotaryEmbedding()
        )
        (mlp): Qwen2MLP(
          (gate_proj): Linear(in_features=1024, out_features=2816, bias=False)
          (up_proj): Linear(in_features=1024, out_features=2816, bias=False)
          (down_proj): Linear(in_features=2816, out_features=1024, bias=False)
          (act_fn): SiLU()
        )
        (input_layernorm): Qwen2RMSNorm()
        (post_attention_layernorm): Qwen2RMSNorm()
      )
      (1): Qwen2MoeaGeneratorDecoderLayer(
        (self_attn): Qwen2FlashAttention2(
          (q_proj): Linear(in_features=1024, out_features=1024, bias=True)
          (k_proj): Linear(in_features=1024, out_features=1024, bias=True)
          (v_proj): Linear(in_features=1024, out_features=1024, bias=True)
          (o_proj): Linear(in_features=1024, out_features=1024, bias=False)
          (rotary_emb): Qwen2RotaryEmbedding()
        )
        (mlp): Qwen2MLP(
          (gate_proj): Linear(in_features=1024, out_features=2816, bias=False)
          (up_proj): Linear(in_features=1024, out_features=2816, bias=False)
          (down_proj): Linear(in_features=2816, out_features=1024, bias=False)
          (act_fn): SiLU()
        )
        (input_layernorm): Qwen2RMSNorm()
        (post_attention_layernorm): Qwen2RMSNorm()
      )
      (2): Qwen2MoeaGeneratorDecoderLayer(
        (self_attn): Qwen2FlashAttention2(
          (q_proj): Linear(in_features=1024, out_features=1024, bias=True)
          (k_proj): Linear(in_features=1024, out_features=1024, bias=True)
          (v_proj): Linear(in_features=1024, out_features=1024, bias=True)
          (o_proj): Linear(in_features=1024, out_features=1024, bias=False)
          (rotary_emb): Qwen2RotaryEmbedding()
        )
        (mlp): Qwen2MLP(
          (gate_proj): Linear(in_features=1024, out_features=2816, bias=False)
          (up_proj): Linear(in_features=1024, out_features=2816, bias=False)
          (down_proj): Linear(in_features=2816, out_features=1024, bias=False)
          (act_fn): SiLU()
        )
        (input_layernorm): Qwen2RMSNorm()
        (post_attention_layernorm): Qwen2RMSNorm()
      )
      (3): Qwen2MoeaGeneratorDecoderLayer(
        (self_attn): Qwen2FlashAttention2(
          (q_proj): Linear(in_features=1024, out_features=1024, bias=True)
          (k_proj): Linear(in_features=1024, out_features=1024, bias=True)
          (v_proj): Linear(in_features=1024, out_features=1024, bias=True)
          (o_proj): Linear(in_features=1024, out_features=1024, bias=False)
          (rotary_emb): Qwen2RotaryEmbedding()
        )
        (mlp): Qwen2MLP(
          (gate_proj): Linear(in_features=1024, out_features=2816, bias=False)
          (up_proj): Linear(in_features=1024, out_features=2816, bias=False)
          (down_proj): Linear(in_features=2816, out_features=1024, bias=False)
          (act_fn): SiLU()
        )
        (input_layernorm): Qwen2RMSNorm()
        (post_attention_layernorm): Qwen2RMSNorm()
      )
      (4): Qwen2MoeaGeneratorDecoderLayer(
        (self_attn): Qwen2FlashAttention2(
          (q_proj): Linear(in_features=1024, out_features=1024, bias=True)
          (k_proj): Linear(in_features=1024, out_features=1024, bias=True)
          (v_proj): Linear(in_features=1024, out_features=1024, bias=True)
          (o_proj): Linear(in_features=1024, out_features=1024, bias=False)
          (rotary_emb): Qwen2RotaryEmbedding()
        )
        (mlp): Qwen2MLP(
          (gate_proj): Linear(in_features=1024, out_features=2816, bias=False)
          (up_proj): Linear(in_features=1024, out_features=2816, bias=False)
          (down_proj): Linear(in_features=2816, out_features=1024, bias=False)
          (act_fn): SiLU()
        )
        (input_layernorm): Qwen2RMSNorm()
        (post_attention_layernorm): Qwen2RMSNorm()
      )
      (5): Qwen2MoeaGeneratorDecoderLayer(
        (self_attn): Qwen2FlashAttention2(
          (q_proj): Linear(in_features=1024, out_features=1024, bias=True)
          (k_proj): Linear(in_features=1024, out_features=1024, bias=True)
          (v_proj): Linear(in_features=1024, out_features=1024, bias=True)
          (o_proj): Linear(in_features=1024, out_features=1024, bias=False)
          (rotary_emb): Qwen2RotaryEmbedding()
        )
        (mlp): Qwen2MLP(
          (gate_proj): Linear(in_features=1024, out_features=2816, bias=False)
          (up_proj): Linear(in_features=1024, out_features=2816, bias=False)
          (down_proj): Linear(in_features=2816, out_features=1024, bias=False)
          (act_fn): SiLU()
        )
        (input_layernorm): Qwen2RMSNorm()
        (post_attention_layernorm): Qwen2RMSNorm()
      )
      (6): Qwen2MoeaGeneratorDecoderLayer(
        (self_attn): Qwen2FlashAttention2(
          (q_proj): Linear(in_features=1024, out_features=1024, bias=True)
          (k_proj): Linear(in_features=1024, out_features=1024, bias=True)
          (v_proj): Linear(in_features=1024, out_features=1024, bias=True)
          (o_proj): Linear(in_features=1024, out_features=1024, bias=False)
          (rotary_emb): Qwen2RotaryEmbedding()
        )
        (mlp): Qwen2MLP(
          (gate_proj): Linear(in_features=1024, out_features=2816, bias=False)
          (up_proj): Linear(in_features=1024, out_features=2816, bias=False)
          (down_proj): Linear(in_features=2816, out_features=1024, bias=False)
          (act_fn): SiLU()
        )
        (input_layernorm): Qwen2RMSNorm()
        (post_attention_layernorm): Qwen2RMSNorm()
      )
      (7): Qwen2MoeaGeneratorDecoderLayer(
        (self_attn): Qwen2FlashAttention2(
          (q_proj): Linear(in_features=1024, out_features=1024, bias=True)
          (k_proj): Linear(in_features=1024, out_features=1024, bias=True)
          (v_proj): Linear(in_features=1024, out_features=1024, bias=True)
          (o_proj): Linear(in_features=1024, out_features=1024, bias=False)
          (rotary_emb): Qwen2RotaryEmbedding()
        )
        (mlp): Qwen2MLP(
          (gate_proj): Linear(in_features=1024, out_features=2816, bias=False)
          (up_proj): Linear(in_features=1024, out_features=2816, bias=False)
          (down_proj): Linear(in_features=2816, out_features=1024, bias=False)
          (act_fn): SiLU()
        )
        (input_layernorm): Qwen2RMSNorm()
        (post_attention_layernorm): Qwen2RMSNorm()
      )
      (8): Qwen2MoeaGeneratorDecoderLayer(
        (self_attn): Qwen2FlashAttention2(
          (q_proj): Linear(in_features=1024, out_features=1024, bias=True)
          (k_proj): Linear(in_features=1024, out_features=1024, bias=True)
          (v_proj): Linear(in_features=1024, out_features=1024, bias=True)
          (o_proj): Linear(in_features=1024, out_features=1024, bias=False)
          (rotary_emb): Qwen2RotaryEmbedding()
        )
        (mlp): Qwen2MLP(
          (gate_proj): Linear(in_features=1024, out_features=2816, bias=False)
          (up_proj): Linear(in_features=1024, out_features=2816, bias=False)
          (down_proj): Linear(in_features=2816, out_features=1024, bias=False)
          (act_fn): SiLU()
        )
        (input_layernorm): Qwen2RMSNorm()
        (post_attention_layernorm): Qwen2RMSNorm()
      )
      (9): Qwen2MoeaGeneratorDecoderLayer(
        (self_attn): Qwen2FlashAttention2(
          (q_proj): Linear(in_features=1024, out_features=1024, bias=True)
          (k_proj): Linear(in_features=1024, out_features=1024, bias=True)
          (v_proj): Linear(in_features=1024, out_features=1024, bias=True)
          (o_proj): Linear(in_features=1024, out_features=1024, bias=False)
          (rotary_emb): Qwen2RotaryEmbedding()
        )
        (mlp): Qwen2MLP(
          (gate_proj): Linear(in_features=1024, out_features=2816, bias=False)
          (up_proj): Linear(in_features=1024, out_features=2816, bias=False)
          (down_proj): Linear(in_features=2816, out_features=1024, bias=False)
          (act_fn): SiLU()
        )
        (input_layernorm): Qwen2RMSNorm()
        (post_attention_layernorm): Qwen2RMSNorm()
      )
      (10): Qwen2MoeaGeneratorDecoderLayer(
        (self_attn): Qwen2FlashAttention2(
          (q_proj): Linear(in_features=1024, out_features=1024, bias=True)
          (k_proj): Linear(in_features=1024, out_features=1024, bias=True)
          (v_proj): Linear(in_features=1024, out_features=1024, bias=True)
          (o_proj): Linear(in_features=1024, out_features=1024, bias=False)
          (rotary_emb): Qwen2RotaryEmbedding()
        )
        (mlp): Qwen2MLP(
          (gate_proj): Linear(in_features=1024, out_features=2816, bias=False)
          (up_proj): Linear(in_features=1024, out_features=2816, bias=False)
          (down_proj): Linear(in_features=2816, out_features=1024, bias=False)
          (act_fn): SiLU()
        )
        (input_layernorm): Qwen2RMSNorm()
        (post_attention_layernorm): Qwen2RMSNorm()
      )
      (11): Qwen2MoeaGeneratorDecoderLayer(
        (self_attn): Qwen2FlashAttention2(
          (q_proj): Linear(in_features=1024, out_features=1024, bias=True)
          (k_proj): Linear(in_features=1024, out_features=1024, bias=True)
          (v_proj): Linear(in_features=1024, out_features=1024, bias=True)
          (o_proj): Linear(in_features=1024, out_features=1024, bias=False)
          (rotary_emb): Qwen2RotaryEmbedding()
        )
        (mlp): Qwen2MLP(
          (gate_proj): Linear(in_features=1024, out_features=2816, bias=False)
          (up_proj): Linear(in_features=1024, out_features=2816, bias=False)
          (down_proj): Linear(in_features=2816, out_features=1024, bias=False)
          (act_fn): SiLU()
        )
        (input_layernorm): Qwen2RMSNorm()
        (post_attention_layernorm): Qwen2RMSNorm()
      )
      (12): Qwen2MoeaGeneratorDecoderLayer(
        (self_attn): Qwen2FlashAttention2(
          (q_proj): Linear(in_features=1024, out_features=1024, bias=True)
          (k_proj): Linear(in_features=1024, out_features=1024, bias=True)
          (v_proj): Linear(in_features=1024, out_features=1024, bias=True)
          (o_proj): Linear(in_features=1024, out_features=1024, bias=False)
          (rotary_emb): Qwen2RotaryEmbedding()
        )
        (mlp): Qwen2MLP(
          (gate_proj): Linear(in_features=1024, out_features=2816, bias=False)
          (up_proj): Linear(in_features=1024, out_features=2816, bias=False)
          (down_proj): Linear(in_features=2816, out_features=1024, bias=False)
          (act_fn): SiLU()
        )
        (input_layernorm): Qwen2RMSNorm()
        (post_attention_layernorm): Qwen2RMSNorm()
      )
      (13): Qwen2MoeaGeneratorDecoderLayer(
        (self_attn): Qwen2FlashAttention2(
          (q_proj): Linear(in_features=1024, out_features=1024, bias=True)
          (k_proj): Linear(in_features=1024, out_features=1024, bias=True)
          (v_proj): Linear(in_features=1024, out_features=1024, bias=True)
          (o_proj): Linear(in_features=1024, out_features=1024, bias=False)
          (rotary_emb): Qwen2RotaryEmbedding()
        )
        (mlp): Qwen2MLP(
          (gate_proj): Linear(in_features=1024, out_features=2816, bias=False)
          (up_proj): Linear(in_features=1024, out_features=2816, bias=False)
          (down_proj): Linear(in_features=2816, out_features=1024, bias=False)
          (act_fn): SiLU()
        )
        (input_layernorm): Qwen2RMSNorm()
        (post_attention_layernorm): Qwen2RMSNorm()
      )
      (14): Qwen2MoeaGeneratorDecoderLayer(
        (self_attn): Qwen2FlashAttention2(
          (q_proj): Linear(in_features=1024, out_features=1024, bias=True)
          (k_proj): Linear(in_features=1024, out_features=1024, bias=True)
          (v_proj): Linear(in_features=1024, out_features=1024, bias=True)
          (o_proj): Linear(in_features=1024, out_features=1024, bias=False)
          (rotary_emb): Qwen2RotaryEmbedding()
        )
        (mlp): Qwen2MLP(
          (gate_proj): Linear(in_features=1024, out_features=2816, bias=False)
          (up_proj): Linear(in_features=1024, out_features=2816, bias=False)
          (down_proj): Linear(in_features=2816, out_features=1024, bias=False)
          (act_fn): SiLU()
        )
        (input_layernorm): Qwen2RMSNorm()
        (post_attention_layernorm): Qwen2RMSNorm()
      )
      (15): Qwen2MoeaGeneratorDecoderLayer(
        (self_attn): Qwen2FlashAttention2(
          (q_proj): Linear(in_features=1024, out_features=1024, bias=True)
          (k_proj): Linear(in_features=1024, out_features=1024, bias=True)
          (v_proj): Linear(in_features=1024, out_features=1024, bias=True)
          (o_proj): Linear(in_features=1024, out_features=1024, bias=False)
          (rotary_emb): Qwen2RotaryEmbedding()
        )
        (mlp): Qwen2MLP(
          (gate_proj): Linear(in_features=1024, out_features=2816, bias=False)
          (up_proj): Linear(in_features=1024, out_features=2816, bias=False)
          (down_proj): Linear(in_features=2816, out_features=1024, bias=False)
          (act_fn): SiLU()
        )
        (input_layernorm): Qwen2RMSNorm()
        (post_attention_layernorm): Qwen2RMSNorm()
      )
      (16): Qwen2MoeaGeneratorDecoderLayer(
        (self_attn): Qwen2FlashAttention2(
          (q_proj): Linear(in_features=1024, out_features=1024, bias=True)
          (k_proj): Linear(in_features=1024, out_features=1024, bias=True)
          (v_proj): Linear(in_features=1024, out_features=1024, bias=True)
          (o_proj): Linear(in_features=1024, out_features=1024, bias=False)
          (rotary_emb): Qwen2RotaryEmbedding()
        )
        (mlp): Qwen2MLP(
          (gate_proj): Linear(in_features=1024, out_features=2816, bias=False)
          (up_proj): Linear(in_features=1024, out_features=2816, bias=False)
          (down_proj): Linear(in_features=2816, out_features=1024, bias=False)
          (act_fn): SiLU()
        )
        (input_layernorm): Qwen2RMSNorm()
        (post_attention_layernorm): Qwen2RMSNorm()
      )
      (17): Qwen2MoeaGeneratorDecoderLayer(
        (self_attn): Qwen2FlashAttention2(
          (q_proj): Linear(in_features=1024, out_features=1024, bias=True)
          (k_proj): Linear(in_features=1024, out_features=1024, bias=True)
          (v_proj): Linear(in_features=1024, out_features=1024, bias=True)
          (o_proj): Linear(in_features=1024, out_features=1024, bias=False)
          (rotary_emb): Qwen2RotaryEmbedding()
        )
        (mlp): Qwen2MLP(
          (gate_proj): Linear(in_features=1024, out_features=2816, bias=False)
          (up_proj): Linear(in_features=1024, out_features=2816, bias=False)
          (down_proj): Linear(in_features=2816, out_features=1024, bias=False)
          (act_fn): SiLU()
        )
        (input_layernorm): Qwen2RMSNorm()
        (post_attention_layernorm): Qwen2RMSNorm()
      )
      (18): Qwen2MoeaGeneratorDecoderLayer(
        (self_attn): Qwen2FlashAttention2(
          (q_proj): Linear(in_features=1024, out_features=1024, bias=True)
          (k_proj): Linear(in_features=1024, out_features=1024, bias=True)
          (v_proj): Linear(in_features=1024, out_features=1024, bias=True)
          (o_proj): Linear(in_features=1024, out_features=1024, bias=False)
          (rotary_emb): Qwen2RotaryEmbedding()
        )
        (mlp): Qwen2MLP(
          (gate_proj): Linear(in_features=1024, out_features=2816, bias=False)
          (up_proj): Linear(in_features=1024, out_features=2816, bias=False)
          (down_proj): Linear(in_features=2816, out_features=1024, bias=False)
          (act_fn): SiLU()
        )
        (input_layernorm): Qwen2RMSNorm()
        (post_attention_layernorm): Qwen2RMSNorm()
      )
      (19): Qwen2MoeaGeneratorDecoderLayer(
        (self_attn): Qwen2FlashAttention2(
          (q_proj): Linear(in_features=1024, out_features=1024, bias=True)
          (k_proj): Linear(in_features=1024, out_features=1024, bias=True)
          (v_proj): Linear(in_features=1024, out_features=1024, bias=True)
          (o_proj): Linear(in_features=1024, out_features=1024, bias=False)
          (rotary_emb): Qwen2RotaryEmbedding()
        )
        (mlp): Qwen2MLP(
          (gate_proj): Linear(in_features=1024, out_features=2816, bias=False)
          (up_proj): Linear(in_features=1024, out_features=2816, bias=False)
          (down_proj): Linear(in_features=2816, out_features=1024, bias=False)
          (act_fn): SiLU()
        )
        (input_layernorm): Qwen2RMSNorm()
        (post_attention_layernorm): Qwen2RMSNorm()
      )
      (20): Qwen2MoeaGeneratorDecoderLayer(
        (self_attn): Qwen2FlashAttention2(
          (q_proj): Linear(in_features=1024, out_features=1024, bias=True)
          (k_proj): Linear(in_features=1024, out_features=1024, bias=True)
          (v_proj): Linear(in_features=1024, out_features=1024, bias=True)
          (o_proj): Linear(in_features=1024, out_features=1024, bias=False)
          (rotary_emb): Qwen2RotaryEmbedding()
        )
        (mlp): Qwen2MLP(
          (gate_proj): Linear(in_features=1024, out_features=2816, bias=False)
          (up_proj): Linear(in_features=1024, out_features=2816, bias=False)
          (down_proj): Linear(in_features=2816, out_features=1024, bias=False)
          (act_fn): SiLU()
        )
        (input_layernorm): Qwen2RMSNorm()
        (post_attention_layernorm): Qwen2RMSNorm()
      )
      (21): Qwen2MoeaGeneratorDecoderLayer(
        (self_attn): Qwen2FlashAttention2(
          (q_proj): Linear(in_features=1024, out_features=1024, bias=True)
          (k_proj): Linear(in_features=1024, out_features=1024, bias=True)
          (v_proj): Linear(in_features=1024, out_features=1024, bias=True)
          (o_proj): Linear(in_features=1024, out_features=1024, bias=False)
          (rotary_emb): Qwen2RotaryEmbedding()
        )
        (mlp): Qwen2MLP(
          (gate_proj): Linear(in_features=1024, out_features=2816, bias=False)
          (up_proj): Linear(in_features=1024, out_features=2816, bias=False)
          (down_proj): Linear(in_features=2816, out_features=1024, bias=False)
          (act_fn): SiLU()
        )
        (input_layernorm): Qwen2RMSNorm()
        (post_attention_layernorm): Qwen2RMSNorm()
      )
      (22): Qwen2MoeaGeneratorDecoderLayer(
        (self_attn): Qwen2FlashAttention2(
          (q_proj): Linear(in_features=1024, out_features=1024, bias=True)
          (k_proj): Linear(in_features=1024, out_features=1024, bias=True)
          (v_proj): Linear(in_features=1024, out_features=1024, bias=True)
          (o_proj): Linear(in_features=1024, out_features=1024, bias=False)
          (rotary_emb): Qwen2RotaryEmbedding()
        )
        (mlp): Qwen2MLP(
          (gate_proj): Linear(in_features=1024, out_features=2816, bias=False)
          (up_proj): Linear(in_features=1024, out_features=2816, bias=False)
          (down_proj): Linear(in_features=2816, out_features=1024, bias=False)
          (act_fn): SiLU()
        )
        (input_layernorm): Qwen2RMSNorm()
        (post_attention_layernorm): Qwen2RMSNorm()
      )
      (23): Qwen2MoeaGeneratorDecoderLayer(
        (self_attn): Qwen2FlashAttention2(
          (q_proj): Linear(in_features=1024, out_features=1024, bias=True)
          (k_proj): Linear(in_features=1024, out_features=1024, bias=True)
          (v_proj): Linear(in_features=1024, out_features=1024, bias=True)
          (o_proj): Linear(in_features=1024, out_features=1024, bias=False)
          (rotary_emb): Qwen2RotaryEmbedding()
        )
        (mlp): Qwen2MLP(
          (gate_proj): Linear(in_features=1024, out_features=2816, bias=False)
          (up_proj): Linear(in_features=1024, out_features=2816, bias=False)
          (down_proj): Linear(in_features=2816, out_features=1024, bias=False)
          (act_fn): SiLU()
        )
        (input_layernorm): Qwen2RMSNorm()
        (post_attention_layernorm): Qwen2RMSNorm()
      )
    )
    (norm): Qwen2RMSNorm()
  )
  (large): Qwen2MoeaCausalLM(
    (model): Qwen2MoeaModel(
      (embed_tokens): Embedding(151936, 4096)
      (layers): ModuleList(
        (0): Qwen2MoeaDecoderLayer(
          (self_attn): Qwen2FlashAttention2(
            (q_proj): Linear(in_features=4096, out_features=4096, bias=True)
            (k_proj): Linear(in_features=4096, out_features=4096, bias=True)
            (v_proj): Linear(in_features=4096, out_features=4096, bias=True)
            (o_proj): Linear(in_features=4096, out_features=4096, bias=False)
            (rotary_emb): Qwen2RotaryEmbedding()
          )
          (mlp): Qwen2MLP(
            (gate_proj): Linear(in_features=4096, out_features=11008, bias=False)
            (up_proj): Linear(in_features=4096, out_features=11008, bias=False)
            (down_proj): Linear(in_features=11008, out_features=4096, bias=False)
            (act_fn): SiLU()
          )
          (input_layernorm): Qwen2RMSNorm()
          (post_attention_layernorm): Qwen2RMSNorm()
        )
        (1): Qwen2MoeaDecoderLayer(
          (self_attn): Qwen2FlashAttention2(
            (q_proj): Linear(in_features=4096, out_features=4096, bias=True)
            (k_proj): Linear(in_features=4096, out_features=4096, bias=True)
            (v_proj): Linear(in_features=4096, out_features=4096, bias=True)
            (o_proj): Linear(in_features=4096, out_features=4096, bias=False)
            (rotary_emb): Qwen2RotaryEmbedding()
          )
          (mlp): Qwen2MLP(
            (gate_proj): Linear(in_features=4096, out_features=11008, bias=False)
            (up_proj): Linear(in_features=4096, out_features=11008, bias=False)
            (down_proj): Linear(in_features=11008, out_features=4096, bias=False)
            (act_fn): SiLU()
          )
          (input_layernorm): Qwen2RMSNorm()
          (post_attention_layernorm): Qwen2RMSNorm()
        )
        (2): Qwen2MoeaDecoderLayer(
          (self_attn): Qwen2FlashAttention2(
            (q_proj): Linear(in_features=4096, out_features=4096, bias=True)
            (k_proj): Linear(in_features=4096, out_features=4096, bias=True)
            (v_proj): Linear(in_features=4096, out_features=4096, bias=True)
            (o_proj): Linear(in_features=4096, out_features=4096, bias=False)
            (rotary_emb): Qwen2RotaryEmbedding()
          )
          (mlp): Qwen2MLP(
            (gate_proj): Linear(in_features=4096, out_features=11008, bias=False)
            (up_proj): Linear(in_features=4096, out_features=11008, bias=False)
            (down_proj): Linear(in_features=11008, out_features=4096, bias=False)
            (act_fn): SiLU()
          )
          (input_layernorm): Qwen2RMSNorm()
          (post_attention_layernorm): Qwen2RMSNorm()
        )
        (3): Qwen2MoeaDecoderLayer(
          (self_attn): Qwen2FlashAttention2(
            (q_proj): Linear(in_features=4096, out_features=4096, bias=True)
            (k_proj): Linear(in_features=4096, out_features=4096, bias=True)
            (v_proj): Linear(in_features=4096, out_features=4096, bias=True)
            (o_proj): Linear(in_features=4096, out_features=4096, bias=False)
            (rotary_emb): Qwen2RotaryEmbedding()
          )
          (mlp): Qwen2MLP(
            (gate_proj): Linear(in_features=4096, out_features=11008, bias=False)
            (up_proj): Linear(in_features=4096, out_features=11008, bias=False)
            (down_proj): Linear(in_features=11008, out_features=4096, bias=False)
            (act_fn): SiLU()
          )
          (input_layernorm): Qwen2RMSNorm()
          (post_attention_layernorm): Qwen2RMSNorm()
        )
        (4): Qwen2MoeaDecoderLayer(
          (self_attn): Qwen2FlashAttention2(
            (q_proj): Linear(in_features=4096, out_features=4096, bias=True)
            (k_proj): Linear(in_features=4096, out_features=4096, bias=True)
            (v_proj): Linear(in_features=4096, out_features=4096, bias=True)
            (o_proj): Linear(in_features=4096, out_features=4096, bias=False)
            (rotary_emb): Qwen2RotaryEmbedding()
          )
          (mlp): Qwen2MLP(
            (gate_proj): Linear(in_features=4096, out_features=11008, bias=False)
            (up_proj): Linear(in_features=4096, out_features=11008, bias=False)
            (down_proj): Linear(in_features=11008, out_features=4096, bias=False)
            (act_fn): SiLU()
          )
          (input_layernorm): Qwen2RMSNorm()
          (post_attention_layernorm): Qwen2RMSNorm()
        )
        (5): Qwen2MoeaDecoderLayer(
          (self_attn): Qwen2FlashAttention2(
            (q_proj): Linear(in_features=4096, out_features=4096, bias=True)
            (k_proj): Linear(in_features=4096, out_features=4096, bias=True)
            (v_proj): Linear(in_features=4096, out_features=4096, bias=True)
            (o_proj): Linear(in_features=4096, out_features=4096, bias=False)
            (rotary_emb): Qwen2RotaryEmbedding()
          )
          (mlp): Qwen2MLP(
            (gate_proj): Linear(in_features=4096, out_features=11008, bias=False)
            (up_proj): Linear(in_features=4096, out_features=11008, bias=False)
            (down_proj): Linear(in_features=11008, out_features=4096, bias=False)
            (act_fn): SiLU()
          )
          (input_layernorm): Qwen2RMSNorm()
          (post_attention_layernorm): Qwen2RMSNorm()
        )
        (6): Qwen2MoeaDecoderLayer(
          (self_attn): Qwen2FlashAttention2(
            (q_proj): Linear(in_features=4096, out_features=4096, bias=True)
            (k_proj): Linear(in_features=4096, out_features=4096, bias=True)
            (v_proj): Linear(in_features=4096, out_features=4096, bias=True)
            (o_proj): Linear(in_features=4096, out_features=4096, bias=False)
            (rotary_emb): Qwen2RotaryEmbedding()
          )
          (mlp): Qwen2MLP(
            (gate_proj): Linear(in_features=4096, out_features=11008, bias=False)
            (up_proj): Linear(in_features=4096, out_features=11008, bias=False)
            (down_proj): Linear(in_features=11008, out_features=4096, bias=False)
            (act_fn): SiLU()
          )
          (input_layernorm): Qwen2RMSNorm()
          (post_attention_layernorm): Qwen2RMSNorm()
        )
        (7): Qwen2MoeaDecoderLayer(
          (self_attn): Qwen2FlashAttention2(
            (q_proj): Linear(in_features=4096, out_features=4096, bias=True)
            (k_proj): Linear(in_features=4096, out_features=4096, bias=True)
            (v_proj): Linear(in_features=4096, out_features=4096, bias=True)
            (o_proj): Linear(in_features=4096, out_features=4096, bias=False)
            (rotary_emb): Qwen2RotaryEmbedding()
          )
          (mlp): Qwen2MLP(
            (gate_proj): Linear(in_features=4096, out_features=11008, bias=False)
            (up_proj): Linear(in_features=4096, out_features=11008, bias=False)
            (down_proj): Linear(in_features=11008, out_features=4096, bias=False)
            (act_fn): SiLU()
          )
          (input_layernorm): Qwen2RMSNorm()
          (post_attention_layernorm): Qwen2RMSNorm()
        )
        (8): Qwen2MoeaDecoderLayer(
          (self_attn): Qwen2FlashAttention2(
            (q_proj): Linear(in_features=4096, out_features=4096, bias=True)
            (k_proj): Linear(in_features=4096, out_features=4096, bias=True)
            (v_proj): Linear(in_features=4096, out_features=4096, bias=True)
            (o_proj): Linear(in_features=4096, out_features=4096, bias=False)
            (rotary_emb): Qwen2RotaryEmbedding()
          )
          (mlp): Qwen2MLP(
            (gate_proj): Linear(in_features=4096, out_features=11008, bias=False)
            (up_proj): Linear(in_features=4096, out_features=11008, bias=False)
            (down_proj): Linear(in_features=11008, out_features=4096, bias=False)
            (act_fn): SiLU()
          )
          (input_layernorm): Qwen2RMSNorm()
          (post_attention_layernorm): Qwen2RMSNorm()
        )
        (9): Qwen2MoeaDecoderLayer(
          (self_attn): Qwen2FlashAttention2(
            (q_proj): Linear(in_features=4096, out_features=4096, bias=True)
            (k_proj): Linear(in_features=4096, out_features=4096, bias=True)
            (v_proj): Linear(in_features=4096, out_features=4096, bias=True)
            (o_proj): Linear(in_features=4096, out_features=4096, bias=False)
            (rotary_emb): Qwen2RotaryEmbedding()
          )
          (mlp): Qwen2MLP(
            (gate_proj): Linear(in_features=4096, out_features=11008, bias=False)
            (up_proj): Linear(in_features=4096, out_features=11008, bias=False)
            (down_proj): Linear(in_features=11008, out_features=4096, bias=False)
            (act_fn): SiLU()
          )
          (input_layernorm): Qwen2RMSNorm()
          (post_attention_layernorm): Qwen2RMSNorm()
        )
        (10): Qwen2MoeaDecoderLayer(
          (self_attn): Qwen2FlashAttention2(
            (q_proj): Linear(in_features=4096, out_features=4096, bias=True)
            (k_proj): Linear(in_features=4096, out_features=4096, bias=True)
            (v_proj): Linear(in_features=4096, out_features=4096, bias=True)
            (o_proj): Linear(in_features=4096, out_features=4096, bias=False)
            (rotary_emb): Qwen2RotaryEmbedding()
          )
          (mlp): Qwen2MLP(
            (gate_proj): Linear(in_features=4096, out_features=11008, bias=False)
            (up_proj): Linear(in_features=4096, out_features=11008, bias=False)
            (down_proj): Linear(in_features=11008, out_features=4096, bias=False)
            (act_fn): SiLU()
          )
          (input_layernorm): Qwen2RMSNorm()
          (post_attention_layernorm): Qwen2RMSNorm()
        )
        (11): Qwen2MoeaDecoderLayer(
          (self_attn): Qwen2FlashAttention2(
            (q_proj): Linear(in_features=4096, out_features=4096, bias=True)
            (k_proj): Linear(in_features=4096, out_features=4096, bias=True)
            (v_proj): Linear(in_features=4096, out_features=4096, bias=True)
            (o_proj): Linear(in_features=4096, out_features=4096, bias=False)
            (rotary_emb): Qwen2RotaryEmbedding()
          )
          (mlp): Qwen2MLP(
            (gate_proj): Linear(in_features=4096, out_features=11008, bias=False)
            (up_proj): Linear(in_features=4096, out_features=11008, bias=False)
            (down_proj): Linear(in_features=11008, out_features=4096, bias=False)
            (act_fn): SiLU()
          )
          (input_layernorm): Qwen2RMSNorm()
          (post_attention_layernorm): Qwen2RMSNorm()
        )
        (12): Qwen2MoeaDecoderLayer(
          (self_attn): Qwen2FlashAttention2(
            (q_proj): Linear(in_features=4096, out_features=4096, bias=True)
            (k_proj): Linear(in_features=4096, out_features=4096, bias=True)
            (v_proj): Linear(in_features=4096, out_features=4096, bias=True)
            (o_proj): Linear(in_features=4096, out_features=4096, bias=False)
            (rotary_emb): Qwen2RotaryEmbedding()
          )
          (mlp): Qwen2MLP(
            (gate_proj): Linear(in_features=4096, out_features=11008, bias=False)
            (up_proj): Linear(in_features=4096, out_features=11008, bias=False)
            (down_proj): Linear(in_features=11008, out_features=4096, bias=False)
            (act_fn): SiLU()
          )
          (input_layernorm): Qwen2RMSNorm()
          (post_attention_layernorm): Qwen2RMSNorm()
        )
        (13): Qwen2MoeaDecoderLayer(
          (self_attn): Qwen2FlashAttention2(
            (q_proj): Linear(in_features=4096, out_features=4096, bias=True)
            (k_proj): Linear(in_features=4096, out_features=4096, bias=True)
            (v_proj): Linear(in_features=4096, out_features=4096, bias=True)
            (o_proj): Linear(in_features=4096, out_features=4096, bias=False)
            (rotary_emb): Qwen2RotaryEmbedding()
          )
          (mlp): Qwen2MLP(
            (gate_proj): Linear(in_features=4096, out_features=11008, bias=False)
            (up_proj): Linear(in_features=4096, out_features=11008, bias=False)
            (down_proj): Linear(in_features=11008, out_features=4096, bias=False)
            (act_fn): SiLU()
          )
          (input_layernorm): Qwen2RMSNorm()
          (post_attention_layernorm): Qwen2RMSNorm()
        )
        (14): Qwen2MoeaDecoderLayer(
          (self_attn): Qwen2FlashAttention2(
            (q_proj): Linear(in_features=4096, out_features=4096, bias=True)
            (k_proj): Linear(in_features=4096, out_features=4096, bias=True)
            (v_proj): Linear(in_features=4096, out_features=4096, bias=True)
            (o_proj): Linear(in_features=4096, out_features=4096, bias=False)
            (rotary_emb): Qwen2RotaryEmbedding()
          )
          (mlp): Qwen2MLP(
            (gate_proj): Linear(in_features=4096, out_features=11008, bias=False)
            (up_proj): Linear(in_features=4096, out_features=11008, bias=False)
            (down_proj): Linear(in_features=11008, out_features=4096, bias=False)
            (act_fn): SiLU()
          )
          (input_layernorm): Qwen2RMSNorm()
          (post_attention_layernorm): Qwen2RMSNorm()
        )
        (15): Qwen2MoeaDecoderLayer(
          (self_attn): Qwen2FlashAttention2(
            (q_proj): Linear(in_features=4096, out_features=4096, bias=True)
            (k_proj): Linear(in_features=4096, out_features=4096, bias=True)
            (v_proj): Linear(in_features=4096, out_features=4096, bias=True)
            (o_proj): Linear(in_features=4096, out_features=4096, bias=False)
            (rotary_emb): Qwen2RotaryEmbedding()
          )
          (mlp): Qwen2MLP(
            (gate_proj): Linear(in_features=4096, out_features=11008, bias=False)
            (up_proj): Linear(in_features=4096, out_features=11008, bias=False)
            (down_proj): Linear(in_features=11008, out_features=4096, bias=False)
            (act_fn): SiLU()
          )
          (input_layernorm): Qwen2RMSNorm()
          (post_attention_layernorm): Qwen2RMSNorm()
        )
        (16): Qwen2MoeaDecoderLayer(
          (self_attn): Qwen2FlashAttention2(
            (q_proj): Linear(in_features=4096, out_features=4096, bias=True)
            (k_proj): Linear(in_features=4096, out_features=4096, bias=True)
            (v_proj): Linear(in_features=4096, out_features=4096, bias=True)
            (o_proj): Linear(in_features=4096, out_features=4096, bias=False)
            (rotary_emb): Qwen2RotaryEmbedding()
          )
          (mlp): Qwen2MLP(
            (gate_proj): Linear(in_features=4096, out_features=11008, bias=False)
            (up_proj): Linear(in_features=4096, out_features=11008, bias=False)
            (down_proj): Linear(in_features=11008, out_features=4096, bias=False)
            (act_fn): SiLU()
          )
          (input_layernorm): Qwen2RMSNorm()
          (post_attention_layernorm): Qwen2RMSNorm()
        )
        (17): Qwen2MoeaDecoderLayer(
          (self_attn): Qwen2FlashAttention2(
            (q_proj): Linear(in_features=4096, out_features=4096, bias=True)
            (k_proj): Linear(in_features=4096, out_features=4096, bias=True)
            (v_proj): Linear(in_features=4096, out_features=4096, bias=True)
            (o_proj): Linear(in_features=4096, out_features=4096, bias=False)
            (rotary_emb): Qwen2RotaryEmbedding()
          )
          (mlp): Qwen2MLP(
            (gate_proj): Linear(in_features=4096, out_features=11008, bias=False)
            (up_proj): Linear(in_features=4096, out_features=11008, bias=False)
            (down_proj): Linear(in_features=11008, out_features=4096, bias=False)
            (act_fn): SiLU()
          )
          (input_layernorm): Qwen2RMSNorm()
          (post_attention_layernorm): Qwen2RMSNorm()
        )
        (18): Qwen2MoeaDecoderLayer(
          (self_attn): Qwen2FlashAttention2(
            (q_proj): Linear(in_features=4096, out_features=4096, bias=True)
            (k_proj): Linear(in_features=4096, out_features=4096, bias=True)
            (v_proj): Linear(in_features=4096, out_features=4096, bias=True)
            (o_proj): Linear(in_features=4096, out_features=4096, bias=False)
            (rotary_emb): Qwen2RotaryEmbedding()
          )
          (mlp): Qwen2MLP(
            (gate_proj): Linear(in_features=4096, out_features=11008, bias=False)
            (up_proj): Linear(in_features=4096, out_features=11008, bias=False)
            (down_proj): Linear(in_features=11008, out_features=4096, bias=False)
            (act_fn): SiLU()
          )
          (input_layernorm): Qwen2RMSNorm()
          (post_attention_layernorm): Qwen2RMSNorm()
        )
        (19): Qwen2MoeaDecoderLayer(
          (self_attn): Qwen2FlashAttention2(
            (q_proj): Linear(in_features=4096, out_features=4096, bias=True)
            (k_proj): Linear(in_features=4096, out_features=4096, bias=True)
            (v_proj): Linear(in_features=4096, out_features=4096, bias=True)
            (o_proj): Linear(in_features=4096, out_features=4096, bias=False)
            (rotary_emb): Qwen2RotaryEmbedding()
          )
          (mlp): Qwen2MLP(
            (gate_proj): Linear(in_features=4096, out_features=11008, bias=False)
            (up_proj): Linear(in_features=4096, out_features=11008, bias=False)
            (down_proj): Linear(in_features=11008, out_features=4096, bias=False)
            (act_fn): SiLU()
          )
          (input_layernorm): Qwen2RMSNorm()
          (post_attention_layernorm): Qwen2RMSNorm()
        )
        (20): Qwen2MoeaDecoderLayer(
          (self_attn): Qwen2FlashAttention2(
            (q_proj): Linear(in_features=4096, out_features=4096, bias=True)
            (k_proj): Linear(in_features=4096, out_features=4096, bias=True)
            (v_proj): Linear(in_features=4096, out_features=4096, bias=True)
            (o_proj): Linear(in_features=4096, out_features=4096, bias=False)
            (rotary_emb): Qwen2RotaryEmbedding()
          )
          (mlp): Qwen2MLP(
            (gate_proj): Linear(in_features=4096, out_features=11008, bias=False)
            (up_proj): Linear(in_features=4096, out_features=11008, bias=False)
            (down_proj): Linear(in_features=11008, out_features=4096, bias=False)
            (act_fn): SiLU()
          )
          (input_layernorm): Qwen2RMSNorm()
          (post_attention_layernorm): Qwen2RMSNorm()
        )
        (21): Qwen2MoeaDecoderLayer(
          (self_attn): Qwen2FlashAttention2(
            (q_proj): Linear(in_features=4096, out_features=4096, bias=True)
            (k_proj): Linear(in_features=4096, out_features=4096, bias=True)
            (v_proj): Linear(in_features=4096, out_features=4096, bias=True)
            (o_proj): Linear(in_features=4096, out_features=4096, bias=False)
            (rotary_emb): Qwen2RotaryEmbedding()
          )
          (mlp): Qwen2MLP(
            (gate_proj): Linear(in_features=4096, out_features=11008, bias=False)
            (up_proj): Linear(in_features=4096, out_features=11008, bias=False)
            (down_proj): Linear(in_features=11008, out_features=4096, bias=False)
            (act_fn): SiLU()
          )
          (input_layernorm): Qwen2RMSNorm()
          (post_attention_layernorm): Qwen2RMSNorm()
        )
        (22): Qwen2MoeaDecoderLayer(
          (self_attn): Qwen2FlashAttention2(
            (q_proj): Linear(in_features=4096, out_features=4096, bias=True)
            (k_proj): Linear(in_features=4096, out_features=4096, bias=True)
            (v_proj): Linear(in_features=4096, out_features=4096, bias=True)
            (o_proj): Linear(in_features=4096, out_features=4096, bias=False)
            (rotary_emb): Qwen2RotaryEmbedding()
          )
          (mlp): Qwen2MLP(
            (gate_proj): Linear(in_features=4096, out_features=11008, bias=False)
            (up_proj): Linear(in_features=4096, out_features=11008, bias=False)
            (down_proj): Linear(in_features=11008, out_features=4096, bias=False)
            (act_fn): SiLU()
          )
          (input_layernorm): Qwen2RMSNorm()
          (post_attention_layernorm): Qwen2RMSNorm()
        )
        (23): Qwen2MoeaDecoderLayer(
          (self_attn): Qwen2FlashAttention2(
            (q_proj): Linear(in_features=4096, out_features=4096, bias=True)
            (k_proj): Linear(in_features=4096, out_features=4096, bias=True)
            (v_proj): Linear(in_features=4096, out_features=4096, bias=True)
            (o_proj): Linear(in_features=4096, out_features=4096, bias=False)
            (rotary_emb): Qwen2RotaryEmbedding()
          )
          (mlp): Qwen2MLP(
            (gate_proj): Linear(in_features=4096, out_features=11008, bias=False)
            (up_proj): Linear(in_features=4096, out_features=11008, bias=False)
            (down_proj): Linear(in_features=11008, out_features=4096, bias=False)
            (act_fn): SiLU()
          )
          (input_layernorm): Qwen2RMSNorm()
          (post_attention_layernorm): Qwen2RMSNorm()
        )
        (24): Qwen2MoeaDecoderLayer(
          (self_attn): Qwen2FlashAttention2(
            (q_proj): Linear(in_features=4096, out_features=4096, bias=True)
            (k_proj): Linear(in_features=4096, out_features=4096, bias=True)
            (v_proj): Linear(in_features=4096, out_features=4096, bias=True)
            (o_proj): Linear(in_features=4096, out_features=4096, bias=False)
            (rotary_emb): Qwen2RotaryEmbedding()
          )
          (mlp): Qwen2MLP(
            (gate_proj): Linear(in_features=4096, out_features=11008, bias=False)
            (up_proj): Linear(in_features=4096, out_features=11008, bias=False)
            (down_proj): Linear(in_features=11008, out_features=4096, bias=False)
            (act_fn): SiLU()
          )
          (input_layernorm): Qwen2RMSNorm()
          (post_attention_layernorm): Qwen2RMSNorm()
        )
        (25): Qwen2MoeaDecoderLayer(
          (self_attn): Qwen2FlashAttention2(
            (q_proj): Linear(in_features=4096, out_features=4096, bias=True)
            (k_proj): Linear(in_features=4096, out_features=4096, bias=True)
            (v_proj): Linear(in_features=4096, out_features=4096, bias=True)
            (o_proj): Linear(in_features=4096, out_features=4096, bias=False)
            (rotary_emb): Qwen2RotaryEmbedding()
          )
          (mlp): Qwen2MLP(
            (gate_proj): Linear(in_features=4096, out_features=11008, bias=False)
            (up_proj): Linear(in_features=4096, out_features=11008, bias=False)
            (down_proj): Linear(in_features=11008, out_features=4096, bias=False)
            (act_fn): SiLU()
          )
          (input_layernorm): Qwen2RMSNorm()
          (post_attention_layernorm): Qwen2RMSNorm()
        )
        (26): Qwen2MoeaDecoderLayer(
          (self_attn): Qwen2FlashAttention2(
            (q_proj): Linear(in_features=4096, out_features=4096, bias=True)
            (k_proj): Linear(in_features=4096, out_features=4096, bias=True)
            (v_proj): Linear(in_features=4096, out_features=4096, bias=True)
            (o_proj): Linear(in_features=4096, out_features=4096, bias=False)
            (rotary_emb): Qwen2RotaryEmbedding()
          )
          (mlp): Qwen2MLP(
            (gate_proj): Linear(in_features=4096, out_features=11008, bias=False)
            (up_proj): Linear(in_features=4096, out_features=11008, bias=False)
            (down_proj): Linear(in_features=11008, out_features=4096, bias=False)
            (act_fn): SiLU()
          )
          (input_layernorm): Qwen2RMSNorm()
          (post_attention_layernorm): Qwen2RMSNorm()
        )
        (27): Qwen2MoeaDecoderLayer(
          (self_attn): Qwen2FlashAttention2(
            (q_proj): Linear(in_features=4096, out_features=4096, bias=True)
            (k_proj): Linear(in_features=4096, out_features=4096, bias=True)
            (v_proj): Linear(in_features=4096, out_features=4096, bias=True)
            (o_proj): Linear(in_features=4096, out_features=4096, bias=False)
            (rotary_emb): Qwen2RotaryEmbedding()
          )
          (mlp): Qwen2MLP(
            (gate_proj): Linear(in_features=4096, out_features=11008, bias=False)
            (up_proj): Linear(in_features=4096, out_features=11008, bias=False)
            (down_proj): Linear(in_features=11008, out_features=4096, bias=False)
            (act_fn): SiLU()
          )
          (input_layernorm): Qwen2RMSNorm()
          (post_attention_layernorm): Qwen2RMSNorm()
        )
        (28): Qwen2MoeaDecoderLayer(
          (self_attn): Qwen2FlashAttention2(
            (q_proj): Linear(in_features=4096, out_features=4096, bias=True)
            (k_proj): Linear(in_features=4096, out_features=4096, bias=True)
            (v_proj): Linear(in_features=4096, out_features=4096, bias=True)
            (o_proj): Linear(in_features=4096, out_features=4096, bias=False)
            (rotary_emb): Qwen2RotaryEmbedding()
          )
          (mlp): Qwen2MLP(
            (gate_proj): Linear(in_features=4096, out_features=11008, bias=False)
            (up_proj): Linear(in_features=4096, out_features=11008, bias=False)
            (down_proj): Linear(in_features=11008, out_features=4096, bias=False)
            (act_fn): SiLU()
          )
          (input_layernorm): Qwen2RMSNorm()
          (post_attention_layernorm): Qwen2RMSNorm()
        )
        (29): Qwen2MoeaDecoderLayer(
          (self_attn): Qwen2FlashAttention2(
            (q_proj): Linear(in_features=4096, out_features=4096, bias=True)
            (k_proj): Linear(in_features=4096, out_features=4096, bias=True)
            (v_proj): Linear(in_features=4096, out_features=4096, bias=True)
            (o_proj): Linear(in_features=4096, out_features=4096, bias=False)
            (rotary_emb): Qwen2RotaryEmbedding()
          )
          (mlp): Qwen2MLP(
            (gate_proj): Linear(in_features=4096, out_features=11008, bias=False)
            (up_proj): Linear(in_features=4096, out_features=11008, bias=False)
            (down_proj): Linear(in_features=11008, out_features=4096, bias=False)
            (act_fn): SiLU()
          )
          (input_layernorm): Qwen2RMSNorm()
          (post_attention_layernorm): Qwen2RMSNorm()
        )
        (30): Qwen2MoeaDecoderLayer(
          (self_attn): Qwen2FlashAttention2(
            (q_proj): Linear(in_features=4096, out_features=4096, bias=True)
            (k_proj): Linear(in_features=4096, out_features=4096, bias=True)
            (v_proj): Linear(in_features=4096, out_features=4096, bias=True)
            (o_proj): Linear(in_features=4096, out_features=4096, bias=False)
            (rotary_emb): Qwen2RotaryEmbedding()
          )
          (mlp): Qwen2MLP(
            (gate_proj): Linear(in_features=4096, out_features=11008, bias=False)
            (up_proj): Linear(in_features=4096, out_features=11008, bias=False)
            (down_proj): Linear(in_features=11008, out_features=4096, bias=False)
            (act_fn): SiLU()
          )
          (input_layernorm): Qwen2RMSNorm()
          (post_attention_layernorm): Qwen2RMSNorm()
        )
        (31): Qwen2MoeaDecoderLayer(
          (self_attn): Qwen2FlashAttention2(
            (q_proj): Linear(in_features=4096, out_features=4096, bias=True)
            (k_proj): Linear(in_features=4096, out_features=4096, bias=True)
            (v_proj): Linear(in_features=4096, out_features=4096, bias=True)
            (o_proj): Linear(in_features=4096, out_features=4096, bias=False)
            (rotary_emb): Qwen2RotaryEmbedding()
          )
          (mlp): Qwen2MLP(
            (gate_proj): Linear(in_features=4096, out_features=11008, bias=False)
            (up_proj): Linear(in_features=4096, out_features=11008, bias=False)
            (down_proj): Linear(in_features=11008, out_features=4096, bias=False)
            (act_fn): SiLU()
          )
          (input_layernorm): Qwen2RMSNorm()
          (post_attention_layernorm): Qwen2RMSNorm()
        )
      )
      (norm): Qwen2RMSNorm()
    )
    (lm_head): Linear(in_features=4096, out_features=151936, bias=False)
  )
  (align_modules): MOEA(
    (layers): ModuleList(
      (0): ModuleDict(
        (mha_projector): Projector(
          (fc): Linear(in_features=1024, out_features=4096, bias=True)
          (activation): GELU(approximate='none')
        )
        (mha_router): Linear(in_features=4096, out_features=2, bias=True)
        (mlp_projector): Projector(
          (fc): Linear(in_features=1024, out_features=4096, bias=True)
          (activation): GELU(approximate='none')
        )
        (mlp_router): Linear(in_features=4096, out_features=2, bias=True)
      )
      (1): ModuleDict(
        (mha_projector): Projector(
          (fc): Linear(in_features=1024, out_features=4096, bias=True)
          (activation): GELU(approximate='none')
        )
        (mha_router): Linear(in_features=4096, out_features=2, bias=True)
        (mlp_projector): Projector(
          (fc): Linear(in_features=1024, out_features=4096, bias=True)
          (activation): GELU(approximate='none')
        )
        (mlp_router): Linear(in_features=4096, out_features=2, bias=True)
      )
      (2): ModuleDict(
        (mha_projector): Projector(
          (fc): Linear(in_features=1024, out_features=4096, bias=True)
          (activation): GELU(approximate='none')
        )
        (mha_router): Linear(in_features=4096, out_features=2, bias=True)
        (mlp_projector): Projector(
          (fc): Linear(in_features=1024, out_features=4096, bias=True)
          (activation): GELU(approximate='none')
        )
        (mlp_router): Linear(in_features=4096, out_features=2, bias=True)
      )
      (3): ModuleDict(
        (mha_projector): Projector(
          (fc): Linear(in_features=1024, out_features=4096, bias=True)
          (activation): GELU(approximate='none')
        )
        (mha_router): Linear(in_features=4096, out_features=2, bias=True)
        (mlp_projector): Projector(
          (fc): Linear(in_features=1024, out_features=4096, bias=True)
          (activation): GELU(approximate='none')
        )
        (mlp_router): Linear(in_features=4096, out_features=2, bias=True)
      )
      (4): ModuleDict(
        (mha_projector): Projector(
          (fc): Linear(in_features=1024, out_features=4096, bias=True)
          (activation): GELU(approximate='none')
        )
        (mha_router): Linear(in_features=4096, out_features=2, bias=True)
        (mlp_projector): Projector(
          (fc): Linear(in_features=1024, out_features=4096, bias=True)
          (activation): GELU(approximate='none')
        )
        (mlp_router): Linear(in_features=4096, out_features=2, bias=True)
      )
      (5): ModuleDict(
        (mha_projector): Projector(
          (fc): Linear(in_features=1024, out_features=4096, bias=True)
          (activation): GELU(approximate='none')
        )
        (mha_router): Linear(in_features=4096, out_features=2, bias=True)
        (mlp_projector): Projector(
          (fc): Linear(in_features=1024, out_features=4096, bias=True)
          (activation): GELU(approximate='none')
        )
        (mlp_router): Linear(in_features=4096, out_features=2, bias=True)
      )
      (6): ModuleDict(
        (mha_projector): Projector(
          (fc): Linear(in_features=1024, out_features=4096, bias=True)
          (activation): GELU(approximate='none')
        )
        (mha_router): Linear(in_features=4096, out_features=2, bias=True)
        (mlp_projector): Projector(
          (fc): Linear(in_features=1024, out_features=4096, bias=True)
          (activation): GELU(approximate='none')
        )
        (mlp_router): Linear(in_features=4096, out_features=2, bias=True)
      )
      (7): ModuleDict(
        (mha_projector): Projector(
          (fc): Linear(in_features=1024, out_features=4096, bias=True)
          (activation): GELU(approximate='none')
        )
        (mha_router): Linear(in_features=4096, out_features=2, bias=True)
        (mlp_projector): Projector(
          (fc): Linear(in_features=1024, out_features=4096, bias=True)
          (activation): GELU(approximate='none')
        )
        (mlp_router): Linear(in_features=4096, out_features=2, bias=True)
      )
    )
  )
)
Detected kernel version 5.4.0, which is below the recommended minimum of 5.5.0; this can cause the process to hang. It is recommended to upgrade the kernel to the minimum version or higher.
[INFO|trainer.py:586] 2024-05-12 16:54:54,560 >> Using auto half precision backend
[2024-05-12 16:54:54,798] [INFO] [logging.py:96:log_dist] [Rank 0] DeepSpeed info: version=0.12.3, git-hash=unknown, git-branch=unknown
…
