…
 \'\'\n        sheet.cell(row=input_row, column=6).value = \'\'\n\n    workbook.save(path)\n\n    print("Spreadsheet reset.")\n    print("Test run complete.")\n\n\nif __name__ == \'__main__\':\n    run_test()\n'}
Loading cached shuffled indices for dataset at /home/yangdezhao/.cache/huggingface/datasets/json/default-c547dd0b93947e12/0.0.0/c8d2d9508a2a2067ab02cd118834ecef34c3700d143b31835ec4235bf10109f7/cache-2c6afbf4403ac7e4.arrow
Dataset({
    features: ['input_ids', 'attention_mask'],
    num_rows: 838241
})
Qwen2CrossAttnMergeModel(
  (small): Qwen2CrossAttnGeneratorModel(
    (embed_tokens): Embedding(151936, 1024)
    (layers): ModuleList(
      (0-23): 24 x Qwen2CrossAttnGeneratorDecoderLayer(
        (self_attn): Qwen2FlashAttention2(
          (q_proj): Linear(in_features=1024, out_features=1024, bias=True)
          (k_proj): Linear(in_features=1024, out_features=1024, bias=True)
          (v_proj): Linear(in_features=1024, out_features=1024, bias=True)
          (o_proj): Linear(in_features=1024, out_features=1024, bias=False)
          (rotary_emb): Qwen2RotaryEmbedding()
        )
        (mlp): Qwen2MLP(
          (gate_proj): Linear(in_features=1024, out_features=2816, bias=False)
          (up_proj): Linear(in_features=1024, out_features=2816, bias=False)
          (down_proj): Linear(in_features=2816, out_features=1024, bias=False)
          (act_fn): SiLU()
        )
        (input_layernorm): Qwen2RMSNorm()
        (post_attention_layernorm): Qwen2RMSNorm()
      )
    )
    (norm): Qwen2RMSNorm()
  )
  (large): Qwen2CrossAttnCausalLM(
    (model): Qwen2CrossAttnModel(
      (embed_tokens): Embedding(151936, 4096)
      (layers): ModuleList(
        (0-31): 32 x Qwen2CrossAttnDecoderLayer(
          (self_attn): Qwen2Attention(
            (q_proj): Linear(in_features=4096, out_features=4096, bias=True)
            (k_proj): Linear(in_features=4096, out_features=4096, bias=True)
            (v_proj): Linear(in_features=4096, out_features=4096, bias=True)
            (o_proj): Linear(in_features=4096, out_features=4096, bias=False)
            (rotary_emb): Qwen2RotaryEmbedding()
          )
          (mlp): Qwen2MLP(
            (gate_proj): Linear(in_features=4096, out_features=11008, bias=False)
            (up_proj): Linear(in_features=4096, out_features=11008, bias=False)
            (down_proj): Linear(in_features=11008, out_features=4096, bias=False)
            (act_fn): SiLU()
          )
          (input_layernorm): Qwen2RMSNorm()
          (post_attention_layernorm): Qwen2RMSNorm()
        )
      )
      (norm): Qwen2RMSNorm()
    )
    (lm_head): Linear(in_features=4096, out_features=151936, bias=False)
  )
  (align_modules): CrossAttn(
    (merge_modules): ModuleList(
      (0-7): 8 x ModuleDict(
        (projector): Projector(
          (fc): Linear(in_features=1024, out_features=4096, bias=True)
        )
        (q_weight): Linear(in_features=4096, out_features=4096, bias=True)
        (k_weight): Linear(in_features=4096, out_features=4096, bias=True)
        (v_weight): Linear(in_features=4096, out_features=4096, bias=True)
        (o_weight): Linear(in_features=4096, out_features=4096, bias=True)
      )
    )
  )
)
[INFO|trainer.py:586] 2024-05-14 11:15:00,275 >> Using auto half precision backend
[2024-05-14 11:15:00,532] [INFO] [logging.py:96:log_dist] [Rank 0] DeepSpeed info: version=0.13.1, git-hash=unknown, git-branch=unknown
Dataset({
    features: ['input_ids', 'attention_mask'],
    num_rows: 838241
})
Dataset({
    features: ['input_ids', 'attention_mask'],
…
