…
04/12/2024 12:51:42 - WARNING - llmtuner.data.loader - Loading dataset from disk will ignore other data arguments.
Loading cached shuffled indices for dataset at /home/nfs03/wangzj/dataset/pretrain/ardehiis8b/cache-ecc5cb583ca48734.arrow
Dataset({
    features: ['input_ids', 'attention_mask'],
    num_rows: 7826404
})
Dataset({
    features: ['input_ids', 'attention_mask'],
    num_rows: 7826404
})
Dataset({
    features: ['input_ids', 'attention_mask'],
    num_rows: 7826404
})
Dataset({
    features: ['input_ids', 'attention_mask'],
    num_rows: 7826404
})
Qwen2ForCausalLM(
  (model): Qwen2Model(
    (embed_tokens): Embedding(151936, 2048)
    (layers): ModuleList(
      (0): Qwen2DecoderLayer(
        (self_attn): Qwen2FlashAttention2(
          (q_proj): Linear(in_features=2048, out_features=2048, bias=True)
          (k_proj): Linear(in_features=2048, out_features=2048, bias=True)
          (v_proj): Linear(in_features=2048, out_features=2048, bias=True)
          (o_proj): Linear(in_features=2048, out_features=2048, bias=False)
          (rotary_emb): Qwen2RotaryEmbedding()
        )
        (mlp): Qwen2MLP(
          (gate_proj): Linear(in_features=2048, out_features=5504, bias=False)
          (up_proj): Linear(in_features=2048, out_features=5504, bias=False)
          (down_proj): Linear(in_features=5504, out_features=2048, bias=False)
          (act_fn): SiLU()
        )
        (input_layernorm): Qwen2RMSNorm()
        (post_attention_layernorm): Qwen2RMSNorm()
      )
      (1): Qwen2DecoderLayer(
        (self_attn): Qwen2FlashAttention2(
          (q_proj): Linear(in_features=2048, out_features=2048, bias=True)
          (k_proj): Linear(in_features=2048, out_features=2048, bias=True)
          (v_proj): Linear(in_features=2048, out_features=2048, bias=True)
          (o_proj): Linear(in_features=2048, out_features=2048, bias=False)
          (rotary_emb): Qwen2RotaryEmbedding()
        )
        (mlp): Qwen2MLP(
          (gate_proj): Linear(in_features=2048, out_features=5504, bias=False)
          (up_proj): Linear(in_features=2048, out_features=5504, bias=False)
          (down_proj): Linear(in_features=5504, out_features=2048, bias=False)
          (act_fn): SiLU()
        )
        (input_layernorm): Qwen2RMSNorm()
        (post_attention_layernorm): Qwen2RMSNorm()
      )
      (2): Qwen2DecoderLayer(
        (self_attn): Qwen2FlashAttention2(
          (q_proj): Linear(in_features=2048, out_features=2048, bias=True)
          (k_proj): Linear(in_features=2048, out_features=2048, bias=True)
          (v_proj): Linear(in_features=2048, out_features=2048, bias=True)
          (o_proj): Linear(in_features=2048, out_features=2048, bias=False)
          (rotary_emb): Qwen2RotaryEmbedding()
        )
        (mlp): Qwen2MLP(
          (gate_proj): Linear(in_features=2048, out_features=5504, bias=False)
          (up_proj): Linear(in_features=2048, out_features=5504, bias=False)
          (down_proj): Linear(in_features=5504, out_features=2048, bias=False)
          (act_fn): SiLU()
        )
        (input_layernorm): Qwen2RMSNorm()
        (post_attention_layernorm): Qwen2RMSNorm()
      )
      (3): Qwen2DecoderLayer(
        (self_attn): Qwen2FlashAttention2(
          (q_proj): Linear(in_features=2048, out_features=2048, bias=True)
          (k_proj): Linear(in_features=2048, out_features=2048, bias=True)
          (v_proj): Linear(in_features=2048, out_features=2048, bias=True)
          (o_proj): Linear(in_features=2048, out_features=2048, bias=False)
          (rotary_emb): Qwen2RotaryEmbedding()
        )
        (mlp): Qwen2MLP(
          (gate_proj): Linear(in_features=2048, out_features=5504, bias=False)
          (up_proj): Linear(in_features=2048, out_features=5504, bias=False)
          (down_proj): Linear(in_features=5504, out_features=2048, bias=False)
          (act_fn): SiLU()
        )
        (input_layernorm): Qwen2RMSNorm()
        (post_attention_layernorm): Qwen2RMSNorm()
      )
      (4): Qwen2DecoderLayer(
        (self_attn): Qwen2FlashAttention2(
          (q_proj): Linear(in_features=2048, out_features=2048, bias=True)
          (k_proj): Linear(in_features=2048, out_features=2048, bias=True)
          (v_proj): Linear(in_features=2048, out_features=2048, bias=True)
          (o_proj): Linear(in_features=2048, out_features=2048, bias=False)
          (rotary_emb): Qwen2RotaryEmbedding()
        )
        (mlp): Qwen2MLP(
          (gate_proj): Linear(in_features=2048, out_features=5504, bias=False)
          (up_proj): Linear(in_features=2048, out_features=5504, bias=False)
          (down_proj): Linear(in_features=5504, out_features=2048, bias=False)
          (act_fn): SiLU()
        )
        (input_layernorm): Qwen2RMSNorm()
        (post_attention_layernorm): Qwen2RMSNorm()
      )
      (5): Qwen2DecoderLayer(
        (self_attn): Qwen2FlashAttention2(
          (q_proj): Linear(in_features=2048, out_features=2048, bias=True)
          (k_proj): Linear(in_features=2048, out_features=2048, bias=True)
          (v_proj): Linear(in_features=2048, out_features=2048, bias=True)
          (o_proj): Linear(in_features=2048, out_features=2048, bias=False)
          (rotary_emb): Qwen2RotaryEmbedding()
        )
        (mlp): Qwen2MLP(
          (gate_proj): Linear(in_features=2048, out_features=5504, bias=False)
          (up_proj): Linear(in_features=2048, out_features=5504, bias=False)
          (down_proj): Linear(in_features=5504, out_features=2048, bias=False)
          (act_fn): SiLU()
        )
        (input_layernorm): Qwen2RMSNorm()
        (post_attention_layernorm): Qwen2RMSNorm()
      )
      (6): Qwen2DecoderLayer(
        (self_attn): Qwen2FlashAttention2(
          (q_proj): Linear(in_features=2048, out_features=2048, bias=True)
          (k_proj): Linear(in_features=2048, out_features=2048, bias=True)
          (v_proj): Linear(in_features=2048, out_features=2048, bias=True)
          (o_proj): Linear(in_features=2048, out_features=2048, bias=False)
          (rotary_emb): Qwen2RotaryEmbedding()
        )
        (mlp): Qwen2MLP(
          (gate_proj): Linear(in_features=2048, out_features=5504, bias=False)
          (up_proj): Linear(in_features=2048, out_features=5504, bias=False)
          (down_proj): Linear(in_features=5504, out_features=2048, bias=False)
          (act_fn): SiLU()
        )
        (input_layernorm): Qwen2RMSNorm()
        (post_attention_layernorm): Qwen2RMSNorm()
      )
      (7): Qwen2DecoderLayer(
        (self_attn): Qwen2FlashAttention2(
          (q_proj): Linear(in_features=2048, out_features=2048, bias=True)
          (k_proj): Linear(in_features=2048, out_features=2048, bias=True)
          (v_proj): Linear(in_features=2048, out_features=2048, bias=True)
          (o_proj): Linear(in_features=2048, out_features=2048, bias=False)
          (rotary_emb): Qwen2RotaryEmbedding()
        )
        (mlp): Qwen2MLP(
          (gate_proj): Linear(in_features=2048, out_features=5504, bias=False)
          (up_proj): Linear(in_features=2048, out_features=5504, bias=False)
          (down_proj): Linear(in_features=5504, out_features=2048, bias=False)
          (act_fn): SiLU()
        )
        (input_layernorm): Qwen2RMSNorm()
        (post_attention_layernorm): Qwen2RMSNorm()
      )
      (8): Qwen2DecoderLayer(
        (self_attn): Qwen2FlashAttention2(
          (q_proj): Linear(in_features=2048, out_features=2048, bias=True)
          (k_proj): Linear(in_features=2048, out_features=2048, bias=True)
          (v_proj): Linear(in_features=2048, out_features=2048, bias=True)
          (o_proj): Linear(in_features=2048, out_features=2048, bias=False)
          (rotary_emb): Qwen2RotaryEmbedding()
        )
        (mlp): Qwen2MLP(
          (gate_proj): Linear(in_features=2048, out_features=5504, bias=False)
          (up_proj): Linear(in_features=2048, out_features=5504, bias=False)
          (down_proj): Linear(in_features=5504, out_features=2048, bias=False)
          (act_fn): SiLU()
        )
        (input_layernorm): Qwen2RMSNorm()
        (post_attention_layernorm): Qwen2RMSNorm()
      )
      (9): Qwen2DecoderLayer(
        (self_attn): Qwen2FlashAttention2(
          (q_proj): Linear(in_features=2048, out_features=2048, bias=True)
          (k_proj): Linear(in_features=2048, out_features=2048, bias=True)
          (v_proj): Linear(in_features=2048, out_features=2048, bias=True)
          (o_proj): Linear(in_features=2048, out_features=2048, bias=False)
          (rotary_emb): Qwen2RotaryEmbedding()
        )
        (mlp): Qwen2MLP(
          (gate_proj): Linear(in_features=2048, out_features=5504, bias=False)
          (up_proj): Linear(in_features=2048, out_features=5504, bias=False)
          (down_proj): Linear(in_features=5504, out_features=2048, bias=False)
          (act_fn): SiLU()
        )
        (input_layernorm): Qwen2RMSNorm()
        (post_attention_layernorm): Qwen2RMSNorm()
      )
      (10): Qwen2DecoderLayer(
        (self_attn): Qwen2FlashAttention2(
          (q_proj): Linear(in_features=2048, out_features=2048, bias=True)
          (k_proj): Linear(in_features=2048, out_features=2048, bias=True)
          (v_proj): Linear(in_features=2048, out_features=2048, bias=True)
          (o_proj): Linear(in_features=2048, out_features=2048, bias=False)
          (rotary_emb): Qwen2RotaryEmbedding()
        )
        (mlp): Qwen2MLP(
          (gate_proj): Linear(in_features=2048, out_features=5504, bias=False)
          (up_proj): Linear(in_features=2048, out_features=5504, bias=False)
          (down_proj): Linear(in_features=5504, out_features=2048, bias=False)
          (act_fn): SiLU()
        )
        (input_layernorm): Qwen2RMSNorm()
        (post_attention_layernorm): Qwen2RMSNorm()
      )
      (11): Qwen2DecoderLayer(
        (self_attn): Qwen2FlashAttention2(
          (q_proj): Linear(in_features=2048, out_features=2048, bias=True)
          (k_proj): Linear(in_features=2048, out_features=2048, bias=True)
          (v_proj): Linear(in_features=2048, out_features=2048, bias=True)
          (o_proj): Linear(in_features=2048, out_features=2048, bias=False)
          (rotary_emb): Qwen2RotaryEmbedding()
        )
        (mlp): Qwen2MLP(
          (gate_proj): Linear(in_features=2048, out_features=5504, bias=False)
          (up_proj): Linear(in_features=2048, out_features=5504, bias=False)
          (down_proj): Linear(in_features=5504, out_features=2048, bias=False)
          (act_fn): SiLU()
        )
        (input_layernorm): Qwen2RMSNorm()
        (post_attention_layernorm): Qwen2RMSNorm()
      )
      (12): Qwen2DecoderLayer(
        (self_attn): Qwen2FlashAttention2(
          (q_proj): Linear(in_features=2048, out_features=2048, bias=True)
          (k_proj): Linear(in_features=2048, out_features=2048, bias=True)
          (v_proj): Linear(in_features=2048, out_features=2048, bias=True)
          (o_proj): Linear(in_features=2048, out_features=2048, bias=False)
          (rotary_emb): Qwen2RotaryEmbedding()
        )
        (mlp): Qwen2MLP(
          (gate_proj): Linear(in_features=2048, out_features=5504, bias=False)
          (up_proj): Linear(in_features=2048, out_features=5504, bias=False)
          (down_proj): Linear(in_features=5504, out_features=2048, bias=False)
          (act_fn): SiLU()
        )
        (input_layernorm): Qwen2RMSNorm()
        (post_attention_layernorm): Qwen2RMSNorm()
      )
      (13): Qwen2DecoderLayer(
        (self_attn): Qwen2FlashAttention2(
          (q_proj): Linear(in_features=2048, out_features=2048, bias=True)
          (k_proj): Linear(in_features=2048, out_features=2048, bias=True)
          (v_proj): Linear(in_features=2048, out_features=2048, bias=True)
          (o_proj): Linear(in_features=2048, out_features=2048, bias=False)
          (rotary_emb): Qwen2RotaryEmbedding()
        )
        (mlp): Qwen2MLP(
          (gate_proj): Linear(in_features=2048, out_features=5504, bias=False)
          (up_proj): Linear(in_features=2048, out_features=5504, bias=False)
          (down_proj): Linear(in_features=5504, out_features=2048, bias=False)
          (act_fn): SiLU()
        )
        (input_layernorm): Qwen2RMSNorm()
        (post_attention_layernorm): Qwen2RMSNorm()
      )
      (14): Qwen2DecoderLayer(
        (self_attn): Qwen2FlashAttention2(
          (q_proj): Linear(in_features=2048, out_features=2048, bias=True)
          (k_proj): Linear(in_features=2048, out_features=2048, bias=True)
          (v_proj): Linear(in_features=2048, out_features=2048, bias=True)
          (o_proj): Linear(in_features=2048, out_features=2048, bias=False)
          (rotary_emb): Qwen2RotaryEmbedding()
        )
        (mlp): Qwen2MLP(
          (gate_proj): Linear(in_features=2048, out_features=5504, bias=False)
          (up_proj): Linear(in_features=2048, out_features=5504, bias=False)
          (down_proj): Linear(in_features=5504, out_features=2048, bias=False)
          (act_fn): SiLU()
        )
        (input_layernorm): Qwen2RMSNorm()
        (post_attention_layernorm): Qwen2RMSNorm()
      )
      (15): Qwen2DecoderLayer(
        (self_attn): Qwen2FlashAttention2(
          (q_proj): Linear(in_features=2048, out_features=2048, bias=True)
          (k_proj): Linear(in_features=2048, out_features=2048, bias=True)
          (v_proj): Linear(in_features=2048, out_features=2048, bias=True)
          (o_proj): Linear(in_features=2048, out_features=2048, bias=False)
          (rotary_emb): Qwen2RotaryEmbedding()
        )
        (mlp): Qwen2MLP(
          (gate_proj): Linear(in_features=2048, out_features=5504, bias=False)
          (up_proj): Linear(in_features=2048, out_features=5504, bias=False)
          (down_proj): Linear(in_features=5504, out_features=2048, bias=False)
          (act_fn): SiLU()
        )
        (input_layernorm): Qwen2RMSNorm()
        (post_attention_layernorm): Qwen2RMSNorm()
      )
      (16): Qwen2DecoderLayer(
        (self_attn): Qwen2FlashAttention2(
          (q_proj): Linear(in_features=2048, out_features=2048, bias=True)
          (k_proj): Linear(in_features=2048, out_features=2048, bias=True)
          (v_proj): Linear(in_features=2048, out_features=2048, bias=True)
          (o_proj): Linear(in_features=2048, out_features=2048, bias=False)
          (rotary_emb): Qwen2RotaryEmbedding()
        )
        (mlp): Qwen2MLP(
          (gate_proj): Linear(in_features=2048, out_features=5504, bias=False)
          (up_proj): Linear(in_features=2048, out_features=5504, bias=False)
          (down_proj): Linear(in_features=5504, out_features=2048, bias=False)
          (act_fn): SiLU()
        )
        (input_layernorm): Qwen2RMSNorm()
        (post_attention_layernorm): Qwen2RMSNorm()
      )
      (17): Qwen2DecoderLayer(
        (self_attn): Qwen2FlashAttention2(
          (q_proj): Linear(in_features=2048, out_features=2048, bias=True)
          (k_proj): Linear(in_features=2048, out_features=2048, bias=True)
          (v_proj): Linear(in_features=2048, out_features=2048, bias=True)
          (o_proj): Linear(in_features=2048, out_features=2048, bias=False)
          (rotary_emb): Qwen2RotaryEmbedding()
        )
        (mlp): Qwen2MLP(
          (gate_proj): Linear(in_features=2048, out_features=5504, bias=False)
          (up_proj): Linear(in_features=2048, out_features=5504, bias=False)
          (down_proj): Linear(in_features=5504, out_features=2048, bias=False)
          (act_fn): SiLU()
        )
        (input_layernorm): Qwen2RMSNorm()
        (post_attention_layernorm): Qwen2RMSNorm()
      )
      (18): Qwen2DecoderLayer(
        (self_attn): Qwen2FlashAttention2(
          (q_proj): Linear(in_features=2048, out_features=2048, bias=True)
          (k_proj): Linear(in_features=2048, out_features=2048, bias=True)
          (v_proj): Linear(in_features=2048, out_features=2048, bias=True)
          (o_proj): Linear(in_features=2048, out_features=2048, bias=False)
          (rotary_emb): Qwen2RotaryEmbedding()
        )
        (mlp): Qwen2MLP(
          (gate_proj): Linear(in_features=2048, out_features=5504, bias=False)
          (up_proj): Linear(in_features=2048, out_features=5504, bias=False)
          (down_proj): Linear(in_features=5504, out_features=2048, bias=False)
          (act_fn): SiLU()
        )
        (input_layernorm): Qwen2RMSNorm()
        (post_attention_layernorm): Qwen2RMSNorm()
      )
      (19): Qwen2DecoderLayer(
        (self_attn): Qwen2FlashAttention2(
          (q_proj): Linear(in_features=2048, out_features=2048, bias=True)
          (k_proj): Linear(in_features=2048, out_features=2048, bias=True)
          (v_proj): Linear(in_features=2048, out_features=2048, bias=True)
          (o_proj): Linear(in_features=2048, out_features=2048, bias=False)
          (rotary_emb): Qwen2RotaryEmbedding()
        )
        (mlp): Qwen2MLP(
          (gate_proj): Linear(in_features=2048, out_features=5504, bias=False)
          (up_proj): Linear(in_features=2048, out_features=5504, bias=False)
          (down_proj): Linear(in_features=5504, out_features=2048, bias=False)
          (act_fn): SiLU()
        )
        (input_layernorm): Qwen2RMSNorm()
        (post_attention_layernorm): Qwen2RMSNorm()
      )
      (20): Qwen2DecoderLayer(
        (self_attn): Qwen2FlashAttention2(
          (q_proj): Linear(in_features=2048, out_features=2048, bias=True)
          (k_proj): Linear(in_features=2048, out_features=2048, bias=True)
          (v_proj): Linear(in_features=2048, out_features=2048, bias=True)
          (o_proj): Linear(in_features=2048, out_features=2048, bias=False)
          (rotary_emb): Qwen2RotaryEmbedding()
        )
        (mlp): Qwen2MLP(
          (gate_proj): Linear(in_features=2048, out_features=5504, bias=False)
          (up_proj): Linear(in_features=2048, out_features=5504, bias=False)
          (down_proj): Linear(in_features=5504, out_features=2048, bias=False)
          (act_fn): SiLU()
        )
        (input_layernorm): Qwen2RMSNorm()
        (post_attention_layernorm): Qwen2RMSNorm()
      )
      (21): Qwen2DecoderLayer(
        (self_attn): Qwen2FlashAttention2(
          (q_proj): Linear(in_features=2048, out_features=2048, bias=True)
          (k_proj): Linear(in_features=2048, out_features=2048, bias=True)
          (v_proj): Linear(in_features=2048, out_features=2048, bias=True)
          (o_proj): Linear(in_features=2048, out_features=2048, bias=False)
          (rotary_emb): Qwen2RotaryEmbedding()
        )
        (mlp): Qwen2MLP(
          (gate_proj): Linear(in_features=2048, out_features=5504, bias=False)
          (up_proj): Linear(in_features=2048, out_features=5504, bias=False)
          (down_proj): Linear(in_features=5504, out_features=2048, bias=False)
          (act_fn): SiLU()
        )
        (input_layernorm): Qwen2RMSNorm()
        (post_attention_layernorm): Qwen2RMSNorm()
      )
      (22): Qwen2DecoderLayer(
        (self_attn): Qwen2FlashAttention2(
          (q_proj): Linear(in_features=2048, out_features=2048, bias=True)
          (k_proj): Linear(in_features=2048, out_features=2048, bias=True)
          (v_proj): Linear(in_features=2048, out_features=2048, bias=True)
          (o_proj): Linear(in_features=2048, out_features=2048, bias=False)
          (rotary_emb): Qwen2RotaryEmbedding()
        )
        (mlp): Qwen2MLP(
          (gate_proj): Linear(in_features=2048, out_features=5504, bias=False)
          (up_proj): Linear(in_features=2048, out_features=5504, bias=False)
          (down_proj): Linear(in_features=5504, out_features=2048, bias=False)
          (act_fn): SiLU()
        )
        (input_layernorm): Qwen2RMSNorm()
        (post_attention_layernorm): Qwen2RMSNorm()
      )
      (23): Qwen2DecoderLayer(
        (self_attn): Qwen2FlashAttention2(
          (q_proj): Linear(in_features=2048, out_features=2048, bias=True)
          (k_proj): Linear(in_features=2048, out_features=2048, bias=True)
          (v_proj): Linear(in_features=2048, out_features=2048, bias=True)
          (o_proj): Linear(in_features=2048, out_features=2048, bias=False)
          (rotary_emb): Qwen2RotaryEmbedding()
        )
        (mlp): Qwen2MLP(
          (gate_proj): Linear(in_features=2048, out_features=5504, bias=False)
          (up_proj): Linear(in_features=2048, out_features=5504, bias=False)
          (down_proj): Linear(in_features=5504, out_features=2048, bias=False)
          (act_fn): SiLU()
        )
        (input_layernorm): Qwen2RMSNorm()
        (post_attention_layernorm): Qwen2RMSNorm()
      )
    )
    (norm): Qwen2RMSNorm()
  )
  (lm_head): Linear(in_features=2048, out_features=151936, bias=False)
)
[INFO|trainer.py:586] 2024-04-12 12:53:05,866 >> Using auto half precision backend
[INFO|deepspeed.py:325] 2024-04-12 12:53:06,173 >> Detected ZeRO Offload and non-DeepSpeed optimizers: This combination should work as long as the custom optimizer has both CPU and GPU implementation (except LAMB)
Using /home/zhouh/.cache/torch_extensions/py310_cu117 as PyTorch extensions root...
…
