…
 की बच्ची से अश्ली...दुल्हन के गहने और कपड़े खाक...अब दोपहर में भी चलेगी आई-बस...नर्सिग होम संचालकों को दस दि...5000 पेज का चालान, 90 हजार प...हरिहरन की जादुई आवाज में खो ...'}
Loading cached shuffled indices for dataset at /root/.cache/huggingface/datasets/json/default-633ec56fb30fb8ad/0.0.0/c8d2d9508a2a2067ab02cd118834ecef34c3700d143b31835ec4235bf10109f7/cache-02f22e3248872ee0.arrow
Dataset({
    features: ['input_ids', 'attention_mask'],
    num_rows: 7826410
})
PeftModelForCausalLM(
  (base_model): MoeModel(
    (model): Qwen2ForCausalMoeLM(
      (model): Qwen2Model(
        (embed_tokens): Embedding(151936, 2048)
        (layers): ModuleList(
          (0): Qwen2DecoderLayer(
            (self_attn): Qwen2FlashAttention2(
              (q_proj): Linear(in_features=2048, out_features=2048, bias=True)
              (k_proj): Linear(in_features=2048, out_features=2048, bias=True)
              (v_proj): Linear(in_features=2048, out_features=2048, bias=True)
              (o_proj): Linear(in_features=2048, out_features=2048, bias=False)
              (rotary_emb): Qwen2RotaryEmbedding()
            )
            (mlp): moe.MLP(
              (base_layer): Qwen2MLP(
                (gate_proj): Linear(in_features=2048, out_features=5504, bias=False)
                (up_proj): Linear(in_features=2048, out_features=5504, bias=False)
                (down_proj): Linear(in_features=5504, out_features=2048, bias=False)
                (act_fn): SiLU()
              )
              (moe_router_embedding): ModuleDict(
                (default): Linear(in_features=512, out_features=4, bias=False)
              )
              (moe_experts): ModuleDict(
                (default): ModuleList(
                  (0): FFN(
                    (gate_proj): Linear(in_features=512, out_features=5504, bias=False)
                    (up_proj): Linear(in_features=512, out_features=5504, bias=False)
                    (down_proj): Linear(in_features=5504, out_features=512, bias=False)
                    (act_fn): SiLU()
                  )
                  (1): FFN(
                    (gate_proj): Linear(in_features=512, out_features=5504, bias=False)
                    (up_proj): Linear(in_features=512, out_features=5504, bias=False)
                    (down_proj): Linear(in_features=5504, out_features=512, bias=False)
                    (act_fn): SiLU()
                  )
                  (2): FFN(
                    (gate_proj): Linear(in_features=512, out_features=5504, bias=False)
                    (up_proj): Linear(in_features=512, out_features=5504, bias=False)
                    (down_proj): Linear(in_features=5504, out_features=512, bias=False)
                    (act_fn): SiLU()
                  )
                  (3): FFN(
                    (gate_proj): Linear(in_features=512, out_features=5504, bias=False)
                    (up_proj): Linear(in_features=512, out_features=5504, bias=False)
                    (down_proj): Linear(in_features=5504, out_features=512, bias=False)
                    (act_fn): SiLU()
                  )
                )
              )
              (moe_mh_layer): ModuleDict(
                (default): Linear(in_features=2048, out_features=2048, bias=True)
              )
              (moe_merge_layer): ModuleDict(
                (default): Linear(in_features=2048, out_features=2048, bias=True)
              )
            )
            (input_layernorm): Qwen2RMSNorm()
            (post_attention_layernorm): Qwen2RMSNorm()
          )
          (1): Qwen2DecoderLayer(
            (self_attn): Qwen2FlashAttention2(
              (q_proj): Linear(in_features=2048, out_features=2048, bias=True)
              (k_proj): Linear(in_features=2048, out_features=2048, bias=True)
              (v_proj): Linear(in_features=2048, out_features=2048, bias=True)
              (o_proj): Linear(in_features=2048, out_features=2048, bias=False)
              (rotary_emb): Qwen2RotaryEmbedding()
            )
            (mlp): moe.MLP(
              (base_layer): Qwen2MLP(
                (gate_proj): Linear(in_features=2048, out_features=5504, bias=False)
                (up_proj): Linear(in_features=2048, out_features=5504, bias=False)
                (down_proj): Linear(in_features=5504, out_features=2048, bias=False)
                (act_fn): SiLU()
              )
              (moe_router_embedding): ModuleDict(
                (default): Linear(in_features=512, out_features=4, bias=False)
              )
              (moe_experts): ModuleDict(
                (default): ModuleList(
                  (0): FFN(
                    (gate_proj): Linear(in_features=512, out_features=5504, bias=False)
                    (up_proj): Linear(in_features=512, out_features=5504, bias=False)
                    (down_proj): Linear(in_features=5504, out_features=512, bias=False)
                    (act_fn): SiLU()
                  )
                  (1): FFN(
                    (gate_proj): Linear(in_features=512, out_features=5504, bias=False)
                    (up_proj): Linear(in_features=512, out_features=5504, bias=False)
                    (down_proj): Linear(in_features=5504, out_features=512, bias=False)
                    (act_fn): SiLU()
                  )
                  (2): FFN(
                    (gate_proj): Linear(in_features=512, out_features=5504, bias=False)
                    (up_proj): Linear(in_features=512, out_features=5504, bias=False)
                    (down_proj): Linear(in_features=5504, out_features=512, bias=False)
                    (act_fn): SiLU()
                  )
                  (3): FFN(
                    (gate_proj): Linear(in_features=512, out_features=5504, bias=False)
                    (up_proj): Linear(in_features=512, out_features=5504, bias=False)
                    (down_proj): Linear(in_features=5504, out_features=512, bias=False)
                    (act_fn): SiLU()
                  )
                )
              )
              (moe_mh_layer): ModuleDict(
                (default): Linear(in_features=2048, out_features=2048, bias=True)
              )
              (moe_merge_layer): ModuleDict(
                (default): Linear(in_features=2048, out_features=2048, bias=True)
              )
            )
            (input_layernorm): Qwen2RMSNorm()
            (post_attention_layernorm): Qwen2RMSNorm()
          )
          (2): Qwen2DecoderLayer(
            (self_attn): Qwen2FlashAttention2(
              (q_proj): Linear(in_features=2048, out_features=2048, bias=True)
              (k_proj): Linear(in_features=2048, out_features=2048, bias=True)
              (v_proj): Linear(in_features=2048, out_features=2048, bias=True)
              (o_proj): Linear(in_features=2048, out_features=2048, bias=False)
              (rotary_emb): Qwen2RotaryEmbedding()
            )
            (mlp): moe.MLP(
              (base_layer): Qwen2MLP(
                (gate_proj): Linear(in_features=2048, out_features=5504, bias=False)
                (up_proj): Linear(in_features=2048, out_features=5504, bias=False)
                (down_proj): Linear(in_features=5504, out_features=2048, bias=False)
                (act_fn): SiLU()
              )
              (moe_router_embedding): ModuleDict(
                (default): Linear(in_features=512, out_features=4, bias=False)
              )
              (moe_experts): ModuleDict(
                (default): ModuleList(
                  (0): FFN(
                    (gate_proj): Linear(in_features=512, out_features=5504, bias=False)
                    (up_proj): Linear(in_features=512, out_features=5504, bias=False)
                    (down_proj): Linear(in_features=5504, out_features=512, bias=False)
                    (act_fn): SiLU()
                  )
                  (1): FFN(
                    (gate_proj): Linear(in_features=512, out_features=5504, bias=False)
                    (up_proj): Linear(in_features=512, out_features=5504, bias=False)
                    (down_proj): Linear(in_features=5504, out_features=512, bias=False)
                    (act_fn): SiLU()
                  )
                  (2): FFN(
                    (gate_proj): Linear(in_features=512, out_features=5504, bias=False)
                    (up_proj): Linear(in_features=512, out_features=5504, bias=False)
                    (down_proj): Linear(in_features=5504, out_features=512, bias=False)
                    (act_fn): SiLU()
                  )
                  (3): FFN(
                    (gate_proj): Linear(in_features=512, out_features=5504, bias=False)
                    (up_proj): Linear(in_features=512, out_features=5504, bias=False)
                    (down_proj): Linear(in_features=5504, out_features=512, bias=False)
                    (act_fn): SiLU()
                  )
                )
              )
              (moe_mh_layer): ModuleDict(
                (default): Linear(in_features=2048, out_features=2048, bias=True)
              )
              (moe_merge_layer): ModuleDict(
                (default): Linear(in_features=2048, out_features=2048, bias=True)
              )
            )
            (input_layernorm): Qwen2RMSNorm()
            (post_attention_layernorm): Qwen2RMSNorm()
          )
          (3): Qwen2DecoderLayer(
            (self_attn): Qwen2FlashAttention2(
              (q_proj): Linear(in_features=2048, out_features=2048, bias=True)
              (k_proj): Linear(in_features=2048, out_features=2048, bias=True)
              (v_proj): Linear(in_features=2048, out_features=2048, bias=True)
              (o_proj): Linear(in_features=2048, out_features=2048, bias=False)
              (rotary_emb): Qwen2RotaryEmbedding()
            )
            (mlp): moe.MLP(
              (base_layer): Qwen2MLP(
                (gate_proj): Linear(in_features=2048, out_features=5504, bias=False)
                (up_proj): Linear(in_features=2048, out_features=5504, bias=False)
                (down_proj): Linear(in_features=5504, out_features=2048, bias=False)
                (act_fn): SiLU()
              )
              (moe_router_embedding): ModuleDict(
                (default): Linear(in_features=512, out_features=4, bias=False)
              )
              (moe_experts): ModuleDict(
                (default): ModuleList(
                  (0): FFN(
                    (gate_proj): Linear(in_features=512, out_features=5504, bias=False)
                    (up_proj): Linear(in_features=512, out_features=5504, bias=False)
                    (down_proj): Linear(in_features=5504, out_features=512, bias=False)
                    (act_fn): SiLU()
                  )
                  (1): FFN(
                    (gate_proj): Linear(in_features=512, out_features=5504, bias=False)
                    (up_proj): Linear(in_features=512, out_features=5504, bias=False)
                    (down_proj): Linear(in_features=5504, out_features=512, bias=False)
                    (act_fn): SiLU()
                  )
                  (2): FFN(
                    (gate_proj): Linear(in_features=512, out_features=5504, bias=False)
                    (up_proj): Linear(in_features=512, out_features=5504, bias=False)
                    (down_proj): Linear(in_features=5504, out_features=512, bias=False)
                    (act_fn): SiLU()
                  )
                  (3): FFN(
                    (gate_proj): Linear(in_features=512, out_features=5504, bias=False)
                    (up_proj): Linear(in_features=512, out_features=5504, bias=False)
                    (down_proj): Linear(in_features=5504, out_features=512, bias=False)
                    (act_fn): SiLU()
                  )
                )
              )
              (moe_mh_layer): ModuleDict(
                (default): Linear(in_features=2048, out_features=2048, bias=True)
              )
              (moe_merge_layer): ModuleDict(
                (default): Linear(in_features=2048, out_features=2048, bias=True)
              )
            )
            (input_layernorm): Qwen2RMSNorm()
            (post_attention_layernorm): Qwen2RMSNorm()
          )
          (4): Qwen2DecoderLayer(
            (self_attn): Qwen2FlashAttention2(
              (q_proj): Linear(in_features=2048, out_features=2048, bias=True)
              (k_proj): Linear(in_features=2048, out_features=2048, bias=True)
              (v_proj): Linear(in_features=2048, out_features=2048, bias=True)
              (o_proj): Linear(in_features=2048, out_features=2048, bias=False)
              (rotary_emb): Qwen2RotaryEmbedding()
            )
            (mlp): moe.MLP(
              (base_layer): Qwen2MLP(
                (gate_proj): Linear(in_features=2048, out_features=5504, bias=False)
                (up_proj): Linear(in_features=2048, out_features=5504, bias=False)
                (down_proj): Linear(in_features=5504, out_features=2048, bias=False)
                (act_fn): SiLU()
              )
              (moe_router_embedding): ModuleDict(
                (default): Linear(in_features=512, out_features=4, bias=False)
              )
              (moe_experts): ModuleDict(
                (default): ModuleList(
                  (0): FFN(
                    (gate_proj): Linear(in_features=512, out_features=5504, bias=False)
                    (up_proj): Linear(in_features=512, out_features=5504, bias=False)
                    (down_proj): Linear(in_features=5504, out_features=512, bias=False)
                    (act_fn): SiLU()
                  )
                  (1): FFN(
                    (gate_proj): Linear(in_features=512, out_features=5504, bias=False)
                    (up_proj): Linear(in_features=512, out_features=5504, bias=False)
                    (down_proj): Linear(in_features=5504, out_features=512, bias=False)
                    (act_fn): SiLU()
                  )
                  (2): FFN(
                    (gate_proj): Linear(in_features=512, out_features=5504, bias=False)
                    (up_proj): Linear(in_features=512, out_features=5504, bias=False)
                    (down_proj): Linear(in_features=5504, out_features=512, bias=False)
                    (act_fn): SiLU()
                  )
                  (3): FFN(
                    (gate_proj): Linear(in_features=512, out_features=5504, bias=False)
                    (up_proj): Linear(in_features=512, out_features=5504, bias=False)
                    (down_proj): Linear(in_features=5504, out_features=512, bias=False)
                    (act_fn): SiLU()
                  )
                )
              )
              (moe_mh_layer): ModuleDict(
                (default): Linear(in_features=2048, out_features=2048, bias=True)
              )
              (moe_merge_layer): ModuleDict(
                (default): Linear(in_features=2048, out_features=2048, bias=True)
              )
            )
            (input_layernorm): Qwen2RMSNorm()
            (post_attention_layernorm): Qwen2RMSNorm()
          )
          (5): Qwen2DecoderLayer(
            (self_attn): Qwen2FlashAttention2(
              (q_proj): Linear(in_features=2048, out_features=2048, bias=True)
              (k_proj): Linear(in_features=2048, out_features=2048, bias=True)
              (v_proj): Linear(in_features=2048, out_features=2048, bias=True)
              (o_proj): Linear(in_features=2048, out_features=2048, bias=False)
              (rotary_emb): Qwen2RotaryEmbedding()
            )
            (mlp): moe.MLP(
              (base_layer): Qwen2MLP(
                (gate_proj): Linear(in_features=2048, out_features=5504, bias=False)
                (up_proj): Linear(in_features=2048, out_features=5504, bias=False)
                (down_proj): Linear(in_features=5504, out_features=2048, bias=False)
                (act_fn): SiLU()
              )
              (moe_router_embedding): ModuleDict(
                (default): Linear(in_features=512, out_features=4, bias=False)
              )
              (moe_experts): ModuleDict(
                (default): ModuleList(
                  (0): FFN(
                    (gate_proj): Linear(in_features=512, out_features=5504, bias=False)
                    (up_proj): Linear(in_features=512, out_features=5504, bias=False)
                    (down_proj): Linear(in_features=5504, out_features=512, bias=False)
                    (act_fn): SiLU()
                  )
                  (1): FFN(
                    (gate_proj): Linear(in_features=512, out_features=5504, bias=False)
                    (up_proj): Linear(in_features=512, out_features=5504, bias=False)
                    (down_proj): Linear(in_features=5504, out_features=512, bias=False)
                    (act_fn): SiLU()
                  )
                  (2): FFN(
                    (gate_proj): Linear(in_features=512, out_features=5504, bias=False)
                    (up_proj): Linear(in_features=512, out_features=5504, bias=False)
                    (down_proj): Linear(in_features=5504, out_features=512, bias=False)
                    (act_fn): SiLU()
                  )
                  (3): FFN(
                    (gate_proj): Linear(in_features=512, out_features=5504, bias=False)
                    (up_proj): Linear(in_features=512, out_features=5504, bias=False)
                    (down_proj): Linear(in_features=5504, out_features=512, bias=False)
                    (act_fn): SiLU()
                  )
                )
              )
              (moe_mh_layer): ModuleDict(
                (default): Linear(in_features=2048, out_features=2048, bias=True)
              )
              (moe_merge_layer): ModuleDict(
                (default): Linear(in_features=2048, out_features=2048, bias=True)
              )
            )
            (input_layernorm): Qwen2RMSNorm()
            (post_attention_layernorm): Qwen2RMSNorm()
          )
          (6): Qwen2DecoderLayer(
            (self_attn): Qwen2FlashAttention2(
              (q_proj): Linear(in_features=2048, out_features=2048, bias=True)
              (k_proj): Linear(in_features=2048, out_features=2048, bias=True)
              (v_proj): Linear(in_features=2048, out_features=2048, bias=True)
              (o_proj): Linear(in_features=2048, out_features=2048, bias=False)
              (rotary_emb): Qwen2RotaryEmbedding()
            )
            (mlp): moe.MLP(
              (base_layer): Qwen2MLP(
                (gate_proj): Linear(in_features=2048, out_features=5504, bias=False)
                (up_proj): Linear(in_features=2048, out_features=5504, bias=False)
                (down_proj): Linear(in_features=5504, out_features=2048, bias=False)
                (act_fn): SiLU()
              )
              (moe_router_embedding): ModuleDict(
                (default): Linear(in_features=512, out_features=4, bias=False)
              )
              (moe_experts): ModuleDict(
                (default): ModuleList(
                  (0): FFN(
                    (gate_proj): Linear(in_features=512, out_features=5504, bias=False)
                    (up_proj): Linear(in_features=512, out_features=5504, bias=False)
                    (down_proj): Linear(in_features=5504, out_features=512, bias=False)
                    (act_fn): SiLU()
                  )
                  (1): FFN(
                    (gate_proj): Linear(in_features=512, out_features=5504, bias=False)
                    (up_proj): Linear(in_features=512, out_features=5504, bias=False)
                    (down_proj): Linear(in_features=5504, out_features=512, bias=False)
                    (act_fn): SiLU()
                  )
                  (2): FFN(
                    (gate_proj): Linear(in_features=512, out_features=5504, bias=False)
                    (up_proj): Linear(in_features=512, out_features=5504, bias=False)
                    (down_proj): Linear(in_features=5504, out_features=512, bias=False)
                    (act_fn): SiLU()
                  )
                  (3): FFN(
                    (gate_proj): Linear(in_features=512, out_features=5504, bias=False)
                    (up_proj): Linear(in_features=512, out_features=5504, bias=False)
                    (down_proj): Linear(in_features=5504, out_features=512, bias=False)
                    (act_fn): SiLU()
                  )
                )
              )
              (moe_mh_layer): ModuleDict(
                (default): Linear(in_features=2048, out_features=2048, bias=True)
              )
              (moe_merge_layer): ModuleDict(
                (default): Linear(in_features=2048, out_features=2048, bias=True)
              )
            )
            (input_layernorm): Qwen2RMSNorm()
            (post_attention_layernorm): Qwen2RMSNorm()
          )
          (7): Qwen2DecoderLayer(
            (self_attn): Qwen2FlashAttention2(
              (q_proj): Linear(in_features=2048, out_features=2048, bias=True)
              (k_proj): Linear(in_features=2048, out_features=2048, bias=True)
              (v_proj): Linear(in_features=2048, out_features=2048, bias=True)
              (o_proj): Linear(in_features=2048, out_features=2048, bias=False)
              (rotary_emb): Qwen2RotaryEmbedding()
            )
            (mlp): moe.MLP(
              (base_layer): Qwen2MLP(
                (gate_proj): Linear(in_features=2048, out_features=5504, bias=False)
                (up_proj): Linear(in_features=2048, out_features=5504, bias=False)
                (down_proj): Linear(in_features=5504, out_features=2048, bias=False)
                (act_fn): SiLU()
              )
              (moe_router_embedding): ModuleDict(
                (default): Linear(in_features=512, out_features=4, bias=False)
              )
              (moe_experts): ModuleDict(
                (default): ModuleList(
                  (0): FFN(
                    (gate_proj): Linear(in_features=512, out_features=5504, bias=False)
                    (up_proj): Linear(in_features=512, out_features=5504, bias=False)
                    (down_proj): Linear(in_features=5504, out_features=512, bias=False)
                    (act_fn): SiLU()
                  )
                  (1): FFN(
                    (gate_proj): Linear(in_features=512, out_features=5504, bias=False)
                    (up_proj): Linear(in_features=512, out_features=5504, bias=False)
                    (down_proj): Linear(in_features=5504, out_features=512, bias=False)
                    (act_fn): SiLU()
                  )
                  (2): FFN(
                    (gate_proj): Linear(in_features=512, out_features=5504, bias=False)
                    (up_proj): Linear(in_features=512, out_features=5504, bias=False)
                    (down_proj): Linear(in_features=5504, out_features=512, bias=False)
                    (act_fn): SiLU()
                  )
                  (3): FFN(
                    (gate_proj): Linear(in_features=512, out_features=5504, bias=False)
                    (up_proj): Linear(in_features=512, out_features=5504, bias=False)
                    (down_proj): Linear(in_features=5504, out_features=512, bias=False)
                    (act_fn): SiLU()
                  )
                )
              )
              (moe_mh_layer): ModuleDict(
                (default): Linear(in_features=2048, out_features=2048, bias=True)
              )
              (moe_merge_layer): ModuleDict(
                (default): Linear(in_features=2048, out_features=2048, bias=True)
              )
            )
            (input_layernorm): Qwen2RMSNorm()
            (post_attention_layernorm): Qwen2RMSNorm()
          )
          (8): Qwen2DecoderLayer(
            (self_attn): Qwen2FlashAttention2(
              (q_proj): Linear(in_features=2048, out_features=2048, bias=True)
              (k_proj): Linear(in_features=2048, out_features=2048, bias=True)
              (v_proj): Linear(in_features=2048, out_features=2048, bias=True)
              (o_proj): Linear(in_features=2048, out_features=2048, bias=False)
              (rotary_emb): Qwen2RotaryEmbedding()
            )
            (mlp): moe.MLP(
              (base_layer): Qwen2MLP(
                (gate_proj): Linear(in_features=2048, out_features=5504, bias=False)
                (up_proj): Linear(in_features=2048, out_features=5504, bias=False)
                (down_proj): Linear(in_features=5504, out_features=2048, bias=False)
                (act_fn): SiLU()
              )
              (moe_router_embedding): ModuleDict(
                (default): Linear(in_features=512, out_features=4, bias=False)
              )
              (moe_experts): ModuleDict(
                (default): ModuleList(
                  (0): FFN(
                    (gate_proj): Linear(in_features=512, out_features=5504, bias=False)
                    (up_proj): Linear(in_features=512, out_features=5504, bias=False)
                    (down_proj): Linear(in_features=5504, out_features=512, bias=False)
                    (act_fn): SiLU()
                  )
                  (1): FFN(
                    (gate_proj): Linear(in_features=512, out_features=5504, bias=False)
                    (up_proj): Linear(in_features=512, out_features=5504, bias=False)
                    (down_proj): Linear(in_features=5504, out_features=512, bias=False)
                    (act_fn): SiLU()
                  )
                  (2): FFN(
                    (gate_proj): Linear(in_features=512, out_features=5504, bias=False)
                    (up_proj): Linear(in_features=512, out_features=5504, bias=False)
                    (down_proj): Linear(in_features=5504, out_features=512, bias=False)
                    (act_fn): SiLU()
                  )
                  (3): FFN(
                    (gate_proj): Linear(in_features=512, out_features=5504, bias=False)
                    (up_proj): Linear(in_features=512, out_features=5504, bias=False)
                    (down_proj): Linear(in_features=5504, out_features=512, bias=False)
                    (act_fn): SiLU()
                  )
                )
              )
              (moe_mh_layer): ModuleDict(
                (default): Linear(in_features=2048, out_features=2048, bias=True)
              )
              (moe_merge_layer): ModuleDict(
                (default): Linear(in_features=2048, out_features=2048, bias=True)
              )
            )
            (input_layernorm): Qwen2RMSNorm()
            (post_attention_layernorm): Qwen2RMSNorm()
          )
          (9): Qwen2DecoderLayer(
            (self_attn): Qwen2FlashAttention2(
              (q_proj): Linear(in_features=2048, out_features=2048, bias=True)
              (k_proj): Linear(in_features=2048, out_features=2048, bias=True)
              (v_proj): Linear(in_features=2048, out_features=2048, bias=True)
              (o_proj): Linear(in_features=2048, out_features=2048, bias=False)
              (rotary_emb): Qwen2RotaryEmbedding()
            )
            (mlp): moe.MLP(
              (base_layer): Qwen2MLP(
                (gate_proj): Linear(in_features=2048, out_features=5504, bias=False)
                (up_proj): Linear(in_features=2048, out_features=5504, bias=False)
                (down_proj): Linear(in_features=5504, out_features=2048, bias=False)
                (act_fn): SiLU()
              )
              (moe_router_embedding): ModuleDict(
                (default): Linear(in_features=512, out_features=4, bias=False)
              )
              (moe_experts): ModuleDict(
                (default): ModuleList(
                  (0): FFN(
                    (gate_proj): Linear(in_features=512, out_features=5504, bias=False)
                    (up_proj): Linear(in_features=512, out_features=5504, bias=False)
                    (down_proj): Linear(in_features=5504, out_features=512, bias=False)
                    (act_fn): SiLU()
                  )
                  (1): FFN(
                    (gate_proj): Linear(in_features=512, out_features=5504, bias=False)
                    (up_proj): Linear(in_features=512, out_features=5504, bias=False)
                    (down_proj): Linear(in_features=5504, out_features=512, bias=False)
                    (act_fn): SiLU()
                  )
                  (2): FFN(
                    (gate_proj): Linear(in_features=512, out_features=5504, bias=False)
                    (up_proj): Linear(in_features=512, out_features=5504, bias=False)
                    (down_proj): Linear(in_features=5504, out_features=512, bias=False)
                    (act_fn): SiLU()
                  )
                  (3): FFN(
                    (gate_proj): Linear(in_features=512, out_features=5504, bias=False)
                    (up_proj): Linear(in_features=512, out_features=5504, bias=False)
                    (down_proj): Linear(in_features=5504, out_features=512, bias=False)
                    (act_fn): SiLU()
                  )
                )
              )
              (moe_mh_layer): ModuleDict(
                (default): Linear(in_features=2048, out_features=2048, bias=True)
              )
              (moe_merge_layer): ModuleDict(
                (default): Linear(in_features=2048, out_features=2048, bias=True)
              )
            )
            (input_layernorm): Qwen2RMSNorm()
            (post_attention_layernorm): Qwen2RMSNorm()
          )
          (10): Qwen2DecoderLayer(
            (self_attn): Qwen2FlashAttention2(
              (q_proj): Linear(in_features=2048, out_features=2048, bias=True)
              (k_proj): Linear(in_features=2048, out_features=2048, bias=True)
              (v_proj): Linear(in_features=2048, out_features=2048, bias=True)
              (o_proj): Linear(in_features=2048, out_features=2048, bias=False)
              (rotary_emb): Qwen2RotaryEmbedding()
            )
            (mlp): moe.MLP(
              (base_layer): Qwen2MLP(
                (gate_proj): Linear(in_features=2048, out_features=5504, bias=False)
                (up_proj): Linear(in_features=2048, out_features=5504, bias=False)
                (down_proj): Linear(in_features=5504, out_features=2048, bias=False)
                (act_fn): SiLU()
              )
              (moe_router_embedding): ModuleDict(
                (default): Linear(in_features=512, out_features=4, bias=False)
              )
              (moe_experts): ModuleDict(
                (default): ModuleList(
                  (0): FFN(
                    (gate_proj): Linear(in_features=512, out_features=5504, bias=False)
                    (up_proj): Linear(in_features=512, out_features=5504, bias=False)
                    (down_proj): Linear(in_features=5504, out_features=512, bias=False)
                    (act_fn): SiLU()
                  )
                  (1): FFN(
                    (gate_proj): Linear(in_features=512, out_features=5504, bias=False)
                    (up_proj): Linear(in_features=512, out_features=5504, bias=False)
                    (down_proj): Linear(in_features=5504, out_features=512, bias=False)
                    (act_fn): SiLU()
                  )
                  (2): FFN(
                    (gate_proj): Linear(in_features=512, out_features=5504, bias=False)
                    (up_proj): Linear(in_features=512, out_features=5504, bias=False)
                    (down_proj): Linear(in_features=5504, out_features=512, bias=False)
                    (act_fn): SiLU()
                  )
                  (3): FFN(
                    (gate_proj): Linear(in_features=512, out_features=5504, bias=False)
                    (up_proj): Linear(in_features=512, out_features=5504, bias=False)
                    (down_proj): Linear(in_features=5504, out_features=512, bias=False)
                    (act_fn): SiLU()
                  )
                )
              )
              (moe_mh_layer): ModuleDict(
                (default): Linear(in_features=2048, out_features=2048, bias=True)
              )
              (moe_merge_layer): ModuleDict(
                (default): Linear(in_features=2048, out_features=2048, bias=True)
              )
            )
            (input_layernorm): Qwen2RMSNorm()
            (post_attention_layernorm): Qwen2RMSNorm()
          )
          (11): Qwen2DecoderLayer(
            (self_attn): Qwen2FlashAttention2(
              (q_proj): Linear(in_features=2048, out_features=2048, bias=True)
              (k_proj): Linear(in_features=2048, out_features=2048, bias=True)
              (v_proj): Linear(in_features=2048, out_features=2048, bias=True)
              (o_proj): Linear(in_features=2048, out_features=2048, bias=False)
              (rotary_emb): Qwen2RotaryEmbedding()
            )
            (mlp): moe.MLP(
              (base_layer): Qwen2MLP(
                (gate_proj): Linear(in_features=2048, out_features=5504, bias=False)
                (up_proj): Linear(in_features=2048, out_features=5504, bias=False)
                (down_proj): Linear(in_features=5504, out_features=2048, bias=False)
                (act_fn): SiLU()
              )
              (moe_router_embedding): ModuleDict(
                (default): Linear(in_features=512, out_features=4, bias=False)
              )
              (moe_experts): ModuleDict(
                (default): ModuleList(
                  (0): FFN(
                    (gate_proj): Linear(in_features=512, out_features=5504, bias=False)
                    (up_proj): Linear(in_features=512, out_features=5504, bias=False)
                    (down_proj): Linear(in_features=5504, out_features=512, bias=False)
                    (act_fn): SiLU()
                  )
                  (1): FFN(
                    (gate_proj): Linear(in_features=512, out_features=5504, bias=False)
                    (up_proj): Linear(in_features=512, out_features=5504, bias=False)
                    (down_proj): Linear(in_features=5504, out_features=512, bias=False)
                    (act_fn): SiLU()
                  )
                  (2): FFN(
                    (gate_proj): Linear(in_features=512, out_features=5504, bias=False)
                    (up_proj): Linear(in_features=512, out_features=5504, bias=False)
                    (down_proj): Linear(in_features=5504, out_features=512, bias=False)
                    (act_fn): SiLU()
                  )
                  (3): FFN(
                    (gate_proj): Linear(in_features=512, out_features=5504, bias=False)
                    (up_proj): Linear(in_features=512, out_features=5504, bias=False)
                    (down_proj): Linear(in_features=5504, out_features=512, bias=False)
                    (act_fn): SiLU()
                  )
                )
              )
              (moe_mh_layer): ModuleDict(
                (default): Linear(in_features=2048, out_features=2048, bias=True)
              )
              (moe_merge_layer): ModuleDict(
                (default): Linear(in_features=2048, out_features=2048, bias=True)
              )
            )
            (input_layernorm): Qwen2RMSNorm()
            (post_attention_layernorm): Qwen2RMSNorm()
          )
          (12): Qwen2DecoderLayer(
            (self_attn): Qwen2FlashAttention2(
              (q_proj): Linear(in_features=2048, out_features=2048, bias=True)
              (k_proj): Linear(in_features=2048, out_features=2048, bias=True)
              (v_proj): Linear(in_features=2048, out_features=2048, bias=True)
              (o_proj): Linear(in_features=2048, out_features=2048, bias=False)
              (rotary_emb): Qwen2RotaryEmbedding()
            )
            (mlp): moe.MLP(
              (base_layer): Qwen2MLP(
                (gate_proj): Linear(in_features=2048, out_features=5504, bias=False)
                (up_proj): Linear(in_features=2048, out_features=5504, bias=False)
                (down_proj): Linear(in_features=5504, out_features=2048, bias=False)
                (act_fn): SiLU()
              )
              (moe_router_embedding): ModuleDict(
                (default): Linear(in_features=512, out_features=4, bias=False)
              )
              (moe_experts): ModuleDict(
                (default): ModuleList(
                  (0): FFN(
                    (gate_proj): Linear(in_features=512, out_features=5504, bias=False)
                    (up_proj): Linear(in_features=512, out_features=5504, bias=False)
                    (down_proj): Linear(in_features=5504, out_features=512, bias=False)
                    (act_fn): SiLU()
                  )
                  (1): FFN(
                    (gate_proj): Linear(in_features=512, out_features=5504, bias=False)
                    (up_proj): Linear(in_features=512, out_features=5504, bias=False)
                    (down_proj): Linear(in_features=5504, out_features=512, bias=False)
                    (act_fn): SiLU()
                  )
                  (2): FFN(
                    (gate_proj): Linear(in_features=512, out_features=5504, bias=False)
                    (up_proj): Linear(in_features=512, out_features=5504, bias=False)
                    (down_proj): Linear(in_features=5504, out_features=512, bias=False)
                    (act_fn): SiLU()
                  )
                  (3): FFN(
                    (gate_proj): Linear(in_features=512, out_features=5504, bias=False)
                    (up_proj): Linear(in_features=512, out_features=5504, bias=False)
                    (down_proj): Linear(in_features=5504, out_features=512, bias=False)
                    (act_fn): SiLU()
                  )
                )
              )
              (moe_mh_layer): ModuleDict(
                (default): Linear(in_features=2048, out_features=2048, bias=True)
              )
              (moe_merge_layer): ModuleDict(
                (default): Linear(in_features=2048, out_features=2048, bias=True)
              )
            )
            (input_layernorm): Qwen2RMSNorm()
            (post_attention_layernorm): Qwen2RMSNorm()
          )
          (13): Qwen2DecoderLayer(
            (self_attn): Qwen2FlashAttention2(
              (q_proj): Linear(in_features=2048, out_features=2048, bias=True)
              (k_proj): Linear(in_features=2048, out_features=2048, bias=True)
              (v_proj): Linear(in_features=2048, out_features=2048, bias=True)
              (o_proj): Linear(in_features=2048, out_features=2048, bias=False)
              (rotary_emb): Qwen2RotaryEmbedding()
            )
            (mlp): moe.MLP(
              (base_layer): Qwen2MLP(
                (gate_proj): Linear(in_features=2048, out_features=5504, bias=False)
                (up_proj): Linear(in_features=2048, out_features=5504, bias=False)
                (down_proj): Linear(in_features=5504, out_features=2048, bias=False)
                (act_fn): SiLU()
              )
              (moe_router_embedding): ModuleDict(
                (default): Linear(in_features=512, out_features=4, bias=False)
              )
              (moe_experts): ModuleDict(
                (default): ModuleList(
                  (0): FFN(
                    (gate_proj): Linear(in_features=512, out_features=5504, bias=False)
                    (up_proj): Linear(in_features=512, out_features=5504, bias=False)
                    (down_proj): Linear(in_features=5504, out_features=512, bias=False)
                    (act_fn): SiLU()
                  )
                  (1): FFN(
                    (gate_proj): Linear(in_features=512, out_features=5504, bias=False)
                    (up_proj): Linear(in_features=512, out_features=5504, bias=False)
                    (down_proj): Linear(in_features=5504, out_features=512, bias=False)
                    (act_fn): SiLU()
                  )
                  (2): FFN(
                    (gate_proj): Linear(in_features=512, out_features=5504, bias=False)
                    (up_proj): Linear(in_features=512, out_features=5504, bias=False)
                    (down_proj): Linear(in_features=5504, out_features=512, bias=False)
                    (act_fn): SiLU()
                  )
                  (3): FFN(
                    (gate_proj): Linear(in_features=512, out_features=5504, bias=False)
                    (up_proj): Linear(in_features=512, out_features=5504, bias=False)
                    (down_proj): Linear(in_features=5504, out_features=512, bias=False)
                    (act_fn): SiLU()
                  )
                )
              )
              (moe_mh_layer): ModuleDict(
                (default): Linear(in_features=2048, out_features=2048, bias=True)
              )
              (moe_merge_layer): ModuleDict(
                (default): Linear(in_features=2048, out_features=2048, bias=True)
              )
            )
            (input_layernorm): Qwen2RMSNorm()
            (post_attention_layernorm): Qwen2RMSNorm()
          )
          (14): Qwen2DecoderLayer(
            (self_attn): Qwen2FlashAttention2(
              (q_proj): Linear(in_features=2048, out_features=2048, bias=True)
              (k_proj): Linear(in_features=2048, out_features=2048, bias=True)
              (v_proj): Linear(in_features=2048, out_features=2048, bias=True)
              (o_proj): Linear(in_features=2048, out_features=2048, bias=False)
              (rotary_emb): Qwen2RotaryEmbedding()
            )
            (mlp): moe.MLP(
              (base_layer): Qwen2MLP(
                (gate_proj): Linear(in_features=2048, out_features=5504, bias=False)
                (up_proj): Linear(in_features=2048, out_features=5504, bias=False)
                (down_proj): Linear(in_features=5504, out_features=2048, bias=False)
                (act_fn): SiLU()
              )
              (moe_router_embedding): ModuleDict(
                (default): Linear(in_features=512, out_features=4, bias=False)
              )
              (moe_experts): ModuleDict(
                (default): ModuleList(
                  (0): FFN(
                    (gate_proj): Linear(in_features=512, out_features=5504, bias=False)
                    (up_proj): Linear(in_features=512, out_features=5504, bias=False)
                    (down_proj): Linear(in_features=5504, out_features=512, bias=False)
                    (act_fn): SiLU()
                  )
                  (1): FFN(
                    (gate_proj): Linear(in_features=512, out_features=5504, bias=False)
                    (up_proj): Linear(in_features=512, out_features=5504, bias=False)
                    (down_proj): Linear(in_features=5504, out_features=512, bias=False)
                    (act_fn): SiLU()
                  )
                  (2): FFN(
                    (gate_proj): Linear(in_features=512, out_features=5504, bias=False)
                    (up_proj): Linear(in_features=512, out_features=5504, bias=False)
                    (down_proj): Linear(in_features=5504, out_features=512, bias=False)
                    (act_fn): SiLU()
                  )
                  (3): FFN(
                    (gate_proj): Linear(in_features=512, out_features=5504, bias=False)
                    (up_proj): Linear(in_features=512, out_features=5504, bias=False)
                    (down_proj): Linear(in_features=5504, out_features=512, bias=False)
                    (act_fn): SiLU()
                  )
                )
              )
              (moe_mh_layer): ModuleDict(
                (default): Linear(in_features=2048, out_features=2048, bias=True)
              )
              (moe_merge_layer): ModuleDict(
                (default): Linear(in_features=2048, out_features=2048, bias=True)
              )
            )
            (input_layernorm): Qwen2RMSNorm()
            (post_attention_layernorm): Qwen2RMSNorm()
          )
          (15): Qwen2DecoderLayer(
            (self_attn): Qwen2FlashAttention2(
              (q_proj): Linear(in_features=2048, out_features=2048, bias=True)
              (k_proj): Linear(in_features=2048, out_features=2048, bias=True)
              (v_proj): Linear(in_features=2048, out_features=2048, bias=True)
              (o_proj): Linear(in_features=2048, out_features=2048, bias=False)
              (rotary_emb): Qwen2RotaryEmbedding()
            )
            (mlp): moe.MLP(
              (base_layer): Qwen2MLP(
                (gate_proj): Linear(in_features=2048, out_features=5504, bias=False)
                (up_proj): Linear(in_features=2048, out_features=5504, bias=False)
                (down_proj): Linear(in_features=5504, out_features=2048, bias=False)
                (act_fn): SiLU()
              )
              (moe_router_embedding): ModuleDict(
                (default): Linear(in_features=512, out_features=4, bias=False)
              )
              (moe_experts): ModuleDict(
                (default): ModuleList(
                  (0): FFN(
                    (gate_proj): Linear(in_features=512, out_features=5504, bias=False)
                    (up_proj): Linear(in_features=512, out_features=5504, bias=False)
                    (down_proj): Linear(in_features=5504, out_features=512, bias=False)
                    (act_fn): SiLU()
                  )
                  (1): FFN(
                    (gate_proj): Linear(in_features=512, out_features=5504, bias=False)
                    (up_proj): Linear(in_features=512, out_features=5504, bias=False)
                    (down_proj): Linear(in_features=5504, out_features=512, bias=False)
                    (act_fn): SiLU()
                  )
                  (2): FFN(
                    (gate_proj): Linear(in_features=512, out_features=5504, bias=False)
                    (up_proj): Linear(in_features=512, out_features=5504, bias=False)
                    (down_proj): Linear(in_features=5504, out_features=512, bias=False)
                    (act_fn): SiLU()
                  )
                  (3): FFN(
                    (gate_proj): Linear(in_features=512, out_features=5504, bias=False)
                    (up_proj): Linear(in_features=512, out_features=5504, bias=False)
                    (down_proj): Linear(in_features=5504, out_features=512, bias=False)
                    (act_fn): SiLU()
                  )
                )
              )
              (moe_mh_layer): ModuleDict(
                (default): Linear(in_features=2048, out_features=2048, bias=True)
              )
              (moe_merge_layer): ModuleDict(
                (default): Linear(in_features=2048, out_features=2048, bias=True)
              )
            )
            (input_layernorm): Qwen2RMSNorm()
            (post_attention_layernorm): Qwen2RMSNorm()
          )
          (16): Qwen2DecoderLayer(
            (self_attn): Qwen2FlashAttention2(
              (q_proj): Linear(in_features=2048, out_features=2048, bias=True)
              (k_proj): Linear(in_features=2048, out_features=2048, bias=True)
              (v_proj): Linear(in_features=2048, out_features=2048, bias=True)
              (o_proj): Linear(in_features=2048, out_features=2048, bias=False)
              (rotary_emb): Qwen2RotaryEmbedding()
            )
            (mlp): moe.MLP(
              (base_layer): Qwen2MLP(
                (gate_proj): Linear(in_features=2048, out_features=5504, bias=False)
                (up_proj): Linear(in_features=2048, out_features=5504, bias=False)
                (down_proj): Linear(in_features=5504, out_features=2048, bias=False)
                (act_fn): SiLU()
              )
              (moe_router_embedding): ModuleDict(
                (default): Linear(in_features=512, out_features=4, bias=False)
              )
              (moe_experts): ModuleDict(
                (default): ModuleList(
                  (0): FFN(
                    (gate_proj): Linear(in_features=512, out_features=5504, bias=False)
                    (up_proj): Linear(in_features=512, out_features=5504, bias=False)
                    (down_proj): Linear(in_features=5504, out_features=512, bias=False)
                    (act_fn): SiLU()
                  )
                  (1): FFN(
                    (gate_proj): Linear(in_features=512, out_features=5504, bias=False)
                    (up_proj): Linear(in_features=512, out_features=5504, bias=False)
                    (down_proj): Linear(in_features=5504, out_features=512, bias=False)
                    (act_fn): SiLU()
                  )
                  (2): FFN(
                    (gate_proj): Linear(in_features=512, out_features=5504, bias=False)
                    (up_proj): Linear(in_features=512, out_features=5504, bias=False)
                    (down_proj): Linear(in_features=5504, out_features=512, bias=False)
                    (act_fn): SiLU()
                  )
                  (3): FFN(
                    (gate_proj): Linear(in_features=512, out_features=5504, bias=False)
                    (up_proj): Linear(in_features=512, out_features=5504, bias=False)
                    (down_proj): Linear(in_features=5504, out_features=512, bias=False)
                    (act_fn): SiLU()
                  )
                )
              )
              (moe_mh_layer): ModuleDict(
                (default): Linear(in_features=2048, out_features=2048, bias=True)
              )
              (moe_merge_layer): ModuleDict(
                (default): Linear(in_features=2048, out_features=2048, bias=True)
              )
            )
            (input_layernorm): Qwen2RMSNorm()
            (post_attention_layernorm): Qwen2RMSNorm()
          )
          (17): Qwen2DecoderLayer(
            (self_attn): Qwen2FlashAttention2(
              (q_proj): Linear(in_features=2048, out_features=2048, bias=True)
              (k_proj): Linear(in_features=2048, out_features=2048, bias=True)
              (v_proj): Linear(in_features=2048, out_features=2048, bias=True)
              (o_proj): Linear(in_features=2048, out_features=2048, bias=False)
              (rotary_emb): Qwen2RotaryEmbedding()
            )
            (mlp): moe.MLP(
              (base_layer): Qwen2MLP(
                (gate_proj): Linear(in_features=2048, out_features=5504, bias=False)
                (up_proj): Linear(in_features=2048, out_features=5504, bias=False)
                (down_proj): Linear(in_features=5504, out_features=2048, bias=False)
                (act_fn): SiLU()
              )
              (moe_router_embedding): ModuleDict(
                (default): Linear(in_features=512, out_features=4, bias=False)
              )
              (moe_experts): ModuleDict(
                (default): ModuleList(
                  (0): FFN(
                    (gate_proj): Linear(in_features=512, out_features=5504, bias=False)
                    (up_proj): Linear(in_features=512, out_features=5504, bias=False)
                    (down_proj): Linear(in_features=5504, out_features=512, bias=False)
                    (act_fn): SiLU()
                  )
                  (1): FFN(
                    (gate_proj): Linear(in_features=512, out_features=5504, bias=False)
                    (up_proj): Linear(in_features=512, out_features=5504, bias=False)
                    (down_proj): Linear(in_features=5504, out_features=512, bias=False)
                    (act_fn): SiLU()
                  )
                  (2): FFN(
                    (gate_proj): Linear(in_features=512, out_features=5504, bias=False)
                    (up_proj): Linear(in_features=512, out_features=5504, bias=False)
                    (down_proj): Linear(in_features=5504, out_features=512, bias=False)
                    (act_fn): SiLU()
                  )
                  (3): FFN(
                    (gate_proj): Linear(in_features=512, out_features=5504, bias=False)
                    (up_proj): Linear(in_features=512, out_features=5504, bias=False)
                    (down_proj): Linear(in_features=5504, out_features=512, bias=False)
                    (act_fn): SiLU()
                  )
                )
              )
              (moe_mh_layer): ModuleDict(
                (default): Linear(in_features=2048, out_features=2048, bias=True)
              )
              (moe_merge_layer): ModuleDict(
                (default): Linear(in_features=2048, out_features=2048, bias=True)
              )
            )
            (input_layernorm): Qwen2RMSNorm()
            (post_attention_layernorm): Qwen2RMSNorm()
          )
          (18): Qwen2DecoderLayer(
            (self_attn): Qwen2FlashAttention2(
              (q_proj): Linear(in_features=2048, out_features=2048, bias=True)
              (k_proj): Linear(in_features=2048, out_features=2048, bias=True)
              (v_proj): Linear(in_features=2048, out_features=2048, bias=True)
              (o_proj): Linear(in_features=2048, out_features=2048, bias=False)
              (rotary_emb): Qwen2RotaryEmbedding()
            )
            (mlp): moe.MLP(
              (base_layer): Qwen2MLP(
                (gate_proj): Linear(in_features=2048, out_features=5504, bias=False)
                (up_proj): Linear(in_features=2048, out_features=5504, bias=False)
                (down_proj): Linear(in_features=5504, out_features=2048, bias=False)
                (act_fn): SiLU()
              )
              (moe_router_embedding): ModuleDict(
                (default): Linear(in_features=512, out_features=4, bias=False)
              )
              (moe_experts): ModuleDict(
                (default): ModuleList(
                  (0): FFN(
                    (gate_proj): Linear(in_features=512, out_features=5504, bias=False)
                    (up_proj): Linear(in_features=512, out_features=5504, bias=False)
                    (down_proj): Linear(in_features=5504, out_features=512, bias=False)
                    (act_fn): SiLU()
                  )
                  (1): FFN(
                    (gate_proj): Linear(in_features=512, out_features=5504, bias=False)
                    (up_proj): Linear(in_features=512, out_features=5504, bias=False)
                    (down_proj): Linear(in_features=5504, out_features=512, bias=False)
                    (act_fn): SiLU()
                  )
                  (2): FFN(
                    (gate_proj): Linear(in_features=512, out_features=5504, bias=False)
                    (up_proj): Linear(in_features=512, out_features=5504, bias=False)
                    (down_proj): Linear(in_features=5504, out_features=512, bias=False)
                    (act_fn): SiLU()
                  )
                  (3): FFN(
                    (gate_proj): Linear(in_features=512, out_features=5504, bias=False)
                    (up_proj): Linear(in_features=512, out_features=5504, bias=False)
                    (down_proj): Linear(in_features=5504, out_features=512, bias=False)
                    (act_fn): SiLU()
                  )
                )
              )
              (moe_mh_layer): ModuleDict(
                (default): Linear(in_features=2048, out_features=2048, bias=True)
              )
              (moe_merge_layer): ModuleDict(
                (default): Linear(in_features=2048, out_features=2048, bias=True)
              )
            )
            (input_layernorm): Qwen2RMSNorm()
            (post_attention_layernorm): Qwen2RMSNorm()
          )
          (19): Qwen2DecoderLayer(
            (self_attn): Qwen2FlashAttention2(
              (q_proj): Linear(in_features=2048, out_features=2048, bias=True)
              (k_proj): Linear(in_features=2048, out_features=2048, bias=True)
              (v_proj): Linear(in_features=2048, out_features=2048, bias=True)
              (o_proj): Linear(in_features=2048, out_features=2048, bias=False)
              (rotary_emb): Qwen2RotaryEmbedding()
            )
            (mlp): moe.MLP(
              (base_layer): Qwen2MLP(
                (gate_proj): Linear(in_features=2048, out_features=5504, bias=False)
                (up_proj): Linear(in_features=2048, out_features=5504, bias=False)
                (down_proj): Linear(in_features=5504, out_features=2048, bias=False)
                (act_fn): SiLU()
              )
              (moe_router_embedding): ModuleDict(
                (default): Linear(in_features=512, out_features=4, bias=False)
              )
              (moe_experts): ModuleDict(
                (default): ModuleList(
                  (0): FFN(
                    (gate_proj): Linear(in_features=512, out_features=5504, bias=False)
                    (up_proj): Linear(in_features=512, out_features=5504, bias=False)
                    (down_proj): Linear(in_features=5504, out_features=512, bias=False)
                    (act_fn): SiLU()
                  )
                  (1): FFN(
                    (gate_proj): Linear(in_features=512, out_features=5504, bias=False)
                    (up_proj): Linear(in_features=512, out_features=5504, bias=False)
                    (down_proj): Linear(in_features=5504, out_features=512, bias=False)
                    (act_fn): SiLU()
                  )
                  (2): FFN(
                    (gate_proj): Linear(in_features=512, out_features=5504, bias=False)
                    (up_proj): Linear(in_features=512, out_features=5504, bias=False)
                    (down_proj): Linear(in_features=5504, out_features=512, bias=False)
                    (act_fn): SiLU()
                  )
                  (3): FFN(
                    (gate_proj): Linear(in_features=512, out_features=5504, bias=False)
                    (up_proj): Linear(in_features=512, out_features=5504, bias=False)
                    (down_proj): Linear(in_features=5504, out_features=512, bias=False)
                    (act_fn): SiLU()
                  )
                )
              )
              (moe_mh_layer): ModuleDict(
                (default): Linear(in_features=2048, out_features=2048, bias=True)
              )
              (moe_merge_layer): ModuleDict(
                (default): Linear(in_features=2048, out_features=2048, bias=True)
              )
            )
            (input_layernorm): Qwen2RMSNorm()
            (post_attention_layernorm): Qwen2RMSNorm()
          )
          (20): Qwen2DecoderLayer(
            (self_attn): Qwen2FlashAttention2(
              (q_proj): Linear(in_features=2048, out_features=2048, bias=True)
              (k_proj): Linear(in_features=2048, out_features=2048, bias=True)
              (v_proj): Linear(in_features=2048, out_features=2048, bias=True)
              (o_proj): Linear(in_features=2048, out_features=2048, bias=False)
              (rotary_emb): Qwen2RotaryEmbedding()
            )
            (mlp): moe.MLP(
              (base_layer): Qwen2MLP(
                (gate_proj): Linear(in_features=2048, out_features=5504, bias=False)
                (up_proj): Linear(in_features=2048, out_features=5504, bias=False)
                (down_proj): Linear(in_features=5504, out_features=2048, bias=False)
                (act_fn): SiLU()
              )
              (moe_router_embedding): ModuleDict(
                (default): Linear(in_features=512, out_features=4, bias=False)
              )
              (moe_experts): ModuleDict(
                (default): ModuleList(
                  (0): FFN(
                    (gate_proj): Linear(in_features=512, out_features=5504, bias=False)
                    (up_proj): Linear(in_features=512, out_features=5504, bias=False)
                    (down_proj): Linear(in_features=5504, out_features=512, bias=False)
                    (act_fn): SiLU()
                  )
                  (1): FFN(
                    (gate_proj): Linear(in_features=512, out_features=5504, bias=False)
                    (up_proj): Linear(in_features=512, out_features=5504, bias=False)
                    (down_proj): Linear(in_features=5504, out_features=512, bias=False)
                    (act_fn): SiLU()
                  )
                  (2): FFN(
                    (gate_proj): Linear(in_features=512, out_features=5504, bias=False)
                    (up_proj): Linear(in_features=512, out_features=5504, bias=False)
                    (down_proj): Linear(in_features=5504, out_features=512, bias=False)
                    (act_fn): SiLU()
                  )
                  (3): FFN(
                    (gate_proj): Linear(in_features=512, out_features=5504, bias=False)
                    (up_proj): Linear(in_features=512, out_features=5504, bias=False)
                    (down_proj): Linear(in_features=5504, out_features=512, bias=False)
                    (act_fn): SiLU()
                  )
                )
              )
              (moe_mh_layer): ModuleDict(
                (default): Linear(in_features=2048, out_features=2048, bias=True)
              )
              (moe_merge_layer): ModuleDict(
                (default): Linear(in_features=2048, out_features=2048, bias=True)
              )
            )
            (input_layernorm): Qwen2RMSNorm()
            (post_attention_layernorm): Qwen2RMSNorm()
          )
          (21): Qwen2DecoderLayer(
            (self_attn): Qwen2FlashAttention2(
              (q_proj): Linear(in_features=2048, out_features=2048, bias=True)
              (k_proj): Linear(in_features=2048, out_features=2048, bias=True)
              (v_proj): Linear(in_features=2048, out_features=2048, bias=True)
              (o_proj): Linear(in_features=2048, out_features=2048, bias=False)
              (rotary_emb): Qwen2RotaryEmbedding()
            )
            (mlp): moe.MLP(
              (base_layer): Qwen2MLP(
                (gate_proj): Linear(in_features=2048, out_features=5504, bias=False)
                (up_proj): Linear(in_features=2048, out_features=5504, bias=False)
                (down_proj): Linear(in_features=5504, out_features=2048, bias=False)
                (act_fn): SiLU()
              )
              (moe_router_embedding): ModuleDict(
                (default): Linear(in_features=512, out_features=4, bias=False)
              )
              (moe_experts): ModuleDict(
                (default): ModuleList(
                  (0): FFN(
                    (gate_proj): Linear(in_features=512, out_features=5504, bias=False)
                    (up_proj): Linear(in_features=512, out_features=5504, bias=False)
                    (down_proj): Linear(in_features=5504, out_features=512, bias=False)
                    (act_fn): SiLU()
                  )
                  (1): FFN(
                    (gate_proj): Linear(in_features=512, out_features=5504, bias=False)
                    (up_proj): Linear(in_features=512, out_features=5504, bias=False)
                    (down_proj): Linear(in_features=5504, out_features=512, bias=False)
                    (act_fn): SiLU()
                  )
                  (2): FFN(
                    (gate_proj): Linear(in_features=512, out_features=5504, bias=False)
                    (up_proj): Linear(in_features=512, out_features=5504, bias=False)
                    (down_proj): Linear(in_features=5504, out_features=512, bias=False)
                    (act_fn): SiLU()
                  )
                  (3): FFN(
                    (gate_proj): Linear(in_features=512, out_features=5504, bias=False)
                    (up_proj): Linear(in_features=512, out_features=5504, bias=False)
                    (down_proj): Linear(in_features=5504, out_features=512, bias=False)
                    (act_fn): SiLU()
                  )
                )
              )
              (moe_mh_layer): ModuleDict(
                (default): Linear(in_features=2048, out_features=2048, bias=True)
              )
              (moe_merge_layer): ModuleDict(
                (default): Linear(in_features=2048, out_features=2048, bias=True)
              )
            )
            (input_layernorm): Qwen2RMSNorm()
            (post_attention_layernorm): Qwen2RMSNorm()
          )
          (22): Qwen2DecoderLayer(
            (self_attn): Qwen2FlashAttention2(
              (q_proj): Linear(in_features=2048, out_features=2048, bias=True)
              (k_proj): Linear(in_features=2048, out_features=2048, bias=True)
              (v_proj): Linear(in_features=2048, out_features=2048, bias=True)
              (o_proj): Linear(in_features=2048, out_features=2048, bias=False)
              (rotary_emb): Qwen2RotaryEmbedding()
            )
            (mlp): moe.MLP(
              (base_layer): Qwen2MLP(
                (gate_proj): Linear(in_features=2048, out_features=5504, bias=False)
                (up_proj): Linear(in_features=2048, out_features=5504, bias=False)
                (down_proj): Linear(in_features=5504, out_features=2048, bias=False)
                (act_fn): SiLU()
              )
              (moe_router_embedding): ModuleDict(
                (default): Linear(in_features=512, out_features=4, bias=False)
              )
              (moe_experts): ModuleDict(
                (default): ModuleList(
                  (0): FFN(
                    (gate_proj): Linear(in_features=512, out_features=5504, bias=False)
                    (up_proj): Linear(in_features=512, out_features=5504, bias=False)
                    (down_proj): Linear(in_features=5504, out_features=512, bias=False)
                    (act_fn): SiLU()
                  )
                  (1): FFN(
                    (gate_proj): Linear(in_features=512, out_features=5504, bias=False)
                    (up_proj): Linear(in_features=512, out_features=5504, bias=False)
                    (down_proj): Linear(in_features=5504, out_features=512, bias=False)
                    (act_fn): SiLU()
                  )
                  (2): FFN(
                    (gate_proj): Linear(in_features=512, out_features=5504, bias=False)
                    (up_proj): Linear(in_features=512, out_features=5504, bias=False)
                    (down_proj): Linear(in_features=5504, out_features=512, bias=False)
                    (act_fn): SiLU()
                  )
                  (3): FFN(
                    (gate_proj): Linear(in_features=512, out_features=5504, bias=False)
                    (up_proj): Linear(in_features=512, out_features=5504, bias=False)
                    (down_proj): Linear(in_features=5504, out_features=512, bias=False)
                    (act_fn): SiLU()
                  )
                )
              )
              (moe_mh_layer): ModuleDict(
                (default): Linear(in_features=2048, out_features=2048, bias=True)
              )
              (moe_merge_layer): ModuleDict(
                (default): Linear(in_features=2048, out_features=2048, bias=True)
              )
            )
            (input_layernorm): Qwen2RMSNorm()
            (post_attention_layernorm): Qwen2RMSNorm()
          )
          (23): Qwen2DecoderLayer(
            (self_attn): Qwen2FlashAttention2(
              (q_proj): Linear(in_features=2048, out_features=2048, bias=True)
              (k_proj): Linear(in_features=2048, out_features=2048, bias=True)
              (v_proj): Linear(in_features=2048, out_features=2048, bias=True)
              (o_proj): Linear(in_features=2048, out_features=2048, bias=False)
              (rotary_emb): Qwen2RotaryEmbedding()
            )
            (mlp): moe.MLP(
              (base_layer): Qwen2MLP(
                (gate_proj): Linear(in_features=2048, out_features=5504, bias=False)
                (up_proj): Linear(in_features=2048, out_features=5504, bias=False)
                (down_proj): Linear(in_features=5504, out_features=2048, bias=False)
                (act_fn): SiLU()
              )
              (moe_router_embedding): ModuleDict(
                (default): Linear(in_features=512, out_features=4, bias=False)
              )
              (moe_experts): ModuleDict(
                (default): ModuleList(
                  (0): FFN(
                    (gate_proj): Linear(in_features=512, out_features=5504, bias=False)
                    (up_proj): Linear(in_features=512, out_features=5504, bias=False)
                    (down_proj): Linear(in_features=5504, out_features=512, bias=False)
                    (act_fn): SiLU()
                  )
                  (1): FFN(
                    (gate_proj): Linear(in_features=512, out_features=5504, bias=False)
                    (up_proj): Linear(in_features=512, out_features=5504, bias=False)
                    (down_proj): Linear(in_features=5504, out_features=512, bias=False)
                    (act_fn): SiLU()
                  )
                  (2): FFN(
                    (gate_proj): Linear(in_features=512, out_features=5504, bias=False)
                    (up_proj): Linear(in_features=512, out_features=5504, bias=False)
                    (down_proj): Linear(in_features=5504, out_features=512, bias=False)
                    (act_fn): SiLU()
                  )
                  (3): FFN(
                    (gate_proj): Linear(in_features=512, out_features=5504, bias=False)
                    (up_proj): Linear(in_features=512, out_features=5504, bias=False)
                    (down_proj): Linear(in_features=5504, out_features=512, bias=False)
                    (act_fn): SiLU()
                  )
                )
              )
              (moe_mh_layer): ModuleDict(
                (default): Linear(in_features=2048, out_features=2048, bias=True)
              )
              (moe_merge_layer): ModuleDict(
                (default): Linear(in_features=2048, out_features=2048, bias=True)
              )
            )
            (input_layernorm): Qwen2RMSNorm()
            (post_attention_layernorm): Qwen2RMSNorm()
          )
        )
        (norm): Qwen2RMSNorm()
      )
      (lm_head): Linear(in_features=2048, out_features=151936, bias=False)
    )
  )
)
Detected kernel version 5.4.0, which is below the recommended minimum of 5.5.0; this can cause the process to hang. It is recommended to upgrade the kernel to the minimum version or higher.
[INFO|trainer.py:586] 2024-05-18 19:29:53,160 >> Using auto half precision backend
[2024-05-18 19:29:53,422] [INFO] [logging.py:96:log_dist] [Rank 0] DeepSpeed info: version=0.12.3, git-hash=unknown, git-branch=unknown
…
