…
{'text': '@interface PodsDummy_XCDLumberjackNSLogger_OSX : NSObject\n@end\n@implementation PodsDummy_XCDLumberjackNSLogger_OSX\n@end\n', 'meta': {'redpajama_set_name': 'RedPajamaGithub'}, '__index_level_0__': 3706}
Loading cached shuffled indices for dataset at /home/yangdezhao/.cache/huggingface/datasets/json/default-8967e71434917b95/0.0.0/c8d2d9508a2a2067ab02cd118834ecef34c3700d143b31835ec4235bf10109f7/cache-d2ae0b52a42f5b44.arrow
Dataset({
    features: ['input_ids', 'attention_mask'],
    num_rows: 496681
})
PeftModelForCausalLM(
  (base_model): MoeModel(
    (model): Qwen2ForCausalLM(
      (model): Qwen2Model(
        (embed_tokens): Embedding(151936, 2048)
        (layers): ModuleList(
          (0-23): 24 x Qwen2DecoderLayer(
            (self_attn): Qwen2FlashAttention2(
              (q_proj): Linear(in_features=2048, out_features=2048, bias=True)
              (k_proj): Linear(in_features=2048, out_features=2048, bias=True)
              (v_proj): Linear(in_features=2048, out_features=2048, bias=True)
              (o_proj): Linear(in_features=2048, out_features=2048, bias=False)
              (rotary_emb): Qwen2RotaryEmbedding()
            )
            (mlp): moe.MLP(
              (base_layer): Qwen2MLP(
                (gate_proj): Linear(in_features=2048, out_features=5504, bias=False)
                (up_proj): Linear(in_features=2048, out_features=5504, bias=False)
                (down_proj): Linear(in_features=5504, out_features=2048, bias=False)
                (act_fn): SiLU()
              )
              (moe_router_embedding): ModuleDict(
                (default): Linear(in_features=2048, out_features=2, bias=False)
              )
              (moe_experts): ModuleDict(
                (default): ModuleList(
                  (0): Qwen2MLP(
                    (gate_proj): Linear(in_features=2048, out_features=5504, bias=False)
                    (up_proj): Linear(in_features=2048, out_features=5504, bias=False)
                    (down_proj): Linear(in_features=5504, out_features=2048, bias=False)
                    (act_fn): SiLU()
                  )
                )
              )
            )
            (input_layernorm): Qwen2RMSNorm()
            (post_attention_layernorm): Qwen2RMSNorm()
          )
        )
        (norm): Qwen2RMSNorm()
      )
      (lm_head): Linear(in_features=2048, out_features=151936, bias=False)
    )
  )
)
[INFO|trainer.py:586] 2024-05-20 15:40:24,761 >> Using auto half precision backend
[2024-05-20 15:40:25,066] [INFO] [logging.py:96:log_dist] [Rank 0] DeepSpeed info: version=0.13.1, git-hash=unknown, git-branch=unknown
Dataset({
    features: ['input_ids', 'attention_mask'],
    num_rows: 496681
})
Dataset({
    features: ['input_ids', 'attention_mask'],
…
