…
太平洋泵业集团有限公司专业提供IH化工离心泵等产品信息，欢迎来电咨询！<|endoftext|>处在发展期的白癜风应该如何治疗?要想治疗疾病，选择正确的医院是非常重要的，白癜风是一种非常顽固的疾病，治疗起来也是比较困难的，所以患者如果没有选择好正规的医院的话，疾病也是很难治疗的。那么，处在发展期的白癜风应该如何治疗?下面就让兰州中研白癜风医院的来给大家介绍一下。
处在发展期的白癜风应该如何治疗?

Caching indices mapping at /home/wangzj/.cache/huggingface/datasets/json/default-5d974cfe78f38e3a/0.0.0/c8d2d9508a2a2067ab02cd118834ecef34c3700d143b31835ec4235bf10109f7/cache-e50f49dd057b9d81.arrow
Dataset({
    features: ['input_ids', 'attention_mask', 'langs'],
    num_rows: 64385
})
PeftModelForCausalLM(
  (base_model): MoeModel(
    (model): Qwen2ForCausalLM(
      (model): Qwen2Model(
        (embed_tokens): Embedding(151936, 2048)
        (layers): ModuleList(
          (0): Qwen2DecoderLayer(
            (self_attn): Qwen2Attention(
              (q_proj): Linear(in_features=2048, out_features=2048, bias=True)
              (k_proj): Linear(in_features=2048, out_features=2048, bias=True)
              (v_proj): Linear(in_features=2048, out_features=2048, bias=True)
              (o_proj): Linear(in_features=2048, out_features=2048, bias=False)
              (rotary_emb): Qwen2RotaryEmbedding()
            )
            (mlp): moe.MLP(
              (base_layer): Qwen2MLP(
                (gate_proj): Linear(in_features=2048, out_features=5504, bias=False)
                (up_proj): Linear(in_features=2048, out_features=5504, bias=False)
                (down_proj): Linear(in_features=5504, out_features=2048, bias=False)
                (act_fn): SiLU()
              )
              (moe_router_embedding): ModuleDict(
                (default): Linear(in_features=2048, out_features=4, bias=False)
              )
              (moe_experts): ModuleDict(
                (default): ModuleList(
                  (0): Qwen2MLP(
                    (gate_proj): Linear(in_features=2048, out_features=5504, bias=False)
                    (up_proj): Linear(in_features=2048, out_features=5504, bias=False)
                    (down_proj): Linear(in_features=5504, out_features=2048, bias=False)
                    (act_fn): SiLU()
                  )
                  (1): Qwen2MLP(
                    (gate_proj): Linear(in_features=2048, out_features=5504, bias=False)
                    (up_proj): Linear(in_features=2048, out_features=5504, bias=False)
                    (down_proj): Linear(in_features=5504, out_features=2048, bias=False)
                    (act_fn): SiLU()
                  )
                  (2): Qwen2MLP(
                    (gate_proj): Linear(in_features=2048, out_features=5504, bias=False)
                    (up_proj): Linear(in_features=2048, out_features=5504, bias=False)
                    (down_proj): Linear(in_features=5504, out_features=2048, bias=False)
                    (act_fn): SiLU()
                  )
                )
              )
            )
            (input_layernorm): Qwen2RMSNorm()
            (post_attention_layernorm): Qwen2RMSNorm()
          )
          (1): Qwen2DecoderLayer(
            (self_attn): Qwen2Attention(
              (q_proj): Linear(in_features=2048, out_features=2048, bias=True)
              (k_proj): Linear(in_features=2048, out_features=2048, bias=True)
              (v_proj): Linear(in_features=2048, out_features=2048, bias=True)
              (o_proj): Linear(in_features=2048, out_features=2048, bias=False)
              (rotary_emb): Qwen2RotaryEmbedding()
            )
            (mlp): moe.MLP(
              (base_layer): Qwen2MLP(
                (gate_proj): Linear(in_features=2048, out_features=5504, bias=False)
                (up_proj): Linear(in_features=2048, out_features=5504, bias=False)
                (down_proj): Linear(in_features=5504, out_features=2048, bias=False)
                (act_fn): SiLU()
              )
              (moe_router_embedding): ModuleDict(
                (default): Linear(in_features=2048, out_features=4, bias=False)
              )
              (moe_experts): ModuleDict(
                (default): ModuleList(
                  (0): Qwen2MLP(
                    (gate_proj): Linear(in_features=2048, out_features=5504, bias=False)
                    (up_proj): Linear(in_features=2048, out_features=5504, bias=False)
                    (down_proj): Linear(in_features=5504, out_features=2048, bias=False)
                    (act_fn): SiLU()
                  )
                  (1): Qwen2MLP(
                    (gate_proj): Linear(in_features=2048, out_features=5504, bias=False)
                    (up_proj): Linear(in_features=2048, out_features=5504, bias=False)
                    (down_proj): Linear(in_features=5504, out_features=2048, bias=False)
                    (act_fn): SiLU()
                  )
                  (2): Qwen2MLP(
                    (gate_proj): Linear(in_features=2048, out_features=5504, bias=False)
                    (up_proj): Linear(in_features=2048, out_features=5504, bias=False)
                    (down_proj): Linear(in_features=5504, out_features=2048, bias=False)
                    (act_fn): SiLU()
                  )
                )
              )
            )
            (input_layernorm): Qwen2RMSNorm()
            (post_attention_layernorm): Qwen2RMSNorm()
          )
          (2): Qwen2DecoderLayer(
            (self_attn): Qwen2Attention(
              (q_proj): Linear(in_features=2048, out_features=2048, bias=True)
              (k_proj): Linear(in_features=2048, out_features=2048, bias=True)
              (v_proj): Linear(in_features=2048, out_features=2048, bias=True)
              (o_proj): Linear(in_features=2048, out_features=2048, bias=False)
              (rotary_emb): Qwen2RotaryEmbedding()
            )
            (mlp): moe.MLP(
              (base_layer): Qwen2MLP(
                (gate_proj): Linear(in_features=2048, out_features=5504, bias=False)
                (up_proj): Linear(in_features=2048, out_features=5504, bias=False)
                (down_proj): Linear(in_features=5504, out_features=2048, bias=False)
                (act_fn): SiLU()
              )
              (moe_router_embedding): ModuleDict(
                (default): Linear(in_features=2048, out_features=4, bias=False)
              )
              (moe_experts): ModuleDict(
                (default): ModuleList(
                  (0): Qwen2MLP(
                    (gate_proj): Linear(in_features=2048, out_features=5504, bias=False)
                    (up_proj): Linear(in_features=2048, out_features=5504, bias=False)
                    (down_proj): Linear(in_features=5504, out_features=2048, bias=False)
                    (act_fn): SiLU()
                  )
                  (1): Qwen2MLP(
                    (gate_proj): Linear(in_features=2048, out_features=5504, bias=False)
                    (up_proj): Linear(in_features=2048, out_features=5504, bias=False)
                    (down_proj): Linear(in_features=5504, out_features=2048, bias=False)
                    (act_fn): SiLU()
                  )
                  (2): Qwen2MLP(
                    (gate_proj): Linear(in_features=2048, out_features=5504, bias=False)
                    (up_proj): Linear(in_features=2048, out_features=5504, bias=False)
                    (down_proj): Linear(in_features=5504, out_features=2048, bias=False)
                    (act_fn): SiLU()
                  )
                )
              )
            )
            (input_layernorm): Qwen2RMSNorm()
            (post_attention_layernorm): Qwen2RMSNorm()
          )
          (3): Qwen2DecoderLayer(
            (self_attn): Qwen2Attention(
              (q_proj): Linear(in_features=2048, out_features=2048, bias=True)
              (k_proj): Linear(in_features=2048, out_features=2048, bias=True)
              (v_proj): Linear(in_features=2048, out_features=2048, bias=True)
              (o_proj): Linear(in_features=2048, out_features=2048, bias=False)
              (rotary_emb): Qwen2RotaryEmbedding()
            )
            (mlp): moe.MLP(
              (base_layer): Qwen2MLP(
                (gate_proj): Linear(in_features=2048, out_features=5504, bias=False)
                (up_proj): Linear(in_features=2048, out_features=5504, bias=False)
                (down_proj): Linear(in_features=5504, out_features=2048, bias=False)
                (act_fn): SiLU()
              )
              (moe_router_embedding): ModuleDict(
                (default): Linear(in_features=2048, out_features=4, bias=False)
              )
              (moe_experts): ModuleDict(
                (default): ModuleList(
                  (0): Qwen2MLP(
                    (gate_proj): Linear(in_features=2048, out_features=5504, bias=False)
                    (up_proj): Linear(in_features=2048, out_features=5504, bias=False)
                    (down_proj): Linear(in_features=5504, out_features=2048, bias=False)
                    (act_fn): SiLU()
                  )
                  (1): Qwen2MLP(
                    (gate_proj): Linear(in_features=2048, out_features=5504, bias=False)
                    (up_proj): Linear(in_features=2048, out_features=5504, bias=False)
                    (down_proj): Linear(in_features=5504, out_features=2048, bias=False)
                    (act_fn): SiLU()
                  )
                  (2): Qwen2MLP(
                    (gate_proj): Linear(in_features=2048, out_features=5504, bias=False)
                    (up_proj): Linear(in_features=2048, out_features=5504, bias=False)
                    (down_proj): Linear(in_features=5504, out_features=2048, bias=False)
                    (act_fn): SiLU()
                  )
                )
              )
            )
            (input_layernorm): Qwen2RMSNorm()
            (post_attention_layernorm): Qwen2RMSNorm()
          )
          (4): Qwen2DecoderLayer(
            (self_attn): Qwen2Attention(
              (q_proj): Linear(in_features=2048, out_features=2048, bias=True)
              (k_proj): Linear(in_features=2048, out_features=2048, bias=True)
              (v_proj): Linear(in_features=2048, out_features=2048, bias=True)
              (o_proj): Linear(in_features=2048, out_features=2048, bias=False)
              (rotary_emb): Qwen2RotaryEmbedding()
            )
            (mlp): moe.MLP(
              (base_layer): Qwen2MLP(
                (gate_proj): Linear(in_features=2048, out_features=5504, bias=False)
                (up_proj): Linear(in_features=2048, out_features=5504, bias=False)
                (down_proj): Linear(in_features=5504, out_features=2048, bias=False)
                (act_fn): SiLU()
              )
              (moe_router_embedding): ModuleDict(
                (default): Linear(in_features=2048, out_features=4, bias=False)
              )
              (moe_experts): ModuleDict(
                (default): ModuleList(
                  (0): Qwen2MLP(
                    (gate_proj): Linear(in_features=2048, out_features=5504, bias=False)
                    (up_proj): Linear(in_features=2048, out_features=5504, bias=False)
                    (down_proj): Linear(in_features=5504, out_features=2048, bias=False)
                    (act_fn): SiLU()
                  )
                  (1): Qwen2MLP(
                    (gate_proj): Linear(in_features=2048, out_features=5504, bias=False)
                    (up_proj): Linear(in_features=2048, out_features=5504, bias=False)
                    (down_proj): Linear(in_features=5504, out_features=2048, bias=False)
                    (act_fn): SiLU()
                  )
                  (2): Qwen2MLP(
                    (gate_proj): Linear(in_features=2048, out_features=5504, bias=False)
                    (up_proj): Linear(in_features=2048, out_features=5504, bias=False)
                    (down_proj): Linear(in_features=5504, out_features=2048, bias=False)
                    (act_fn): SiLU()
                  )
                )
              )
            )
            (input_layernorm): Qwen2RMSNorm()
            (post_attention_layernorm): Qwen2RMSNorm()
          )
          (5): Qwen2DecoderLayer(
            (self_attn): Qwen2Attention(
              (q_proj): Linear(in_features=2048, out_features=2048, bias=True)
              (k_proj): Linear(in_features=2048, out_features=2048, bias=True)
              (v_proj): Linear(in_features=2048, out_features=2048, bias=True)
              (o_proj): Linear(in_features=2048, out_features=2048, bias=False)
              (rotary_emb): Qwen2RotaryEmbedding()
            )
            (mlp): moe.MLP(
              (base_layer): Qwen2MLP(
                (gate_proj): Linear(in_features=2048, out_features=5504, bias=False)
                (up_proj): Linear(in_features=2048, out_features=5504, bias=False)
                (down_proj): Linear(in_features=5504, out_features=2048, bias=False)
                (act_fn): SiLU()
              )
              (moe_router_embedding): ModuleDict(
                (default): Linear(in_features=2048, out_features=4, bias=False)
              )
              (moe_experts): ModuleDict(
                (default): ModuleList(
                  (0): Qwen2MLP(
                    (gate_proj): Linear(in_features=2048, out_features=5504, bias=False)
                    (up_proj): Linear(in_features=2048, out_features=5504, bias=False)
                    (down_proj): Linear(in_features=5504, out_features=2048, bias=False)
                    (act_fn): SiLU()
                  )
                  (1): Qwen2MLP(
                    (gate_proj): Linear(in_features=2048, out_features=5504, bias=False)
                    (up_proj): Linear(in_features=2048, out_features=5504, bias=False)
                    (down_proj): Linear(in_features=5504, out_features=2048, bias=False)
                    (act_fn): SiLU()
                  )
                  (2): Qwen2MLP(
                    (gate_proj): Linear(in_features=2048, out_features=5504, bias=False)
                    (up_proj): Linear(in_features=2048, out_features=5504, bias=False)
                    (down_proj): Linear(in_features=5504, out_features=2048, bias=False)
                    (act_fn): SiLU()
                  )
                )
              )
            )
            (input_layernorm): Qwen2RMSNorm()
            (post_attention_layernorm): Qwen2RMSNorm()
          )
          (6): Qwen2DecoderLayer(
            (self_attn): Qwen2Attention(
              (q_proj): Linear(in_features=2048, out_features=2048, bias=True)
              (k_proj): Linear(in_features=2048, out_features=2048, bias=True)
              (v_proj): Linear(in_features=2048, out_features=2048, bias=True)
              (o_proj): Linear(in_features=2048, out_features=2048, bias=False)
              (rotary_emb): Qwen2RotaryEmbedding()
            )
            (mlp): moe.MLP(
              (base_layer): Qwen2MLP(
                (gate_proj): Linear(in_features=2048, out_features=5504, bias=False)
                (up_proj): Linear(in_features=2048, out_features=5504, bias=False)
                (down_proj): Linear(in_features=5504, out_features=2048, bias=False)
                (act_fn): SiLU()
              )
              (moe_router_embedding): ModuleDict(
                (default): Linear(in_features=2048, out_features=4, bias=False)
              )
              (moe_experts): ModuleDict(
                (default): ModuleList(
                  (0): Qwen2MLP(
                    (gate_proj): Linear(in_features=2048, out_features=5504, bias=False)
                    (up_proj): Linear(in_features=2048, out_features=5504, bias=False)
                    (down_proj): Linear(in_features=5504, out_features=2048, bias=False)
                    (act_fn): SiLU()
                  )
                  (1): Qwen2MLP(
                    (gate_proj): Linear(in_features=2048, out_features=5504, bias=False)
                    (up_proj): Linear(in_features=2048, out_features=5504, bias=False)
                    (down_proj): Linear(in_features=5504, out_features=2048, bias=False)
                    (act_fn): SiLU()
                  )
                  (2): Qwen2MLP(
                    (gate_proj): Linear(in_features=2048, out_features=5504, bias=False)
                    (up_proj): Linear(in_features=2048, out_features=5504, bias=False)
                    (down_proj): Linear(in_features=5504, out_features=2048, bias=False)
                    (act_fn): SiLU()
                  )
                )
              )
            )
            (input_layernorm): Qwen2RMSNorm()
            (post_attention_layernorm): Qwen2RMSNorm()
          )
          (7): Qwen2DecoderLayer(
            (self_attn): Qwen2Attention(
              (q_proj): Linear(in_features=2048, out_features=2048, bias=True)
              (k_proj): Linear(in_features=2048, out_features=2048, bias=True)
              (v_proj): Linear(in_features=2048, out_features=2048, bias=True)
              (o_proj): Linear(in_features=2048, out_features=2048, bias=False)
              (rotary_emb): Qwen2RotaryEmbedding()
            )
            (mlp): moe.MLP(
              (base_layer): Qwen2MLP(
                (gate_proj): Linear(in_features=2048, out_features=5504, bias=False)
                (up_proj): Linear(in_features=2048, out_features=5504, bias=False)
                (down_proj): Linear(in_features=5504, out_features=2048, bias=False)
                (act_fn): SiLU()
              )
              (moe_router_embedding): ModuleDict(
                (default): Linear(in_features=2048, out_features=4, bias=False)
              )
              (moe_experts): ModuleDict(
                (default): ModuleList(
                  (0): Qwen2MLP(
                    (gate_proj): Linear(in_features=2048, out_features=5504, bias=False)
                    (up_proj): Linear(in_features=2048, out_features=5504, bias=False)
                    (down_proj): Linear(in_features=5504, out_features=2048, bias=False)
                    (act_fn): SiLU()
                  )
                  (1): Qwen2MLP(
                    (gate_proj): Linear(in_features=2048, out_features=5504, bias=False)
                    (up_proj): Linear(in_features=2048, out_features=5504, bias=False)
                    (down_proj): Linear(in_features=5504, out_features=2048, bias=False)
                    (act_fn): SiLU()
                  )
                  (2): Qwen2MLP(
                    (gate_proj): Linear(in_features=2048, out_features=5504, bias=False)
                    (up_proj): Linear(in_features=2048, out_features=5504, bias=False)
                    (down_proj): Linear(in_features=5504, out_features=2048, bias=False)
                    (act_fn): SiLU()
                  )
                )
              )
            )
            (input_layernorm): Qwen2RMSNorm()
            (post_attention_layernorm): Qwen2RMSNorm()
          )
          (8): Qwen2DecoderLayer(
            (self_attn): Qwen2Attention(
              (q_proj): Linear(in_features=2048, out_features=2048, bias=True)
              (k_proj): Linear(in_features=2048, out_features=2048, bias=True)
              (v_proj): Linear(in_features=2048, out_features=2048, bias=True)
              (o_proj): Linear(in_features=2048, out_features=2048, bias=False)
              (rotary_emb): Qwen2RotaryEmbedding()
            )
            (mlp): moe.MLP(
              (base_layer): Qwen2MLP(
                (gate_proj): Linear(in_features=2048, out_features=5504, bias=False)
                (up_proj): Linear(in_features=2048, out_features=5504, bias=False)
                (down_proj): Linear(in_features=5504, out_features=2048, bias=False)
                (act_fn): SiLU()
              )
              (moe_router_embedding): ModuleDict(
                (default): Linear(in_features=2048, out_features=4, bias=False)
              )
              (moe_experts): ModuleDict(
                (default): ModuleList(
                  (0): Qwen2MLP(
                    (gate_proj): Linear(in_features=2048, out_features=5504, bias=False)
                    (up_proj): Linear(in_features=2048, out_features=5504, bias=False)
                    (down_proj): Linear(in_features=5504, out_features=2048, bias=False)
                    (act_fn): SiLU()
                  )
                  (1): Qwen2MLP(
                    (gate_proj): Linear(in_features=2048, out_features=5504, bias=False)
                    (up_proj): Linear(in_features=2048, out_features=5504, bias=False)
                    (down_proj): Linear(in_features=5504, out_features=2048, bias=False)
                    (act_fn): SiLU()
                  )
                  (2): Qwen2MLP(
                    (gate_proj): Linear(in_features=2048, out_features=5504, bias=False)
                    (up_proj): Linear(in_features=2048, out_features=5504, bias=False)
                    (down_proj): Linear(in_features=5504, out_features=2048, bias=False)
                    (act_fn): SiLU()
                  )
                )
              )
            )
            (input_layernorm): Qwen2RMSNorm()
            (post_attention_layernorm): Qwen2RMSNorm()
          )
          (9): Qwen2DecoderLayer(
            (self_attn): Qwen2Attention(
              (q_proj): Linear(in_features=2048, out_features=2048, bias=True)
              (k_proj): Linear(in_features=2048, out_features=2048, bias=True)
              (v_proj): Linear(in_features=2048, out_features=2048, bias=True)
              (o_proj): Linear(in_features=2048, out_features=2048, bias=False)
              (rotary_emb): Qwen2RotaryEmbedding()
            )
            (mlp): moe.MLP(
              (base_layer): Qwen2MLP(
                (gate_proj): Linear(in_features=2048, out_features=5504, bias=False)
                (up_proj): Linear(in_features=2048, out_features=5504, bias=False)
                (down_proj): Linear(in_features=5504, out_features=2048, bias=False)
                (act_fn): SiLU()
              )
              (moe_router_embedding): ModuleDict(
                (default): Linear(in_features=2048, out_features=4, bias=False)
              )
              (moe_experts): ModuleDict(
                (default): ModuleList(
                  (0): Qwen2MLP(
                    (gate_proj): Linear(in_features=2048, out_features=5504, bias=False)
                    (up_proj): Linear(in_features=2048, out_features=5504, bias=False)
                    (down_proj): Linear(in_features=5504, out_features=2048, bias=False)
                    (act_fn): SiLU()
                  )
                  (1): Qwen2MLP(
                    (gate_proj): Linear(in_features=2048, out_features=5504, bias=False)
                    (up_proj): Linear(in_features=2048, out_features=5504, bias=False)
                    (down_proj): Linear(in_features=5504, out_features=2048, bias=False)
                    (act_fn): SiLU()
                  )
                  (2): Qwen2MLP(
                    (gate_proj): Linear(in_features=2048, out_features=5504, bias=False)
                    (up_proj): Linear(in_features=2048, out_features=5504, bias=False)
                    (down_proj): Linear(in_features=5504, out_features=2048, bias=False)
                    (act_fn): SiLU()
                  )
                )
              )
            )
            (input_layernorm): Qwen2RMSNorm()
            (post_attention_layernorm): Qwen2RMSNorm()
          )
          (10): Qwen2DecoderLayer(
            (self_attn): Qwen2Attention(
              (q_proj): Linear(in_features=2048, out_features=2048, bias=True)
              (k_proj): Linear(in_features=2048, out_features=2048, bias=True)
              (v_proj): Linear(in_features=2048, out_features=2048, bias=True)
              (o_proj): Linear(in_features=2048, out_features=2048, bias=False)
              (rotary_emb): Qwen2RotaryEmbedding()
            )
            (mlp): moe.MLP(
              (base_layer): Qwen2MLP(
                (gate_proj): Linear(in_features=2048, out_features=5504, bias=False)
                (up_proj): Linear(in_features=2048, out_features=5504, bias=False)
                (down_proj): Linear(in_features=5504, out_features=2048, bias=False)
                (act_fn): SiLU()
              )
              (moe_router_embedding): ModuleDict(
                (default): Linear(in_features=2048, out_features=4, bias=False)
              )
              (moe_experts): ModuleDict(
                (default): ModuleList(
                  (0): Qwen2MLP(
                    (gate_proj): Linear(in_features=2048, out_features=5504, bias=False)
                    (up_proj): Linear(in_features=2048, out_features=5504, bias=False)
                    (down_proj): Linear(in_features=5504, out_features=2048, bias=False)
                    (act_fn): SiLU()
                  )
                  (1): Qwen2MLP(
                    (gate_proj): Linear(in_features=2048, out_features=5504, bias=False)
                    (up_proj): Linear(in_features=2048, out_features=5504, bias=False)
                    (down_proj): Linear(in_features=5504, out_features=2048, bias=False)
                    (act_fn): SiLU()
                  )
                  (2): Qwen2MLP(
                    (gate_proj): Linear(in_features=2048, out_features=5504, bias=False)
                    (up_proj): Linear(in_features=2048, out_features=5504, bias=False)
                    (down_proj): Linear(in_features=5504, out_features=2048, bias=False)
                    (act_fn): SiLU()
                  )
                )
              )
            )
            (input_layernorm): Qwen2RMSNorm()
            (post_attention_layernorm): Qwen2RMSNorm()
          )
          (11): Qwen2DecoderLayer(
            (self_attn): Qwen2Attention(
              (q_proj): Linear(in_features=2048, out_features=2048, bias=True)
              (k_proj): Linear(in_features=2048, out_features=2048, bias=True)
              (v_proj): Linear(in_features=2048, out_features=2048, bias=True)
              (o_proj): Linear(in_features=2048, out_features=2048, bias=False)
              (rotary_emb): Qwen2RotaryEmbedding()
            )
            (mlp): moe.MLP(
              (base_layer): Qwen2MLP(
                (gate_proj): Linear(in_features=2048, out_features=5504, bias=False)
                (up_proj): Linear(in_features=2048, out_features=5504, bias=False)
                (down_proj): Linear(in_features=5504, out_features=2048, bias=False)
                (act_fn): SiLU()
              )
              (moe_router_embedding): ModuleDict(
                (default): Linear(in_features=2048, out_features=4, bias=False)
              )
              (moe_experts): ModuleDict(
                (default): ModuleList(
                  (0): Qwen2MLP(
                    (gate_proj): Linear(in_features=2048, out_features=5504, bias=False)
                    (up_proj): Linear(in_features=2048, out_features=5504, bias=False)
                    (down_proj): Linear(in_features=5504, out_features=2048, bias=False)
                    (act_fn): SiLU()
                  )
                  (1): Qwen2MLP(
                    (gate_proj): Linear(in_features=2048, out_features=5504, bias=False)
                    (up_proj): Linear(in_features=2048, out_features=5504, bias=False)
                    (down_proj): Linear(in_features=5504, out_features=2048, bias=False)
                    (act_fn): SiLU()
                  )
                  (2): Qwen2MLP(
                    (gate_proj): Linear(in_features=2048, out_features=5504, bias=False)
                    (up_proj): Linear(in_features=2048, out_features=5504, bias=False)
                    (down_proj): Linear(in_features=5504, out_features=2048, bias=False)
                    (act_fn): SiLU()
                  )
                )
              )
            )
            (input_layernorm): Qwen2RMSNorm()
            (post_attention_layernorm): Qwen2RMSNorm()
          )
          (12): Qwen2DecoderLayer(
            (self_attn): Qwen2Attention(
              (q_proj): Linear(in_features=2048, out_features=2048, bias=True)
              (k_proj): Linear(in_features=2048, out_features=2048, bias=True)
              (v_proj): Linear(in_features=2048, out_features=2048, bias=True)
              (o_proj): Linear(in_features=2048, out_features=2048, bias=False)
              (rotary_emb): Qwen2RotaryEmbedding()
            )
            (mlp): moe.MLP(
              (base_layer): Qwen2MLP(
                (gate_proj): Linear(in_features=2048, out_features=5504, bias=False)
                (up_proj): Linear(in_features=2048, out_features=5504, bias=False)
                (down_proj): Linear(in_features=5504, out_features=2048, bias=False)
                (act_fn): SiLU()
              )
              (moe_router_embedding): ModuleDict(
                (default): Linear(in_features=2048, out_features=4, bias=False)
              )
              (moe_experts): ModuleDict(
                (default): ModuleList(
                  (0): Qwen2MLP(
                    (gate_proj): Linear(in_features=2048, out_features=5504, bias=False)
                    (up_proj): Linear(in_features=2048, out_features=5504, bias=False)
                    (down_proj): Linear(in_features=5504, out_features=2048, bias=False)
                    (act_fn): SiLU()
                  )
                  (1): Qwen2MLP(
                    (gate_proj): Linear(in_features=2048, out_features=5504, bias=False)
                    (up_proj): Linear(in_features=2048, out_features=5504, bias=False)
                    (down_proj): Linear(in_features=5504, out_features=2048, bias=False)
                    (act_fn): SiLU()
                  )
                  (2): Qwen2MLP(
                    (gate_proj): Linear(in_features=2048, out_features=5504, bias=False)
                    (up_proj): Linear(in_features=2048, out_features=5504, bias=False)
                    (down_proj): Linear(in_features=5504, out_features=2048, bias=False)
                    (act_fn): SiLU()
                  )
                )
              )
            )
            (input_layernorm): Qwen2RMSNorm()
            (post_attention_layernorm): Qwen2RMSNorm()
          )
          (13): Qwen2DecoderLayer(
            (self_attn): Qwen2Attention(
              (q_proj): Linear(in_features=2048, out_features=2048, bias=True)
              (k_proj): Linear(in_features=2048, out_features=2048, bias=True)
              (v_proj): Linear(in_features=2048, out_features=2048, bias=True)
              (o_proj): Linear(in_features=2048, out_features=2048, bias=False)
              (rotary_emb): Qwen2RotaryEmbedding()
            )
            (mlp): moe.MLP(
              (base_layer): Qwen2MLP(
                (gate_proj): Linear(in_features=2048, out_features=5504, bias=False)
                (up_proj): Linear(in_features=2048, out_features=5504, bias=False)
                (down_proj): Linear(in_features=5504, out_features=2048, bias=False)
                (act_fn): SiLU()
              )
              (moe_router_embedding): ModuleDict(
                (default): Linear(in_features=2048, out_features=4, bias=False)
              )
              (moe_experts): ModuleDict(
                (default): ModuleList(
                  (0): Qwen2MLP(
                    (gate_proj): Linear(in_features=2048, out_features=5504, bias=False)
                    (up_proj): Linear(in_features=2048, out_features=5504, bias=False)
                    (down_proj): Linear(in_features=5504, out_features=2048, bias=False)
                    (act_fn): SiLU()
                  )
                  (1): Qwen2MLP(
                    (gate_proj): Linear(in_features=2048, out_features=5504, bias=False)
                    (up_proj): Linear(in_features=2048, out_features=5504, bias=False)
                    (down_proj): Linear(in_features=5504, out_features=2048, bias=False)
                    (act_fn): SiLU()
                  )
                  (2): Qwen2MLP(
                    (gate_proj): Linear(in_features=2048, out_features=5504, bias=False)
                    (up_proj): Linear(in_features=2048, out_features=5504, bias=False)
                    (down_proj): Linear(in_features=5504, out_features=2048, bias=False)
                    (act_fn): SiLU()
                  )
                )
              )
            )
            (input_layernorm): Qwen2RMSNorm()
            (post_attention_layernorm): Qwen2RMSNorm()
          )
          (14): Qwen2DecoderLayer(
            (self_attn): Qwen2Attention(
              (q_proj): Linear(in_features=2048, out_features=2048, bias=True)
              (k_proj): Linear(in_features=2048, out_features=2048, bias=True)
              (v_proj): Linear(in_features=2048, out_features=2048, bias=True)
              (o_proj): Linear(in_features=2048, out_features=2048, bias=False)
              (rotary_emb): Qwen2RotaryEmbedding()
            )
            (mlp): moe.MLP(
              (base_layer): Qwen2MLP(
                (gate_proj): Linear(in_features=2048, out_features=5504, bias=False)
                (up_proj): Linear(in_features=2048, out_features=5504, bias=False)
                (down_proj): Linear(in_features=5504, out_features=2048, bias=False)
                (act_fn): SiLU()
              )
              (moe_router_embedding): ModuleDict(
                (default): Linear(in_features=2048, out_features=4, bias=False)
              )
              (moe_experts): ModuleDict(
                (default): ModuleList(
                  (0): Qwen2MLP(
                    (gate_proj): Linear(in_features=2048, out_features=5504, bias=False)
                    (up_proj): Linear(in_features=2048, out_features=5504, bias=False)
                    (down_proj): Linear(in_features=5504, out_features=2048, bias=False)
                    (act_fn): SiLU()
                  )
                  (1): Qwen2MLP(
                    (gate_proj): Linear(in_features=2048, out_features=5504, bias=False)
                    (up_proj): Linear(in_features=2048, out_features=5504, bias=False)
                    (down_proj): Linear(in_features=5504, out_features=2048, bias=False)
                    (act_fn): SiLU()
                  )
                  (2): Qwen2MLP(
                    (gate_proj): Linear(in_features=2048, out_features=5504, bias=False)
                    (up_proj): Linear(in_features=2048, out_features=5504, bias=False)
                    (down_proj): Linear(in_features=5504, out_features=2048, bias=False)
                    (act_fn): SiLU()
                  )
                )
              )
            )
            (input_layernorm): Qwen2RMSNorm()
            (post_attention_layernorm): Qwen2RMSNorm()
          )
          (15): Qwen2DecoderLayer(
            (self_attn): Qwen2Attention(
              (q_proj): Linear(in_features=2048, out_features=2048, bias=True)
              (k_proj): Linear(in_features=2048, out_features=2048, bias=True)
              (v_proj): Linear(in_features=2048, out_features=2048, bias=True)
              (o_proj): Linear(in_features=2048, out_features=2048, bias=False)
              (rotary_emb): Qwen2RotaryEmbedding()
            )
            (mlp): moe.MLP(
              (base_layer): Qwen2MLP(
                (gate_proj): Linear(in_features=2048, out_features=5504, bias=False)
                (up_proj): Linear(in_features=2048, out_features=5504, bias=False)
                (down_proj): Linear(in_features=5504, out_features=2048, bias=False)
                (act_fn): SiLU()
              )
              (moe_router_embedding): ModuleDict(
                (default): Linear(in_features=2048, out_features=4, bias=False)
              )
              (moe_experts): ModuleDict(
                (default): ModuleList(
                  (0): Qwen2MLP(
                    (gate_proj): Linear(in_features=2048, out_features=5504, bias=False)
                    (up_proj): Linear(in_features=2048, out_features=5504, bias=False)
                    (down_proj): Linear(in_features=5504, out_features=2048, bias=False)
                    (act_fn): SiLU()
                  )
                  (1): Qwen2MLP(
                    (gate_proj): Linear(in_features=2048, out_features=5504, bias=False)
                    (up_proj): Linear(in_features=2048, out_features=5504, bias=False)
                    (down_proj): Linear(in_features=5504, out_features=2048, bias=False)
                    (act_fn): SiLU()
                  )
                  (2): Qwen2MLP(
                    (gate_proj): Linear(in_features=2048, out_features=5504, bias=False)
                    (up_proj): Linear(in_features=2048, out_features=5504, bias=False)
                    (down_proj): Linear(in_features=5504, out_features=2048, bias=False)
                    (act_fn): SiLU()
                  )
                )
              )
            )
            (input_layernorm): Qwen2RMSNorm()
            (post_attention_layernorm): Qwen2RMSNorm()
          )
          (16): Qwen2DecoderLayer(
            (self_attn): Qwen2Attention(
              (q_proj): Linear(in_features=2048, out_features=2048, bias=True)
              (k_proj): Linear(in_features=2048, out_features=2048, bias=True)
              (v_proj): Linear(in_features=2048, out_features=2048, bias=True)
              (o_proj): Linear(in_features=2048, out_features=2048, bias=False)
              (rotary_emb): Qwen2RotaryEmbedding()
            )
            (mlp): moe.MLP(
              (base_layer): Qwen2MLP(
                (gate_proj): Linear(in_features=2048, out_features=5504, bias=False)
                (up_proj): Linear(in_features=2048, out_features=5504, bias=False)
                (down_proj): Linear(in_features=5504, out_features=2048, bias=False)
                (act_fn): SiLU()
              )
              (moe_router_embedding): ModuleDict(
                (default): Linear(in_features=2048, out_features=4, bias=False)
              )
              (moe_experts): ModuleDict(
                (default): ModuleList(
                  (0): Qwen2MLP(
                    (gate_proj): Linear(in_features=2048, out_features=5504, bias=False)
                    (up_proj): Linear(in_features=2048, out_features=5504, bias=False)
                    (down_proj): Linear(in_features=5504, out_features=2048, bias=False)
                    (act_fn): SiLU()
                  )
                  (1): Qwen2MLP(
                    (gate_proj): Linear(in_features=2048, out_features=5504, bias=False)
                    (up_proj): Linear(in_features=2048, out_features=5504, bias=False)
                    (down_proj): Linear(in_features=5504, out_features=2048, bias=False)
                    (act_fn): SiLU()
                  )
                  (2): Qwen2MLP(
                    (gate_proj): Linear(in_features=2048, out_features=5504, bias=False)
                    (up_proj): Linear(in_features=2048, out_features=5504, bias=False)
                    (down_proj): Linear(in_features=5504, out_features=2048, bias=False)
                    (act_fn): SiLU()
                  )
                )
              )
            )
            (input_layernorm): Qwen2RMSNorm()
            (post_attention_layernorm): Qwen2RMSNorm()
          )
          (17): Qwen2DecoderLayer(
            (self_attn): Qwen2Attention(
              (q_proj): Linear(in_features=2048, out_features=2048, bias=True)
              (k_proj): Linear(in_features=2048, out_features=2048, bias=True)
              (v_proj): Linear(in_features=2048, out_features=2048, bias=True)
              (o_proj): Linear(in_features=2048, out_features=2048, bias=False)
              (rotary_emb): Qwen2RotaryEmbedding()
            )
            (mlp): moe.MLP(
              (base_layer): Qwen2MLP(
                (gate_proj): Linear(in_features=2048, out_features=5504, bias=False)
                (up_proj): Linear(in_features=2048, out_features=5504, bias=False)
                (down_proj): Linear(in_features=5504, out_features=2048, bias=False)
                (act_fn): SiLU()
              )
              (moe_router_embedding): ModuleDict(
                (default): Linear(in_features=2048, out_features=4, bias=False)
              )
              (moe_experts): ModuleDict(
                (default): ModuleList(
                  (0): Qwen2MLP(
                    (gate_proj): Linear(in_features=2048, out_features=5504, bias=False)
                    (up_proj): Linear(in_features=2048, out_features=5504, bias=False)
                    (down_proj): Linear(in_features=5504, out_features=2048, bias=False)
                    (act_fn): SiLU()
                  )
                  (1): Qwen2MLP(
                    (gate_proj): Linear(in_features=2048, out_features=5504, bias=False)
                    (up_proj): Linear(in_features=2048, out_features=5504, bias=False)
                    (down_proj): Linear(in_features=5504, out_features=2048, bias=False)
                    (act_fn): SiLU()
                  )
                  (2): Qwen2MLP(
                    (gate_proj): Linear(in_features=2048, out_features=5504, bias=False)
                    (up_proj): Linear(in_features=2048, out_features=5504, bias=False)
                    (down_proj): Linear(in_features=5504, out_features=2048, bias=False)
                    (act_fn): SiLU()
                  )
                )
              )
            )
            (input_layernorm): Qwen2RMSNorm()
            (post_attention_layernorm): Qwen2RMSNorm()
          )
          (18): Qwen2DecoderLayer(
            (self_attn): Qwen2Attention(
              (q_proj): Linear(in_features=2048, out_features=2048, bias=True)
              (k_proj): Linear(in_features=2048, out_features=2048, bias=True)
              (v_proj): Linear(in_features=2048, out_features=2048, bias=True)
              (o_proj): Linear(in_features=2048, out_features=2048, bias=False)
              (rotary_emb): Qwen2RotaryEmbedding()
            )
            (mlp): moe.MLP(
              (base_layer): Qwen2MLP(
                (gate_proj): Linear(in_features=2048, out_features=5504, bias=False)
                (up_proj): Linear(in_features=2048, out_features=5504, bias=False)
                (down_proj): Linear(in_features=5504, out_features=2048, bias=False)
                (act_fn): SiLU()
              )
              (moe_router_embedding): ModuleDict(
                (default): Linear(in_features=2048, out_features=4, bias=False)
              )
              (moe_experts): ModuleDict(
                (default): ModuleList(
                  (0): Qwen2MLP(
                    (gate_proj): Linear(in_features=2048, out_features=5504, bias=False)
                    (up_proj): Linear(in_features=2048, out_features=5504, bias=False)
                    (down_proj): Linear(in_features=5504, out_features=2048, bias=False)
                    (act_fn): SiLU()
                  )
                  (1): Qwen2MLP(
                    (gate_proj): Linear(in_features=2048, out_features=5504, bias=False)
                    (up_proj): Linear(in_features=2048, out_features=5504, bias=False)
                    (down_proj): Linear(in_features=5504, out_features=2048, bias=False)
                    (act_fn): SiLU()
                  )
                  (2): Qwen2MLP(
                    (gate_proj): Linear(in_features=2048, out_features=5504, bias=False)
                    (up_proj): Linear(in_features=2048, out_features=5504, bias=False)
                    (down_proj): Linear(in_features=5504, out_features=2048, bias=False)
                    (act_fn): SiLU()
                  )
                )
              )
            )
            (input_layernorm): Qwen2RMSNorm()
            (post_attention_layernorm): Qwen2RMSNorm()
          )
          (19): Qwen2DecoderLayer(
            (self_attn): Qwen2Attention(
              (q_proj): Linear(in_features=2048, out_features=2048, bias=True)
              (k_proj): Linear(in_features=2048, out_features=2048, bias=True)
              (v_proj): Linear(in_features=2048, out_features=2048, bias=True)
              (o_proj): Linear(in_features=2048, out_features=2048, bias=False)
              (rotary_emb): Qwen2RotaryEmbedding()
            )
            (mlp): moe.MLP(
              (base_layer): Qwen2MLP(
                (gate_proj): Linear(in_features=2048, out_features=5504, bias=False)
                (up_proj): Linear(in_features=2048, out_features=5504, bias=False)
                (down_proj): Linear(in_features=5504, out_features=2048, bias=False)
                (act_fn): SiLU()
              )
              (moe_router_embedding): ModuleDict(
                (default): Linear(in_features=2048, out_features=4, bias=False)
              )
              (moe_experts): ModuleDict(
                (default): ModuleList(
                  (0): Qwen2MLP(
                    (gate_proj): Linear(in_features=2048, out_features=5504, bias=False)
                    (up_proj): Linear(in_features=2048, out_features=5504, bias=False)
                    (down_proj): Linear(in_features=5504, out_features=2048, bias=False)
                    (act_fn): SiLU()
                  )
                  (1): Qwen2MLP(
                    (gate_proj): Linear(in_features=2048, out_features=5504, bias=False)
                    (up_proj): Linear(in_features=2048, out_features=5504, bias=False)
                    (down_proj): Linear(in_features=5504, out_features=2048, bias=False)
                    (act_fn): SiLU()
                  )
                  (2): Qwen2MLP(
                    (gate_proj): Linear(in_features=2048, out_features=5504, bias=False)
                    (up_proj): Linear(in_features=2048, out_features=5504, bias=False)
                    (down_proj): Linear(in_features=5504, out_features=2048, bias=False)
                    (act_fn): SiLU()
                  )
                )
              )
            )
            (input_layernorm): Qwen2RMSNorm()
            (post_attention_layernorm): Qwen2RMSNorm()
          )
          (20): Qwen2DecoderLayer(
            (self_attn): Qwen2Attention(
              (q_proj): Linear(in_features=2048, out_features=2048, bias=True)
              (k_proj): Linear(in_features=2048, out_features=2048, bias=True)
              (v_proj): Linear(in_features=2048, out_features=2048, bias=True)
              (o_proj): Linear(in_features=2048, out_features=2048, bias=False)
              (rotary_emb): Qwen2RotaryEmbedding()
            )
            (mlp): moe.MLP(
              (base_layer): Qwen2MLP(
                (gate_proj): Linear(in_features=2048, out_features=5504, bias=False)
                (up_proj): Linear(in_features=2048, out_features=5504, bias=False)
                (down_proj): Linear(in_features=5504, out_features=2048, bias=False)
                (act_fn): SiLU()
              )
              (moe_router_embedding): ModuleDict(
                (default): Linear(in_features=2048, out_features=4, bias=False)
              )
              (moe_experts): ModuleDict(
                (default): ModuleList(
                  (0): Qwen2MLP(
                    (gate_proj): Linear(in_features=2048, out_features=5504, bias=False)
                    (up_proj): Linear(in_features=2048, out_features=5504, bias=False)
                    (down_proj): Linear(in_features=5504, out_features=2048, bias=False)
                    (act_fn): SiLU()
                  )
                  (1): Qwen2MLP(
                    (gate_proj): Linear(in_features=2048, out_features=5504, bias=False)
                    (up_proj): Linear(in_features=2048, out_features=5504, bias=False)
                    (down_proj): Linear(in_features=5504, out_features=2048, bias=False)
                    (act_fn): SiLU()
                  )
                  (2): Qwen2MLP(
                    (gate_proj): Linear(in_features=2048, out_features=5504, bias=False)
                    (up_proj): Linear(in_features=2048, out_features=5504, bias=False)
                    (down_proj): Linear(in_features=5504, out_features=2048, bias=False)
                    (act_fn): SiLU()
                  )
                )
              )
            )
            (input_layernorm): Qwen2RMSNorm()
            (post_attention_layernorm): Qwen2RMSNorm()
          )
          (21): Qwen2DecoderLayer(
            (self_attn): Qwen2Attention(
              (q_proj): Linear(in_features=2048, out_features=2048, bias=True)
              (k_proj): Linear(in_features=2048, out_features=2048, bias=True)
              (v_proj): Linear(in_features=2048, out_features=2048, bias=True)
              (o_proj): Linear(in_features=2048, out_features=2048, bias=False)
              (rotary_emb): Qwen2RotaryEmbedding()
            )
            (mlp): moe.MLP(
              (base_layer): Qwen2MLP(
                (gate_proj): Linear(in_features=2048, out_features=5504, bias=False)
                (up_proj): Linear(in_features=2048, out_features=5504, bias=False)
                (down_proj): Linear(in_features=5504, out_features=2048, bias=False)
                (act_fn): SiLU()
              )
              (moe_router_embedding): ModuleDict(
                (default): Linear(in_features=2048, out_features=4, bias=False)
              )
              (moe_experts): ModuleDict(
                (default): ModuleList(
                  (0): Qwen2MLP(
                    (gate_proj): Linear(in_features=2048, out_features=5504, bias=False)
                    (up_proj): Linear(in_features=2048, out_features=5504, bias=False)
                    (down_proj): Linear(in_features=5504, out_features=2048, bias=False)
                    (act_fn): SiLU()
                  )
                  (1): Qwen2MLP(
                    (gate_proj): Linear(in_features=2048, out_features=5504, bias=False)
                    (up_proj): Linear(in_features=2048, out_features=5504, bias=False)
                    (down_proj): Linear(in_features=5504, out_features=2048, bias=False)
                    (act_fn): SiLU()
                  )
                  (2): Qwen2MLP(
                    (gate_proj): Linear(in_features=2048, out_features=5504, bias=False)
                    (up_proj): Linear(in_features=2048, out_features=5504, bias=False)
                    (down_proj): Linear(in_features=5504, out_features=2048, bias=False)
                    (act_fn): SiLU()
                  )
                )
              )
            )
            (input_layernorm): Qwen2RMSNorm()
            (post_attention_layernorm): Qwen2RMSNorm()
          )
          (22): Qwen2DecoderLayer(
            (self_attn): Qwen2Attention(
              (q_proj): Linear(in_features=2048, out_features=2048, bias=True)
              (k_proj): Linear(in_features=2048, out_features=2048, bias=True)
              (v_proj): Linear(in_features=2048, out_features=2048, bias=True)
              (o_proj): Linear(in_features=2048, out_features=2048, bias=False)
              (rotary_emb): Qwen2RotaryEmbedding()
            )
            (mlp): moe.MLP(
              (base_layer): Qwen2MLP(
                (gate_proj): Linear(in_features=2048, out_features=5504, bias=False)
                (up_proj): Linear(in_features=2048, out_features=5504, bias=False)
                (down_proj): Linear(in_features=5504, out_features=2048, bias=False)
                (act_fn): SiLU()
              )
              (moe_router_embedding): ModuleDict(
                (default): Linear(in_features=2048, out_features=4, bias=False)
              )
              (moe_experts): ModuleDict(
                (default): ModuleList(
                  (0): Qwen2MLP(
                    (gate_proj): Linear(in_features=2048, out_features=5504, bias=False)
                    (up_proj): Linear(in_features=2048, out_features=5504, bias=False)
                    (down_proj): Linear(in_features=5504, out_features=2048, bias=False)
                    (act_fn): SiLU()
                  )
                  (1): Qwen2MLP(
                    (gate_proj): Linear(in_features=2048, out_features=5504, bias=False)
                    (up_proj): Linear(in_features=2048, out_features=5504, bias=False)
                    (down_proj): Linear(in_features=5504, out_features=2048, bias=False)
                    (act_fn): SiLU()
                  )
                  (2): Qwen2MLP(
                    (gate_proj): Linear(in_features=2048, out_features=5504, bias=False)
                    (up_proj): Linear(in_features=2048, out_features=5504, bias=False)
                    (down_proj): Linear(in_features=5504, out_features=2048, bias=False)
                    (act_fn): SiLU()
                  )
                )
              )
            )
            (input_layernorm): Qwen2RMSNorm()
            (post_attention_layernorm): Qwen2RMSNorm()
          )
          (23): Qwen2DecoderLayer(
            (self_attn): Qwen2Attention(
              (q_proj): Linear(in_features=2048, out_features=2048, bias=True)
              (k_proj): Linear(in_features=2048, out_features=2048, bias=True)
              (v_proj): Linear(in_features=2048, out_features=2048, bias=True)
              (o_proj): Linear(in_features=2048, out_features=2048, bias=False)
              (rotary_emb): Qwen2RotaryEmbedding()
            )
            (mlp): moe.MLP(
              (base_layer): Qwen2MLP(
                (gate_proj): Linear(in_features=2048, out_features=5504, bias=False)
                (up_proj): Linear(in_features=2048, out_features=5504, bias=False)
                (down_proj): Linear(in_features=5504, out_features=2048, bias=False)
                (act_fn): SiLU()
              )
              (moe_router_embedding): ModuleDict(
                (default): Linear(in_features=2048, out_features=4, bias=False)
              )
              (moe_experts): ModuleDict(
                (default): ModuleList(
                  (0): Qwen2MLP(
                    (gate_proj): Linear(in_features=2048, out_features=5504, bias=False)
                    (up_proj): Linear(in_features=2048, out_features=5504, bias=False)
                    (down_proj): Linear(in_features=5504, out_features=2048, bias=False)
                    (act_fn): SiLU()
                  )
                  (1): Qwen2MLP(
                    (gate_proj): Linear(in_features=2048, out_features=5504, bias=False)
                    (up_proj): Linear(in_features=2048, out_features=5504, bias=False)
                    (down_proj): Linear(in_features=5504, out_features=2048, bias=False)
                    (act_fn): SiLU()
                  )
                  (2): Qwen2MLP(
                    (gate_proj): Linear(in_features=2048, out_features=5504, bias=False)
                    (up_proj): Linear(in_features=2048, out_features=5504, bias=False)
                    (down_proj): Linear(in_features=5504, out_features=2048, bias=False)
                    (act_fn): SiLU()
                  )
                )
              )
            )
            (input_layernorm): Qwen2RMSNorm()
            (post_attention_layernorm): Qwen2RMSNorm()
          )
        )
        (norm): Qwen2RMSNorm()
      )
      (lm_head): Linear(in_features=2048, out_features=151936, bias=False)
    )
  )
)
/home/nfs02/anaconda3/envs/alimoe/lib/python3.10/site-packages/accelerate/accelerator.py:444: FutureWarning: Passing the following arguments to `Accelerator` is deprecated and will be removed in version 1.0 of Accelerate: dict_keys(['dispatch_batches', 'split_batches']). Please pass an `accelerate.DataLoaderConfiguration` instead: 
dataloader_config = DataLoaderConfiguration(dispatch_batches=None, split_batches=False)
…
