…
إستيقظ رؤوف من سباته، وفي هذه المرة كان هذا السبات نتيجة إنهيار دياره على رأسه. تفقد أعضاء جسمه واكتشف أنها على ما يرام، من النظرة الخارجية على الأقل. لم تبتر له ساق أو ذراع، ولا زالت أصابعه كلها موجودة، حتى التي على أقدامه الحافية. كان الخدر منتشر في جميع أنحاء جسمه، يخطو خطو النملة من قمة رأسه إلى نهاية أطراف أصابع قدميه. لحظة أن حاول التحرّك، زال الخدر
Caching indices mapping at /home/wangzj/.cache/huggingface/datasets/json/default-189877435147caf4/0.0.0/c8d2d9508a2a2067ab02cd118834ecef34c3700d143b31835ec4235bf10109f7/cache-e399c5348240740e.arrow
Dataset({
    features: ['input_ids', 'attention_mask', 'langs'],
    num_rows: 216705
})
PeftModelForCausalLM(
  (base_model): MoeModel(
    (model): Qwen2ForCausalLM(
      (model): Qwen2Model(
        (embed_tokens): Embedding(151936, 2048)
        (layers): ModuleList(
          (0): Qwen2DecoderLayer(
            (self_attn): Qwen2Attention(
              (q_proj): Linear(in_features=2048, out_features=2048, bias=True)
              (k_proj): Linear(in_features=2048, out_features=2048, bias=True)
              (v_proj): Linear(in_features=2048, out_features=2048, bias=True)
              (o_proj): Linear(in_features=2048, out_features=2048, bias=False)
              (rotary_emb): Qwen2RotaryEmbedding()
            )
            (mlp): moe.MLP(
              (base_layer): Qwen2MLP(
                (gate_proj): Linear(in_features=2048, out_features=5504, bias=False)
                (up_proj): Linear(in_features=2048, out_features=5504, bias=False)
                (down_proj): Linear(in_features=5504, out_features=2048, bias=False)
                (act_fn): SiLU()
              )
              (moe_router_embedding): ModuleDict(
                (default): Linear(in_features=2048, out_features=2, bias=False)
              )
              (moe_experts): ModuleDict(
                (default): ModuleList(
                  (0): Qwen2MLP(
                    (gate_proj): Linear(in_features=2048, out_features=5504, bias=False)
                    (up_proj): Linear(in_features=2048, out_features=5504, bias=False)
                    (down_proj): Linear(in_features=5504, out_features=2048, bias=False)
                    (act_fn): SiLU()
                  )
                )
              )
            )
            (input_layernorm): Qwen2RMSNorm()
            (post_attention_layernorm): Qwen2RMSNorm()
          )
          (1): Qwen2DecoderLayer(
            (self_attn): Qwen2Attention(
              (q_proj): Linear(in_features=2048, out_features=2048, bias=True)
              (k_proj): Linear(in_features=2048, out_features=2048, bias=True)
              (v_proj): Linear(in_features=2048, out_features=2048, bias=True)
              (o_proj): Linear(in_features=2048, out_features=2048, bias=False)
              (rotary_emb): Qwen2RotaryEmbedding()
            )
            (mlp): moe.MLP(
              (base_layer): Qwen2MLP(
                (gate_proj): Linear(in_features=2048, out_features=5504, bias=False)
                (up_proj): Linear(in_features=2048, out_features=5504, bias=False)
                (down_proj): Linear(in_features=5504, out_features=2048, bias=False)
                (act_fn): SiLU()
              )
              (moe_router_embedding): ModuleDict(
                (default): Linear(in_features=2048, out_features=2, bias=False)
              )
              (moe_experts): ModuleDict(
                (default): ModuleList(
                  (0): Qwen2MLP(
                    (gate_proj): Linear(in_features=2048, out_features=5504, bias=False)
                    (up_proj): Linear(in_features=2048, out_features=5504, bias=False)
                    (down_proj): Linear(in_features=5504, out_features=2048, bias=False)
                    (act_fn): SiLU()
                  )
                )
              )
            )
            (input_layernorm): Qwen2RMSNorm()
            (post_attention_layernorm): Qwen2RMSNorm()
          )
          (2): Qwen2DecoderLayer(
            (self_attn): Qwen2Attention(
              (q_proj): Linear(in_features=2048, out_features=2048, bias=True)
              (k_proj): Linear(in_features=2048, out_features=2048, bias=True)
              (v_proj): Linear(in_features=2048, out_features=2048, bias=True)
              (o_proj): Linear(in_features=2048, out_features=2048, bias=False)
              (rotary_emb): Qwen2RotaryEmbedding()
            )
            (mlp): moe.MLP(
              (base_layer): Qwen2MLP(
                (gate_proj): Linear(in_features=2048, out_features=5504, bias=False)
                (up_proj): Linear(in_features=2048, out_features=5504, bias=False)
                (down_proj): Linear(in_features=5504, out_features=2048, bias=False)
                (act_fn): SiLU()
              )
              (moe_router_embedding): ModuleDict(
                (default): Linear(in_features=2048, out_features=2, bias=False)
              )
              (moe_experts): ModuleDict(
                (default): ModuleList(
                  (0): Qwen2MLP(
                    (gate_proj): Linear(in_features=2048, out_features=5504, bias=False)
                    (up_proj): Linear(in_features=2048, out_features=5504, bias=False)
                    (down_proj): Linear(in_features=5504, out_features=2048, bias=False)
                    (act_fn): SiLU()
                  )
                )
              )
            )
            (input_layernorm): Qwen2RMSNorm()
            (post_attention_layernorm): Qwen2RMSNorm()
          )
          (3): Qwen2DecoderLayer(
            (self_attn): Qwen2Attention(
              (q_proj): Linear(in_features=2048, out_features=2048, bias=True)
              (k_proj): Linear(in_features=2048, out_features=2048, bias=True)
              (v_proj): Linear(in_features=2048, out_features=2048, bias=True)
              (o_proj): Linear(in_features=2048, out_features=2048, bias=False)
              (rotary_emb): Qwen2RotaryEmbedding()
            )
            (mlp): moe.MLP(
              (base_layer): Qwen2MLP(
                (gate_proj): Linear(in_features=2048, out_features=5504, bias=False)
                (up_proj): Linear(in_features=2048, out_features=5504, bias=False)
                (down_proj): Linear(in_features=5504, out_features=2048, bias=False)
                (act_fn): SiLU()
              )
              (moe_router_embedding): ModuleDict(
                (default): Linear(in_features=2048, out_features=2, bias=False)
              )
              (moe_experts): ModuleDict(
                (default): ModuleList(
                  (0): Qwen2MLP(
                    (gate_proj): Linear(in_features=2048, out_features=5504, bias=False)
                    (up_proj): Linear(in_features=2048, out_features=5504, bias=False)
                    (down_proj): Linear(in_features=5504, out_features=2048, bias=False)
                    (act_fn): SiLU()
                  )
                )
              )
            )
            (input_layernorm): Qwen2RMSNorm()
            (post_attention_layernorm): Qwen2RMSNorm()
          )
          (4): Qwen2DecoderLayer(
            (self_attn): Qwen2Attention(
              (q_proj): Linear(in_features=2048, out_features=2048, bias=True)
              (k_proj): Linear(in_features=2048, out_features=2048, bias=True)
              (v_proj): Linear(in_features=2048, out_features=2048, bias=True)
              (o_proj): Linear(in_features=2048, out_features=2048, bias=False)
              (rotary_emb): Qwen2RotaryEmbedding()
            )
            (mlp): moe.MLP(
              (base_layer): Qwen2MLP(
                (gate_proj): Linear(in_features=2048, out_features=5504, bias=False)
                (up_proj): Linear(in_features=2048, out_features=5504, bias=False)
                (down_proj): Linear(in_features=5504, out_features=2048, bias=False)
                (act_fn): SiLU()
              )
              (moe_router_embedding): ModuleDict(
                (default): Linear(in_features=2048, out_features=2, bias=False)
              )
              (moe_experts): ModuleDict(
                (default): ModuleList(
                  (0): Qwen2MLP(
                    (gate_proj): Linear(in_features=2048, out_features=5504, bias=False)
                    (up_proj): Linear(in_features=2048, out_features=5504, bias=False)
                    (down_proj): Linear(in_features=5504, out_features=2048, bias=False)
                    (act_fn): SiLU()
                  )
                )
              )
            )
            (input_layernorm): Qwen2RMSNorm()
            (post_attention_layernorm): Qwen2RMSNorm()
          )
          (5): Qwen2DecoderLayer(
            (self_attn): Qwen2Attention(
              (q_proj): Linear(in_features=2048, out_features=2048, bias=True)
              (k_proj): Linear(in_features=2048, out_features=2048, bias=True)
              (v_proj): Linear(in_features=2048, out_features=2048, bias=True)
              (o_proj): Linear(in_features=2048, out_features=2048, bias=False)
              (rotary_emb): Qwen2RotaryEmbedding()
            )
            (mlp): moe.MLP(
              (base_layer): Qwen2MLP(
                (gate_proj): Linear(in_features=2048, out_features=5504, bias=False)
                (up_proj): Linear(in_features=2048, out_features=5504, bias=False)
                (down_proj): Linear(in_features=5504, out_features=2048, bias=False)
                (act_fn): SiLU()
              )
              (moe_router_embedding): ModuleDict(
                (default): Linear(in_features=2048, out_features=2, bias=False)
              )
              (moe_experts): ModuleDict(
                (default): ModuleList(
                  (0): Qwen2MLP(
                    (gate_proj): Linear(in_features=2048, out_features=5504, bias=False)
                    (up_proj): Linear(in_features=2048, out_features=5504, bias=False)
                    (down_proj): Linear(in_features=5504, out_features=2048, bias=False)
                    (act_fn): SiLU()
                  )
                )
              )
            )
            (input_layernorm): Qwen2RMSNorm()
            (post_attention_layernorm): Qwen2RMSNorm()
          )
          (6): Qwen2DecoderLayer(
            (self_attn): Qwen2Attention(
              (q_proj): Linear(in_features=2048, out_features=2048, bias=True)
              (k_proj): Linear(in_features=2048, out_features=2048, bias=True)
              (v_proj): Linear(in_features=2048, out_features=2048, bias=True)
              (o_proj): Linear(in_features=2048, out_features=2048, bias=False)
              (rotary_emb): Qwen2RotaryEmbedding()
            )
            (mlp): moe.MLP(
              (base_layer): Qwen2MLP(
                (gate_proj): Linear(in_features=2048, out_features=5504, bias=False)
                (up_proj): Linear(in_features=2048, out_features=5504, bias=False)
                (down_proj): Linear(in_features=5504, out_features=2048, bias=False)
                (act_fn): SiLU()
              )
              (moe_router_embedding): ModuleDict(
                (default): Linear(in_features=2048, out_features=2, bias=False)
              )
              (moe_experts): ModuleDict(
                (default): ModuleList(
                  (0): Qwen2MLP(
                    (gate_proj): Linear(in_features=2048, out_features=5504, bias=False)
                    (up_proj): Linear(in_features=2048, out_features=5504, bias=False)
                    (down_proj): Linear(in_features=5504, out_features=2048, bias=False)
                    (act_fn): SiLU()
                  )
                )
              )
            )
            (input_layernorm): Qwen2RMSNorm()
            (post_attention_layernorm): Qwen2RMSNorm()
          )
          (7): Qwen2DecoderLayer(
            (self_attn): Qwen2Attention(
              (q_proj): Linear(in_features=2048, out_features=2048, bias=True)
              (k_proj): Linear(in_features=2048, out_features=2048, bias=True)
              (v_proj): Linear(in_features=2048, out_features=2048, bias=True)
              (o_proj): Linear(in_features=2048, out_features=2048, bias=False)
              (rotary_emb): Qwen2RotaryEmbedding()
            )
            (mlp): moe.MLP(
              (base_layer): Qwen2MLP(
                (gate_proj): Linear(in_features=2048, out_features=5504, bias=False)
                (up_proj): Linear(in_features=2048, out_features=5504, bias=False)
                (down_proj): Linear(in_features=5504, out_features=2048, bias=False)
                (act_fn): SiLU()
              )
              (moe_router_embedding): ModuleDict(
                (default): Linear(in_features=2048, out_features=2, bias=False)
              )
              (moe_experts): ModuleDict(
                (default): ModuleList(
                  (0): Qwen2MLP(
                    (gate_proj): Linear(in_features=2048, out_features=5504, bias=False)
                    (up_proj): Linear(in_features=2048, out_features=5504, bias=False)
                    (down_proj): Linear(in_features=5504, out_features=2048, bias=False)
                    (act_fn): SiLU()
                  )
                )
              )
            )
            (input_layernorm): Qwen2RMSNorm()
            (post_attention_layernorm): Qwen2RMSNorm()
          )
          (8): Qwen2DecoderLayer(
            (self_attn): Qwen2Attention(
              (q_proj): Linear(in_features=2048, out_features=2048, bias=True)
              (k_proj): Linear(in_features=2048, out_features=2048, bias=True)
              (v_proj): Linear(in_features=2048, out_features=2048, bias=True)
              (o_proj): Linear(in_features=2048, out_features=2048, bias=False)
              (rotary_emb): Qwen2RotaryEmbedding()
            )
            (mlp): moe.MLP(
              (base_layer): Qwen2MLP(
                (gate_proj): Linear(in_features=2048, out_features=5504, bias=False)
                (up_proj): Linear(in_features=2048, out_features=5504, bias=False)
                (down_proj): Linear(in_features=5504, out_features=2048, bias=False)
                (act_fn): SiLU()
              )
              (moe_router_embedding): ModuleDict(
                (default): Linear(in_features=2048, out_features=2, bias=False)
              )
              (moe_experts): ModuleDict(
                (default): ModuleList(
                  (0): Qwen2MLP(
                    (gate_proj): Linear(in_features=2048, out_features=5504, bias=False)
                    (up_proj): Linear(in_features=2048, out_features=5504, bias=False)
                    (down_proj): Linear(in_features=5504, out_features=2048, bias=False)
                    (act_fn): SiLU()
                  )
                )
              )
            )
            (input_layernorm): Qwen2RMSNorm()
            (post_attention_layernorm): Qwen2RMSNorm()
          )
          (9): Qwen2DecoderLayer(
            (self_attn): Qwen2Attention(
              (q_proj): Linear(in_features=2048, out_features=2048, bias=True)
              (k_proj): Linear(in_features=2048, out_features=2048, bias=True)
              (v_proj): Linear(in_features=2048, out_features=2048, bias=True)
              (o_proj): Linear(in_features=2048, out_features=2048, bias=False)
              (rotary_emb): Qwen2RotaryEmbedding()
            )
            (mlp): moe.MLP(
              (base_layer): Qwen2MLP(
                (gate_proj): Linear(in_features=2048, out_features=5504, bias=False)
                (up_proj): Linear(in_features=2048, out_features=5504, bias=False)
                (down_proj): Linear(in_features=5504, out_features=2048, bias=False)
                (act_fn): SiLU()
              )
              (moe_router_embedding): ModuleDict(
                (default): Linear(in_features=2048, out_features=2, bias=False)
              )
              (moe_experts): ModuleDict(
                (default): ModuleList(
                  (0): Qwen2MLP(
                    (gate_proj): Linear(in_features=2048, out_features=5504, bias=False)
                    (up_proj): Linear(in_features=2048, out_features=5504, bias=False)
                    (down_proj): Linear(in_features=5504, out_features=2048, bias=False)
                    (act_fn): SiLU()
                  )
                )
              )
            )
            (input_layernorm): Qwen2RMSNorm()
            (post_attention_layernorm): Qwen2RMSNorm()
          )
          (10): Qwen2DecoderLayer(
            (self_attn): Qwen2Attention(
              (q_proj): Linear(in_features=2048, out_features=2048, bias=True)
              (k_proj): Linear(in_features=2048, out_features=2048, bias=True)
              (v_proj): Linear(in_features=2048, out_features=2048, bias=True)
              (o_proj): Linear(in_features=2048, out_features=2048, bias=False)
              (rotary_emb): Qwen2RotaryEmbedding()
            )
            (mlp): moe.MLP(
              (base_layer): Qwen2MLP(
                (gate_proj): Linear(in_features=2048, out_features=5504, bias=False)
                (up_proj): Linear(in_features=2048, out_features=5504, bias=False)
                (down_proj): Linear(in_features=5504, out_features=2048, bias=False)
                (act_fn): SiLU()
              )
              (moe_router_embedding): ModuleDict(
                (default): Linear(in_features=2048, out_features=2, bias=False)
              )
              (moe_experts): ModuleDict(
                (default): ModuleList(
                  (0): Qwen2MLP(
                    (gate_proj): Linear(in_features=2048, out_features=5504, bias=False)
                    (up_proj): Linear(in_features=2048, out_features=5504, bias=False)
                    (down_proj): Linear(in_features=5504, out_features=2048, bias=False)
                    (act_fn): SiLU()
                  )
                )
              )
            )
            (input_layernorm): Qwen2RMSNorm()
            (post_attention_layernorm): Qwen2RMSNorm()
          )
          (11): Qwen2DecoderLayer(
            (self_attn): Qwen2Attention(
              (q_proj): Linear(in_features=2048, out_features=2048, bias=True)
              (k_proj): Linear(in_features=2048, out_features=2048, bias=True)
              (v_proj): Linear(in_features=2048, out_features=2048, bias=True)
              (o_proj): Linear(in_features=2048, out_features=2048, bias=False)
              (rotary_emb): Qwen2RotaryEmbedding()
            )
            (mlp): moe.MLP(
              (base_layer): Qwen2MLP(
                (gate_proj): Linear(in_features=2048, out_features=5504, bias=False)
                (up_proj): Linear(in_features=2048, out_features=5504, bias=False)
                (down_proj): Linear(in_features=5504, out_features=2048, bias=False)
                (act_fn): SiLU()
              )
              (moe_router_embedding): ModuleDict(
                (default): Linear(in_features=2048, out_features=2, bias=False)
              )
              (moe_experts): ModuleDict(
                (default): ModuleList(
                  (0): Qwen2MLP(
                    (gate_proj): Linear(in_features=2048, out_features=5504, bias=False)
                    (up_proj): Linear(in_features=2048, out_features=5504, bias=False)
                    (down_proj): Linear(in_features=5504, out_features=2048, bias=False)
                    (act_fn): SiLU()
                  )
                )
              )
            )
            (input_layernorm): Qwen2RMSNorm()
            (post_attention_layernorm): Qwen2RMSNorm()
          )
          (12): Qwen2DecoderLayer(
            (self_attn): Qwen2Attention(
              (q_proj): Linear(in_features=2048, out_features=2048, bias=True)
              (k_proj): Linear(in_features=2048, out_features=2048, bias=True)
              (v_proj): Linear(in_features=2048, out_features=2048, bias=True)
              (o_proj): Linear(in_features=2048, out_features=2048, bias=False)
              (rotary_emb): Qwen2RotaryEmbedding()
            )
            (mlp): moe.MLP(
              (base_layer): Qwen2MLP(
                (gate_proj): Linear(in_features=2048, out_features=5504, bias=False)
                (up_proj): Linear(in_features=2048, out_features=5504, bias=False)
                (down_proj): Linear(in_features=5504, out_features=2048, bias=False)
                (act_fn): SiLU()
              )
              (moe_router_embedding): ModuleDict(
                (default): Linear(in_features=2048, out_features=2, bias=False)
              )
              (moe_experts): ModuleDict(
                (default): ModuleList(
                  (0): Qwen2MLP(
                    (gate_proj): Linear(in_features=2048, out_features=5504, bias=False)
                    (up_proj): Linear(in_features=2048, out_features=5504, bias=False)
                    (down_proj): Linear(in_features=5504, out_features=2048, bias=False)
                    (act_fn): SiLU()
                  )
                )
              )
            )
            (input_layernorm): Qwen2RMSNorm()
            (post_attention_layernorm): Qwen2RMSNorm()
          )
          (13): Qwen2DecoderLayer(
            (self_attn): Qwen2Attention(
              (q_proj): Linear(in_features=2048, out_features=2048, bias=True)
              (k_proj): Linear(in_features=2048, out_features=2048, bias=True)
              (v_proj): Linear(in_features=2048, out_features=2048, bias=True)
              (o_proj): Linear(in_features=2048, out_features=2048, bias=False)
              (rotary_emb): Qwen2RotaryEmbedding()
            )
            (mlp): moe.MLP(
              (base_layer): Qwen2MLP(
                (gate_proj): Linear(in_features=2048, out_features=5504, bias=False)
                (up_proj): Linear(in_features=2048, out_features=5504, bias=False)
                (down_proj): Linear(in_features=5504, out_features=2048, bias=False)
                (act_fn): SiLU()
              )
              (moe_router_embedding): ModuleDict(
                (default): Linear(in_features=2048, out_features=2, bias=False)
              )
              (moe_experts): ModuleDict(
                (default): ModuleList(
                  (0): Qwen2MLP(
                    (gate_proj): Linear(in_features=2048, out_features=5504, bias=False)
                    (up_proj): Linear(in_features=2048, out_features=5504, bias=False)
                    (down_proj): Linear(in_features=5504, out_features=2048, bias=False)
                    (act_fn): SiLU()
                  )
                )
              )
            )
            (input_layernorm): Qwen2RMSNorm()
            (post_attention_layernorm): Qwen2RMSNorm()
          )
          (14): Qwen2DecoderLayer(
            (self_attn): Qwen2Attention(
              (q_proj): Linear(in_features=2048, out_features=2048, bias=True)
              (k_proj): Linear(in_features=2048, out_features=2048, bias=True)
              (v_proj): Linear(in_features=2048, out_features=2048, bias=True)
              (o_proj): Linear(in_features=2048, out_features=2048, bias=False)
              (rotary_emb): Qwen2RotaryEmbedding()
            )
            (mlp): moe.MLP(
              (base_layer): Qwen2MLP(
                (gate_proj): Linear(in_features=2048, out_features=5504, bias=False)
                (up_proj): Linear(in_features=2048, out_features=5504, bias=False)
                (down_proj): Linear(in_features=5504, out_features=2048, bias=False)
                (act_fn): SiLU()
              )
              (moe_router_embedding): ModuleDict(
                (default): Linear(in_features=2048, out_features=2, bias=False)
              )
              (moe_experts): ModuleDict(
                (default): ModuleList(
                  (0): Qwen2MLP(
                    (gate_proj): Linear(in_features=2048, out_features=5504, bias=False)
                    (up_proj): Linear(in_features=2048, out_features=5504, bias=False)
                    (down_proj): Linear(in_features=5504, out_features=2048, bias=False)
                    (act_fn): SiLU()
                  )
                )
              )
            )
            (input_layernorm): Qwen2RMSNorm()
            (post_attention_layernorm): Qwen2RMSNorm()
          )
          (15): Qwen2DecoderLayer(
            (self_attn): Qwen2Attention(
              (q_proj): Linear(in_features=2048, out_features=2048, bias=True)
              (k_proj): Linear(in_features=2048, out_features=2048, bias=True)
              (v_proj): Linear(in_features=2048, out_features=2048, bias=True)
              (o_proj): Linear(in_features=2048, out_features=2048, bias=False)
              (rotary_emb): Qwen2RotaryEmbedding()
            )
            (mlp): moe.MLP(
              (base_layer): Qwen2MLP(
                (gate_proj): Linear(in_features=2048, out_features=5504, bias=False)
                (up_proj): Linear(in_features=2048, out_features=5504, bias=False)
                (down_proj): Linear(in_features=5504, out_features=2048, bias=False)
                (act_fn): SiLU()
              )
              (moe_router_embedding): ModuleDict(
                (default): Linear(in_features=2048, out_features=2, bias=False)
              )
              (moe_experts): ModuleDict(
                (default): ModuleList(
                  (0): Qwen2MLP(
                    (gate_proj): Linear(in_features=2048, out_features=5504, bias=False)
                    (up_proj): Linear(in_features=2048, out_features=5504, bias=False)
                    (down_proj): Linear(in_features=5504, out_features=2048, bias=False)
                    (act_fn): SiLU()
                  )
                )
              )
            )
            (input_layernorm): Qwen2RMSNorm()
            (post_attention_layernorm): Qwen2RMSNorm()
          )
          (16): Qwen2DecoderLayer(
            (self_attn): Qwen2Attention(
              (q_proj): Linear(in_features=2048, out_features=2048, bias=True)
              (k_proj): Linear(in_features=2048, out_features=2048, bias=True)
              (v_proj): Linear(in_features=2048, out_features=2048, bias=True)
              (o_proj): Linear(in_features=2048, out_features=2048, bias=False)
              (rotary_emb): Qwen2RotaryEmbedding()
            )
            (mlp): moe.MLP(
              (base_layer): Qwen2MLP(
                (gate_proj): Linear(in_features=2048, out_features=5504, bias=False)
                (up_proj): Linear(in_features=2048, out_features=5504, bias=False)
                (down_proj): Linear(in_features=5504, out_features=2048, bias=False)
                (act_fn): SiLU()
              )
              (moe_router_embedding): ModuleDict(
                (default): Linear(in_features=2048, out_features=2, bias=False)
              )
              (moe_experts): ModuleDict(
                (default): ModuleList(
                  (0): Qwen2MLP(
                    (gate_proj): Linear(in_features=2048, out_features=5504, bias=False)
                    (up_proj): Linear(in_features=2048, out_features=5504, bias=False)
                    (down_proj): Linear(in_features=5504, out_features=2048, bias=False)
                    (act_fn): SiLU()
                  )
                )
              )
            )
            (input_layernorm): Qwen2RMSNorm()
            (post_attention_layernorm): Qwen2RMSNorm()
          )
          (17): Qwen2DecoderLayer(
            (self_attn): Qwen2Attention(
              (q_proj): Linear(in_features=2048, out_features=2048, bias=True)
              (k_proj): Linear(in_features=2048, out_features=2048, bias=True)
              (v_proj): Linear(in_features=2048, out_features=2048, bias=True)
              (o_proj): Linear(in_features=2048, out_features=2048, bias=False)
              (rotary_emb): Qwen2RotaryEmbedding()
            )
            (mlp): moe.MLP(
              (base_layer): Qwen2MLP(
                (gate_proj): Linear(in_features=2048, out_features=5504, bias=False)
                (up_proj): Linear(in_features=2048, out_features=5504, bias=False)
                (down_proj): Linear(in_features=5504, out_features=2048, bias=False)
                (act_fn): SiLU()
              )
              (moe_router_embedding): ModuleDict(
                (default): Linear(in_features=2048, out_features=2, bias=False)
              )
              (moe_experts): ModuleDict(
                (default): ModuleList(
                  (0): Qwen2MLP(
                    (gate_proj): Linear(in_features=2048, out_features=5504, bias=False)
                    (up_proj): Linear(in_features=2048, out_features=5504, bias=False)
                    (down_proj): Linear(in_features=5504, out_features=2048, bias=False)
                    (act_fn): SiLU()
                  )
                )
              )
            )
            (input_layernorm): Qwen2RMSNorm()
            (post_attention_layernorm): Qwen2RMSNorm()
          )
          (18): Qwen2DecoderLayer(
            (self_attn): Qwen2Attention(
              (q_proj): Linear(in_features=2048, out_features=2048, bias=True)
              (k_proj): Linear(in_features=2048, out_features=2048, bias=True)
              (v_proj): Linear(in_features=2048, out_features=2048, bias=True)
              (o_proj): Linear(in_features=2048, out_features=2048, bias=False)
              (rotary_emb): Qwen2RotaryEmbedding()
            )
            (mlp): moe.MLP(
              (base_layer): Qwen2MLP(
                (gate_proj): Linear(in_features=2048, out_features=5504, bias=False)
                (up_proj): Linear(in_features=2048, out_features=5504, bias=False)
                (down_proj): Linear(in_features=5504, out_features=2048, bias=False)
                (act_fn): SiLU()
              )
              (moe_router_embedding): ModuleDict(
                (default): Linear(in_features=2048, out_features=2, bias=False)
              )
              (moe_experts): ModuleDict(
                (default): ModuleList(
                  (0): Qwen2MLP(
                    (gate_proj): Linear(in_features=2048, out_features=5504, bias=False)
                    (up_proj): Linear(in_features=2048, out_features=5504, bias=False)
                    (down_proj): Linear(in_features=5504, out_features=2048, bias=False)
                    (act_fn): SiLU()
                  )
                )
              )
            )
            (input_layernorm): Qwen2RMSNorm()
            (post_attention_layernorm): Qwen2RMSNorm()
          )
          (19): Qwen2DecoderLayer(
            (self_attn): Qwen2Attention(
              (q_proj): Linear(in_features=2048, out_features=2048, bias=True)
              (k_proj): Linear(in_features=2048, out_features=2048, bias=True)
              (v_proj): Linear(in_features=2048, out_features=2048, bias=True)
              (o_proj): Linear(in_features=2048, out_features=2048, bias=False)
              (rotary_emb): Qwen2RotaryEmbedding()
            )
            (mlp): moe.MLP(
              (base_layer): Qwen2MLP(
                (gate_proj): Linear(in_features=2048, out_features=5504, bias=False)
                (up_proj): Linear(in_features=2048, out_features=5504, bias=False)
                (down_proj): Linear(in_features=5504, out_features=2048, bias=False)
                (act_fn): SiLU()
              )
              (moe_router_embedding): ModuleDict(
                (default): Linear(in_features=2048, out_features=2, bias=False)
              )
              (moe_experts): ModuleDict(
                (default): ModuleList(
                  (0): Qwen2MLP(
                    (gate_proj): Linear(in_features=2048, out_features=5504, bias=False)
                    (up_proj): Linear(in_features=2048, out_features=5504, bias=False)
                    (down_proj): Linear(in_features=5504, out_features=2048, bias=False)
                    (act_fn): SiLU()
                  )
                )
              )
            )
            (input_layernorm): Qwen2RMSNorm()
            (post_attention_layernorm): Qwen2RMSNorm()
          )
          (20): Qwen2DecoderLayer(
            (self_attn): Qwen2Attention(
              (q_proj): Linear(in_features=2048, out_features=2048, bias=True)
              (k_proj): Linear(in_features=2048, out_features=2048, bias=True)
              (v_proj): Linear(in_features=2048, out_features=2048, bias=True)
              (o_proj): Linear(in_features=2048, out_features=2048, bias=False)
              (rotary_emb): Qwen2RotaryEmbedding()
            )
            (mlp): moe.MLP(
              (base_layer): Qwen2MLP(
                (gate_proj): Linear(in_features=2048, out_features=5504, bias=False)
                (up_proj): Linear(in_features=2048, out_features=5504, bias=False)
                (down_proj): Linear(in_features=5504, out_features=2048, bias=False)
                (act_fn): SiLU()
              )
              (moe_router_embedding): ModuleDict(
                (default): Linear(in_features=2048, out_features=2, bias=False)
              )
              (moe_experts): ModuleDict(
                (default): ModuleList(
                  (0): Qwen2MLP(
                    (gate_proj): Linear(in_features=2048, out_features=5504, bias=False)
                    (up_proj): Linear(in_features=2048, out_features=5504, bias=False)
                    (down_proj): Linear(in_features=5504, out_features=2048, bias=False)
                    (act_fn): SiLU()
                  )
                )
              )
            )
            (input_layernorm): Qwen2RMSNorm()
            (post_attention_layernorm): Qwen2RMSNorm()
          )
          (21): Qwen2DecoderLayer(
            (self_attn): Qwen2Attention(
              (q_proj): Linear(in_features=2048, out_features=2048, bias=True)
              (k_proj): Linear(in_features=2048, out_features=2048, bias=True)
              (v_proj): Linear(in_features=2048, out_features=2048, bias=True)
              (o_proj): Linear(in_features=2048, out_features=2048, bias=False)
              (rotary_emb): Qwen2RotaryEmbedding()
            )
            (mlp): moe.MLP(
              (base_layer): Qwen2MLP(
                (gate_proj): Linear(in_features=2048, out_features=5504, bias=False)
                (up_proj): Linear(in_features=2048, out_features=5504, bias=False)
                (down_proj): Linear(in_features=5504, out_features=2048, bias=False)
                (act_fn): SiLU()
              )
              (moe_router_embedding): ModuleDict(
                (default): Linear(in_features=2048, out_features=2, bias=False)
              )
              (moe_experts): ModuleDict(
                (default): ModuleList(
                  (0): Qwen2MLP(
                    (gate_proj): Linear(in_features=2048, out_features=5504, bias=False)
                    (up_proj): Linear(in_features=2048, out_features=5504, bias=False)
                    (down_proj): Linear(in_features=5504, out_features=2048, bias=False)
                    (act_fn): SiLU()
                  )
                )
              )
            )
            (input_layernorm): Qwen2RMSNorm()
            (post_attention_layernorm): Qwen2RMSNorm()
          )
          (22): Qwen2DecoderLayer(
            (self_attn): Qwen2Attention(
              (q_proj): Linear(in_features=2048, out_features=2048, bias=True)
              (k_proj): Linear(in_features=2048, out_features=2048, bias=True)
              (v_proj): Linear(in_features=2048, out_features=2048, bias=True)
              (o_proj): Linear(in_features=2048, out_features=2048, bias=False)
              (rotary_emb): Qwen2RotaryEmbedding()
            )
            (mlp): moe.MLP(
              (base_layer): Qwen2MLP(
                (gate_proj): Linear(in_features=2048, out_features=5504, bias=False)
                (up_proj): Linear(in_features=2048, out_features=5504, bias=False)
                (down_proj): Linear(in_features=5504, out_features=2048, bias=False)
                (act_fn): SiLU()
              )
              (moe_router_embedding): ModuleDict(
                (default): Linear(in_features=2048, out_features=2, bias=False)
              )
              (moe_experts): ModuleDict(
                (default): ModuleList(
                  (0): Qwen2MLP(
                    (gate_proj): Linear(in_features=2048, out_features=5504, bias=False)
                    (up_proj): Linear(in_features=2048, out_features=5504, bias=False)
                    (down_proj): Linear(in_features=5504, out_features=2048, bias=False)
                    (act_fn): SiLU()
                  )
                )
              )
            )
            (input_layernorm): Qwen2RMSNorm()
            (post_attention_layernorm): Qwen2RMSNorm()
          )
          (23): Qwen2DecoderLayer(
            (self_attn): Qwen2Attention(
              (q_proj): Linear(in_features=2048, out_features=2048, bias=True)
              (k_proj): Linear(in_features=2048, out_features=2048, bias=True)
              (v_proj): Linear(in_features=2048, out_features=2048, bias=True)
              (o_proj): Linear(in_features=2048, out_features=2048, bias=False)
              (rotary_emb): Qwen2RotaryEmbedding()
            )
            (mlp): moe.MLP(
              (base_layer): Qwen2MLP(
                (gate_proj): Linear(in_features=2048, out_features=5504, bias=False)
                (up_proj): Linear(in_features=2048, out_features=5504, bias=False)
                (down_proj): Linear(in_features=5504, out_features=2048, bias=False)
                (act_fn): SiLU()
              )
              (moe_router_embedding): ModuleDict(
                (default): Linear(in_features=2048, out_features=2, bias=False)
              )
              (moe_experts): ModuleDict(
                (default): ModuleList(
                  (0): Qwen2MLP(
                    (gate_proj): Linear(in_features=2048, out_features=5504, bias=False)
                    (up_proj): Linear(in_features=2048, out_features=5504, bias=False)
                    (down_proj): Linear(in_features=5504, out_features=2048, bias=False)
                    (act_fn): SiLU()
                  )
                )
              )
            )
            (input_layernorm): Qwen2RMSNorm()
            (post_attention_layernorm): Qwen2RMSNorm()
          )
        )
        (norm): Qwen2RMSNorm()
      )
      (lm_head): Linear(in_features=2048, out_features=151936, bias=False)
    )
  )
)
Seq2SeqTrainingArguments(
_n_gpu=1,
adafactor=False,
adam_beta1=0.9,
adam_beta2=0.999,
adam_epsilon=1e-08,
auto_find_batch_size=False,
bf16=False,
bf16_full_eval=False,
data_seed=None,
dataloader_drop_last=False,
dataloader_num_workers=0,
dataloader_persistent_workers=False,
dataloader_pin_memory=True,
dataloader_prefetch_factor=None,
ddp_backend=None,
…
