…
arization_func='powsum')
06/09/2024 13:38:21 - INFO - llmtuner.model.loader - trainable params: 811696128 || all params: 2648524800 || trainable%: 30.6471
06/09/2024 13:38:21 - WARNING - llmtuner.data.loader - Loading dataset from disk will ignore other data arguments.
Loading cached shuffled indices for dataset at /home/nfs03/wangzj/dataset/pretrain/arderu6b/cache-32ee8c5574b2e83c.arrow
Dataset({
    features: ['input_ids', 'attention_mask'],
    num_rows: 5872167
})
PeftModelForCausalLM(
  (base_model): MoeModel(
    (model): Qwen2ForCausalLM(
      (model): Qwen2Model(
        (embed_tokens): Embedding(151936, 2048)
        (layers): ModuleList(
          (0): Qwen2DecoderLayer(
            (self_attn): Qwen2Attention(
              (q_proj): Linear(in_features=2048, out_features=2048, bias=True)
              (k_proj): Linear(in_features=2048, out_features=2048, bias=True)
              (v_proj): Linear(in_features=2048, out_features=2048, bias=True)
              (o_proj): Linear(in_features=2048, out_features=2048, bias=False)
              (rotary_emb): Qwen2RotaryEmbedding()
            )
            (mlp): moe.MLP(
              (base_layer): Qwen2MLP(
                (gate_proj): Linear(in_features=2048, out_features=5504, bias=False)
                (up_proj): Linear(in_features=2048, out_features=5504, bias=False)
                (down_proj): Linear(in_features=5504, out_features=2048, bias=False)
                (act_fn): SiLU()
              )
              (moe_router_embedding): ModuleDict(
                (default): Linear(in_features=2048, out_features=2, bias=False)
              )
              (moe_experts): ModuleDict(
                (default): ModuleList(
                  (0): Qwen2MLP(
                    (gate_proj): Linear(in_features=2048, out_features=5504, bias=False)
                    (up_proj): Linear(in_features=2048, out_features=5504, bias=False)
                    (down_proj): Linear(in_features=5504, out_features=2048, bias=False)
                    (act_fn): SiLU()
                  )
                )
              )
            )
            (input_layernorm): Qwen2RMSNorm()
            (post_attention_layernorm): Qwen2RMSNorm()
          )
          (1): Qwen2DecoderLayer(
            (self_attn): Qwen2Attention(
              (q_proj): Linear(in_features=2048, out_features=2048, bias=True)
              (k_proj): Linear(in_features=2048, out_features=2048, bias=True)
              (v_proj): Linear(in_features=2048, out_features=2048, bias=True)
              (o_proj): Linear(in_features=2048, out_features=2048, bias=False)
              (rotary_emb): Qwen2RotaryEmbedding()
            )
            (mlp): moe.MLP(
              (base_layer): Qwen2MLP(
                (gate_proj): Linear(in_features=2048, out_features=5504, bias=False)
                (up_proj): Linear(in_features=2048, out_features=5504, bias=False)
                (down_proj): Linear(in_features=5504, out_features=2048, bias=False)
                (act_fn): SiLU()
              )
              (moe_router_embedding): ModuleDict(
                (default): Linear(in_features=2048, out_features=2, bias=False)
              )
              (moe_experts): ModuleDict(
                (default): ModuleList(
                  (0): Qwen2MLP(
                    (gate_proj): Linear(in_features=2048, out_features=5504, bias=False)
                    (up_proj): Linear(in_features=2048, out_features=5504, bias=False)
                    (down_proj): Linear(in_features=5504, out_features=2048, bias=False)
                    (act_fn): SiLU()
                  )
                )
              )
            )
            (input_layernorm): Qwen2RMSNorm()
            (post_attention_layernorm): Qwen2RMSNorm()
          )
          (2): Qwen2DecoderLayer(
            (self_attn): Qwen2Attention(
              (q_proj): Linear(in_features=2048, out_features=2048, bias=True)
              (k_proj): Linear(in_features=2048, out_features=2048, bias=True)
              (v_proj): Linear(in_features=2048, out_features=2048, bias=True)
              (o_proj): Linear(in_features=2048, out_features=2048, bias=False)
              (rotary_emb): Qwen2RotaryEmbedding()
            )
            (mlp): moe.MLP(
              (base_layer): Qwen2MLP(
                (gate_proj): Linear(in_features=2048, out_features=5504, bias=False)
                (up_proj): Linear(in_features=2048, out_features=5504, bias=False)
                (down_proj): Linear(in_features=5504, out_features=2048, bias=False)
                (act_fn): SiLU()
              )
              (moe_router_embedding): ModuleDict(
                (default): Linear(in_features=2048, out_features=2, bias=False)
              )
              (moe_experts): ModuleDict(
                (default): ModuleList(
                  (0): Qwen2MLP(
                    (gate_proj): Linear(in_features=2048, out_features=5504, bias=False)
                    (up_proj): Linear(in_features=2048, out_features=5504, bias=False)
                    (down_proj): Linear(in_features=5504, out_features=2048, bias=False)
                    (act_fn): SiLU()
                  )
                )
              )
            )
            (input_layernorm): Qwen2RMSNorm()
            (post_attention_layernorm): Qwen2RMSNorm()
          )
          (3): Qwen2DecoderLayer(
            (self_attn): Qwen2Attention(
              (q_proj): Linear(in_features=2048, out_features=2048, bias=True)
              (k_proj): Linear(in_features=2048, out_features=2048, bias=True)
              (v_proj): Linear(in_features=2048, out_features=2048, bias=True)
              (o_proj): Linear(in_features=2048, out_features=2048, bias=False)
              (rotary_emb): Qwen2RotaryEmbedding()
            )
            (mlp): moe.MLP(
              (base_layer): Qwen2MLP(
                (gate_proj): Linear(in_features=2048, out_features=5504, bias=False)
                (up_proj): Linear(in_features=2048, out_features=5504, bias=False)
                (down_proj): Linear(in_features=5504, out_features=2048, bias=False)
                (act_fn): SiLU()
              )
              (moe_router_embedding): ModuleDict(
                (default): Linear(in_features=2048, out_features=2, bias=False)
              )
              (moe_experts): ModuleDict(
                (default): ModuleList(
                  (0): Qwen2MLP(
                    (gate_proj): Linear(in_features=2048, out_features=5504, bias=False)
                    (up_proj): Linear(in_features=2048, out_features=5504, bias=False)
                    (down_proj): Linear(in_features=5504, out_features=2048, bias=False)
                    (act_fn): SiLU()
                  )
                )
              )
            )
            (input_layernorm): Qwen2RMSNorm()
            (post_attention_layernorm): Qwen2RMSNorm()
          )
          (4): Qwen2DecoderLayer(
            (self_attn): Qwen2Attention(
              (q_proj): Linear(in_features=2048, out_features=2048, bias=True)
              (k_proj): Linear(in_features=2048, out_features=2048, bias=True)
              (v_proj): Linear(in_features=2048, out_features=2048, bias=True)
              (o_proj): Linear(in_features=2048, out_features=2048, bias=False)
              (rotary_emb): Qwen2RotaryEmbedding()
            )
            (mlp): moe.MLP(
              (base_layer): Qwen2MLP(
                (gate_proj): Linear(in_features=2048, out_features=5504, bias=False)
                (up_proj): Linear(in_features=2048, out_features=5504, bias=False)
                (down_proj): Linear(in_features=5504, out_features=2048, bias=False)
                (act_fn): SiLU()
              )
              (moe_router_embedding): ModuleDict(
                (default): Linear(in_features=2048, out_features=2, bias=False)
              )
              (moe_experts): ModuleDict(
                (default): ModuleList(
                  (0): Qwen2MLP(
                    (gate_proj): Linear(in_features=2048, out_features=5504, bias=False)
                    (up_proj): Linear(in_features=2048, out_features=5504, bias=False)
                    (down_proj): Linear(in_features=5504, out_features=2048, bias=False)
                    (act_fn): SiLU()
                  )
                )
              )
            )
            (input_layernorm): Qwen2RMSNorm()
            (post_attention_layernorm): Qwen2RMSNorm()
          )
          (5): Qwen2DecoderLayer(
            (self_attn): Qwen2Attention(
              (q_proj): Linear(in_features=2048, out_features=2048, bias=True)
              (k_proj): Linear(in_features=2048, out_features=2048, bias=True)
              (v_proj): Linear(in_features=2048, out_features=2048, bias=True)
              (o_proj): Linear(in_features=2048, out_features=2048, bias=False)
              (rotary_emb): Qwen2RotaryEmbedding()
            )
            (mlp): moe.MLP(
              (base_layer): Qwen2MLP(
                (gate_proj): Linear(in_features=2048, out_features=5504, bias=False)
                (up_proj): Linear(in_features=2048, out_features=5504, bias=False)
                (down_proj): Linear(in_features=5504, out_features=2048, bias=False)
                (act_fn): SiLU()
              )
              (moe_router_embedding): ModuleDict(
                (default): Linear(in_features=2048, out_features=2, bias=False)
              )
              (moe_experts): ModuleDict(
                (default): ModuleList(
                  (0): Qwen2MLP(
                    (gate_proj): Linear(in_features=2048, out_features=5504, bias=False)
                    (up_proj): Linear(in_features=2048, out_features=5504, bias=False)
                    (down_proj): Linear(in_features=5504, out_features=2048, bias=False)
                    (act_fn): SiLU()
                  )
                )
              )
            )
            (input_layernorm): Qwen2RMSNorm()
            (post_attention_layernorm): Qwen2RMSNorm()
          )
          (6): Qwen2DecoderLayer(
            (self_attn): Qwen2Attention(
              (q_proj): Linear(in_features=2048, out_features=2048, bias=True)
              (k_proj): Linear(in_features=2048, out_features=2048, bias=True)
              (v_proj): Linear(in_features=2048, out_features=2048, bias=True)
              (o_proj): Linear(in_features=2048, out_features=2048, bias=False)
              (rotary_emb): Qwen2RotaryEmbedding()
            )
            (mlp): moe.MLP(
              (base_layer): Qwen2MLP(
                (gate_proj): Linear(in_features=2048, out_features=5504, bias=False)
                (up_proj): Linear(in_features=2048, out_features=5504, bias=False)
                (down_proj): Linear(in_features=5504, out_features=2048, bias=False)
                (act_fn): SiLU()
              )
              (moe_router_embedding): ModuleDict(
                (default): Linear(in_features=2048, out_features=2, bias=False)
              )
              (moe_experts): ModuleDict(
                (default): ModuleList(
                  (0): Qwen2MLP(
                    (gate_proj): Linear(in_features=2048, out_features=5504, bias=False)
                    (up_proj): Linear(in_features=2048, out_features=5504, bias=False)
                    (down_proj): Linear(in_features=5504, out_features=2048, bias=False)
                    (act_fn): SiLU()
                  )
                )
              )
            )
            (input_layernorm): Qwen2RMSNorm()
            (post_attention_layernorm): Qwen2RMSNorm()
          )
          (7): Qwen2DecoderLayer(
            (self_attn): Qwen2Attention(
              (q_proj): Linear(in_features=2048, out_features=2048, bias=True)
              (k_proj): Linear(in_features=2048, out_features=2048, bias=True)
              (v_proj): Linear(in_features=2048, out_features=2048, bias=True)
              (o_proj): Linear(in_features=2048, out_features=2048, bias=False)
              (rotary_emb): Qwen2RotaryEmbedding()
            )
            (mlp): moe.MLP(
              (base_layer): Qwen2MLP(
                (gate_proj): Linear(in_features=2048, out_features=5504, bias=False)
                (up_proj): Linear(in_features=2048, out_features=5504, bias=False)
                (down_proj): Linear(in_features=5504, out_features=2048, bias=False)
                (act_fn): SiLU()
              )
              (moe_router_embedding): ModuleDict(
                (default): Linear(in_features=2048, out_features=2, bias=False)
              )
              (moe_experts): ModuleDict(
                (default): ModuleList(
                  (0): Qwen2MLP(
                    (gate_proj): Linear(in_features=2048, out_features=5504, bias=False)
                    (up_proj): Linear(in_features=2048, out_features=5504, bias=False)
                    (down_proj): Linear(in_features=5504, out_features=2048, bias=False)
                    (act_fn): SiLU()
                  )
                )
              )
            )
            (input_layernorm): Qwen2RMSNorm()
            (post_attention_layernorm): Qwen2RMSNorm()
          )
          (8): Qwen2DecoderLayer(
            (self_attn): Qwen2Attention(
              (q_proj): Linear(in_features=2048, out_features=2048, bias=True)
              (k_proj): Linear(in_features=2048, out_features=2048, bias=True)
              (v_proj): Linear(in_features=2048, out_features=2048, bias=True)
              (o_proj): Linear(in_features=2048, out_features=2048, bias=False)
              (rotary_emb): Qwen2RotaryEmbedding()
            )
            (mlp): moe.MLP(
              (base_layer): Qwen2MLP(
                (gate_proj): Linear(in_features=2048, out_features=5504, bias=False)
                (up_proj): Linear(in_features=2048, out_features=5504, bias=False)
                (down_proj): Linear(in_features=5504, out_features=2048, bias=False)
                (act_fn): SiLU()
              )
              (moe_router_embedding): ModuleDict(
                (default): Linear(in_features=2048, out_features=2, bias=False)
              )
              (moe_experts): ModuleDict(
                (default): ModuleList(
                  (0): Qwen2MLP(
                    (gate_proj): Linear(in_features=2048, out_features=5504, bias=False)
                    (up_proj): Linear(in_features=2048, out_features=5504, bias=False)
                    (down_proj): Linear(in_features=5504, out_features=2048, bias=False)
                    (act_fn): SiLU()
                  )
                )
              )
            )
            (input_layernorm): Qwen2RMSNorm()
            (post_attention_layernorm): Qwen2RMSNorm()
          )
          (9): Qwen2DecoderLayer(
            (self_attn): Qwen2Attention(
              (q_proj): Linear(in_features=2048, out_features=2048, bias=True)
              (k_proj): Linear(in_features=2048, out_features=2048, bias=True)
              (v_proj): Linear(in_features=2048, out_features=2048, bias=True)
              (o_proj): Linear(in_features=2048, out_features=2048, bias=False)
              (rotary_emb): Qwen2RotaryEmbedding()
            )
            (mlp): moe.MLP(
              (base_layer): Qwen2MLP(
                (gate_proj): Linear(in_features=2048, out_features=5504, bias=False)
                (up_proj): Linear(in_features=2048, out_features=5504, bias=False)
                (down_proj): Linear(in_features=5504, out_features=2048, bias=False)
                (act_fn): SiLU()
              )
              (moe_router_embedding): ModuleDict(
                (default): Linear(in_features=2048, out_features=2, bias=False)
              )
              (moe_experts): ModuleDict(
                (default): ModuleList(
                  (0): Qwen2MLP(
                    (gate_proj): Linear(in_features=2048, out_features=5504, bias=False)
                    (up_proj): Linear(in_features=2048, out_features=5504, bias=False)
                    (down_proj): Linear(in_features=5504, out_features=2048, bias=False)
                    (act_fn): SiLU()
                  )
                )
              )
            )
            (input_layernorm): Qwen2RMSNorm()
            (post_attention_layernorm): Qwen2RMSNorm()
          )
          (10): Qwen2DecoderLayer(
            (self_attn): Qwen2Attention(
              (q_proj): Linear(in_features=2048, out_features=2048, bias=True)
              (k_proj): Linear(in_features=2048, out_features=2048, bias=True)
              (v_proj): Linear(in_features=2048, out_features=2048, bias=True)
              (o_proj): Linear(in_features=2048, out_features=2048, bias=False)
              (rotary_emb): Qwen2RotaryEmbedding()
            )
            (mlp): moe.MLP(
              (base_layer): Qwen2MLP(
                (gate_proj): Linear(in_features=2048, out_features=5504, bias=False)
                (up_proj): Linear(in_features=2048, out_features=5504, bias=False)
                (down_proj): Linear(in_features=5504, out_features=2048, bias=False)
                (act_fn): SiLU()
              )
              (moe_router_embedding): ModuleDict(
                (default): Linear(in_features=2048, out_features=2, bias=False)
              )
              (moe_experts): ModuleDict(
                (default): ModuleList(
                  (0): Qwen2MLP(
                    (gate_proj): Linear(in_features=2048, out_features=5504, bias=False)
                    (up_proj): Linear(in_features=2048, out_features=5504, bias=False)
                    (down_proj): Linear(in_features=5504, out_features=2048, bias=False)
                    (act_fn): SiLU()
                  )
                )
              )
            )
            (input_layernorm): Qwen2RMSNorm()
            (post_attention_layernorm): Qwen2RMSNorm()
          )
          (11): Qwen2DecoderLayer(
            (self_attn): Qwen2Attention(
              (q_proj): Linear(in_features=2048, out_features=2048, bias=True)
              (k_proj): Linear(in_features=2048, out_features=2048, bias=True)
              (v_proj): Linear(in_features=2048, out_features=2048, bias=True)
              (o_proj): Linear(in_features=2048, out_features=2048, bias=False)
              (rotary_emb): Qwen2RotaryEmbedding()
            )
            (mlp): moe.MLP(
              (base_layer): Qwen2MLP(
                (gate_proj): Linear(in_features=2048, out_features=5504, bias=False)
                (up_proj): Linear(in_features=2048, out_features=5504, bias=False)
                (down_proj): Linear(in_features=5504, out_features=2048, bias=False)
                (act_fn): SiLU()
              )
              (moe_router_embedding): ModuleDict(
                (default): Linear(in_features=2048, out_features=2, bias=False)
              )
              (moe_experts): ModuleDict(
                (default): ModuleList(
                  (0): Qwen2MLP(
                    (gate_proj): Linear(in_features=2048, out_features=5504, bias=False)
                    (up_proj): Linear(in_features=2048, out_features=5504, bias=False)
                    (down_proj): Linear(in_features=5504, out_features=2048, bias=False)
                    (act_fn): SiLU()
                  )
                )
              )
            )
            (input_layernorm): Qwen2RMSNorm()
            (post_attention_layernorm): Qwen2RMSNorm()
          )
          (12): Qwen2DecoderLayer(
            (self_attn): Qwen2Attention(
              (q_proj): Linear(in_features=2048, out_features=2048, bias=True)
              (k_proj): Linear(in_features=2048, out_features=2048, bias=True)
              (v_proj): Linear(in_features=2048, out_features=2048, bias=True)
              (o_proj): Linear(in_features=2048, out_features=2048, bias=False)
              (rotary_emb): Qwen2RotaryEmbedding()
            )
            (mlp): moe.MLP(
              (base_layer): Qwen2MLP(
                (gate_proj): Linear(in_features=2048, out_features=5504, bias=False)
                (up_proj): Linear(in_features=2048, out_features=5504, bias=False)
                (down_proj): Linear(in_features=5504, out_features=2048, bias=False)
                (act_fn): SiLU()
              )
              (moe_router_embedding): ModuleDict(
                (default): Linear(in_features=2048, out_features=2, bias=False)
              )
              (moe_experts): ModuleDict(
                (default): ModuleList(
                  (0): Qwen2MLP(
                    (gate_proj): Linear(in_features=2048, out_features=5504, bias=False)
                    (up_proj): Linear(in_features=2048, out_features=5504, bias=False)
                    (down_proj): Linear(in_features=5504, out_features=2048, bias=False)
                    (act_fn): SiLU()
                  )
                )
              )
            )
            (input_layernorm): Qwen2RMSNorm()
            (post_attention_layernorm): Qwen2RMSNorm()
          )
          (13): Qwen2DecoderLayer(
            (self_attn): Qwen2Attention(
              (q_proj): Linear(in_features=2048, out_features=2048, bias=True)
              (k_proj): Linear(in_features=2048, out_features=2048, bias=True)
              (v_proj): Linear(in_features=2048, out_features=2048, bias=True)
              (o_proj): Linear(in_features=2048, out_features=2048, bias=False)
              (rotary_emb): Qwen2RotaryEmbedding()
            )
            (mlp): moe.MLP(
              (base_layer): Qwen2MLP(
                (gate_proj): Linear(in_features=2048, out_features=5504, bias=False)
                (up_proj): Linear(in_features=2048, out_features=5504, bias=False)
                (down_proj): Linear(in_features=5504, out_features=2048, bias=False)
                (act_fn): SiLU()
              )
              (moe_router_embedding): ModuleDict(
                (default): Linear(in_features=2048, out_features=2, bias=False)
              )
              (moe_experts): ModuleDict(
                (default): ModuleList(
                  (0): Qwen2MLP(
                    (gate_proj): Linear(in_features=2048, out_features=5504, bias=False)
                    (up_proj): Linear(in_features=2048, out_features=5504, bias=False)
                    (down_proj): Linear(in_features=5504, out_features=2048, bias=False)
                    (act_fn): SiLU()
                  )
                )
              )
            )
            (input_layernorm): Qwen2RMSNorm()
            (post_attention_layernorm): Qwen2RMSNorm()
          )
          (14): Qwen2DecoderLayer(
            (self_attn): Qwen2Attention(
              (q_proj): Linear(in_features=2048, out_features=2048, bias=True)
              (k_proj): Linear(in_features=2048, out_features=2048, bias=True)
              (v_proj): Linear(in_features=2048, out_features=2048, bias=True)
              (o_proj): Linear(in_features=2048, out_features=2048, bias=False)
              (rotary_emb): Qwen2RotaryEmbedding()
            )
            (mlp): moe.MLP(
              (base_layer): Qwen2MLP(
                (gate_proj): Linear(in_features=2048, out_features=5504, bias=False)
                (up_proj): Linear(in_features=2048, out_features=5504, bias=False)
                (down_proj): Linear(in_features=5504, out_features=2048, bias=False)
                (act_fn): SiLU()
              )
              (moe_router_embedding): ModuleDict(
                (default): Linear(in_features=2048, out_features=2, bias=False)
              )
              (moe_experts): ModuleDict(
                (default): ModuleList(
                  (0): Qwen2MLP(
                    (gate_proj): Linear(in_features=2048, out_features=5504, bias=False)
                    (up_proj): Linear(in_features=2048, out_features=5504, bias=False)
                    (down_proj): Linear(in_features=5504, out_features=2048, bias=False)
                    (act_fn): SiLU()
                  )
                )
              )
            )
            (input_layernorm): Qwen2RMSNorm()
            (post_attention_layernorm): Qwen2RMSNorm()
          )
          (15): Qwen2DecoderLayer(
            (self_attn): Qwen2Attention(
              (q_proj): Linear(in_features=2048, out_features=2048, bias=True)
              (k_proj): Linear(in_features=2048, out_features=2048, bias=True)
              (v_proj): Linear(in_features=2048, out_features=2048, bias=True)
              (o_proj): Linear(in_features=2048, out_features=2048, bias=False)
              (rotary_emb): Qwen2RotaryEmbedding()
            )
            (mlp): moe.MLP(
              (base_layer): Qwen2MLP(
                (gate_proj): Linear(in_features=2048, out_features=5504, bias=False)
                (up_proj): Linear(in_features=2048, out_features=5504, bias=False)
                (down_proj): Linear(in_features=5504, out_features=2048, bias=False)
                (act_fn): SiLU()
              )
              (moe_router_embedding): ModuleDict(
                (default): Linear(in_features=2048, out_features=2, bias=False)
              )
              (moe_experts): ModuleDict(
                (default): ModuleList(
                  (0): Qwen2MLP(
                    (gate_proj): Linear(in_features=2048, out_features=5504, bias=False)
                    (up_proj): Linear(in_features=2048, out_features=5504, bias=False)
                    (down_proj): Linear(in_features=5504, out_features=2048, bias=False)
                    (act_fn): SiLU()
                  )
                )
              )
            )
            (input_layernorm): Qwen2RMSNorm()
            (post_attention_layernorm): Qwen2RMSNorm()
          )
          (16): Qwen2DecoderLayer(
            (self_attn): Qwen2Attention(
              (q_proj): Linear(in_features=2048, out_features=2048, bias=True)
              (k_proj): Linear(in_features=2048, out_features=2048, bias=True)
              (v_proj): Linear(in_features=2048, out_features=2048, bias=True)
              (o_proj): Linear(in_features=2048, out_features=2048, bias=False)
              (rotary_emb): Qwen2RotaryEmbedding()
            )
            (mlp): moe.MLP(
              (base_layer): Qwen2MLP(
                (gate_proj): Linear(in_features=2048, out_features=5504, bias=False)
                (up_proj): Linear(in_features=2048, out_features=5504, bias=False)
                (down_proj): Linear(in_features=5504, out_features=2048, bias=False)
                (act_fn): SiLU()
              )
              (moe_router_embedding): ModuleDict(
                (default): Linear(in_features=2048, out_features=2, bias=False)
              )
              (moe_experts): ModuleDict(
                (default): ModuleList(
                  (0): Qwen2MLP(
                    (gate_proj): Linear(in_features=2048, out_features=5504, bias=False)
                    (up_proj): Linear(in_features=2048, out_features=5504, bias=False)
                    (down_proj): Linear(in_features=5504, out_features=2048, bias=False)
                    (act_fn): SiLU()
                  )
                )
              )
            )
            (input_layernorm): Qwen2RMSNorm()
            (post_attention_layernorm): Qwen2RMSNorm()
          )
          (17): Qwen2DecoderLayer(
            (self_attn): Qwen2Attention(
              (q_proj): Linear(in_features=2048, out_features=2048, bias=True)
              (k_proj): Linear(in_features=2048, out_features=2048, bias=True)
              (v_proj): Linear(in_features=2048, out_features=2048, bias=True)
              (o_proj): Linear(in_features=2048, out_features=2048, bias=False)
              (rotary_emb): Qwen2RotaryEmbedding()
            )
            (mlp): moe.MLP(
              (base_layer): Qwen2MLP(
                (gate_proj): Linear(in_features=2048, out_features=5504, bias=False)
                (up_proj): Linear(in_features=2048, out_features=5504, bias=False)
                (down_proj): Linear(in_features=5504, out_features=2048, bias=False)
                (act_fn): SiLU()
              )
              (moe_router_embedding): ModuleDict(
                (default): Linear(in_features=2048, out_features=2, bias=False)
              )
              (moe_experts): ModuleDict(
                (default): ModuleList(
                  (0): Qwen2MLP(
                    (gate_proj): Linear(in_features=2048, out_features=5504, bias=False)
                    (up_proj): Linear(in_features=2048, out_features=5504, bias=False)
                    (down_proj): Linear(in_features=5504, out_features=2048, bias=False)
                    (act_fn): SiLU()
                  )
                )
              )
            )
            (input_layernorm): Qwen2RMSNorm()
            (post_attention_layernorm): Qwen2RMSNorm()
          )
          (18): Qwen2DecoderLayer(
            (self_attn): Qwen2Attention(
              (q_proj): Linear(in_features=2048, out_features=2048, bias=True)
              (k_proj): Linear(in_features=2048, out_features=2048, bias=True)
              (v_proj): Linear(in_features=2048, out_features=2048, bias=True)
              (o_proj): Linear(in_features=2048, out_features=2048, bias=False)
              (rotary_emb): Qwen2RotaryEmbedding()
            )
            (mlp): moe.MLP(
              (base_layer): Qwen2MLP(
                (gate_proj): Linear(in_features=2048, out_features=5504, bias=False)
                (up_proj): Linear(in_features=2048, out_features=5504, bias=False)
                (down_proj): Linear(in_features=5504, out_features=2048, bias=False)
                (act_fn): SiLU()
              )
              (moe_router_embedding): ModuleDict(
                (default): Linear(in_features=2048, out_features=2, bias=False)
              )
              (moe_experts): ModuleDict(
                (default): ModuleList(
                  (0): Qwen2MLP(
                    (gate_proj): Linear(in_features=2048, out_features=5504, bias=False)
                    (up_proj): Linear(in_features=2048, out_features=5504, bias=False)
                    (down_proj): Linear(in_features=5504, out_features=2048, bias=False)
                    (act_fn): SiLU()
                  )
                )
              )
            )
            (input_layernorm): Qwen2RMSNorm()
            (post_attention_layernorm): Qwen2RMSNorm()
          )
          (19): Qwen2DecoderLayer(
            (self_attn): Qwen2Attention(
              (q_proj): Linear(in_features=2048, out_features=2048, bias=True)
              (k_proj): Linear(in_features=2048, out_features=2048, bias=True)
              (v_proj): Linear(in_features=2048, out_features=2048, bias=True)
              (o_proj): Linear(in_features=2048, out_features=2048, bias=False)
              (rotary_emb): Qwen2RotaryEmbedding()
            )
            (mlp): moe.MLP(
              (base_layer): Qwen2MLP(
                (gate_proj): Linear(in_features=2048, out_features=5504, bias=False)
                (up_proj): Linear(in_features=2048, out_features=5504, bias=False)
                (down_proj): Linear(in_features=5504, out_features=2048, bias=False)
                (act_fn): SiLU()
              )
              (moe_router_embedding): ModuleDict(
                (default): Linear(in_features=2048, out_features=2, bias=False)
              )
              (moe_experts): ModuleDict(
                (default): ModuleList(
                  (0): Qwen2MLP(
                    (gate_proj): Linear(in_features=2048, out_features=5504, bias=False)
                    (up_proj): Linear(in_features=2048, out_features=5504, bias=False)
                    (down_proj): Linear(in_features=5504, out_features=2048, bias=False)
                    (act_fn): SiLU()
                  )
                )
              )
            )
            (input_layernorm): Qwen2RMSNorm()
            (post_attention_layernorm): Qwen2RMSNorm()
          )
          (20): Qwen2DecoderLayer(
            (self_attn): Qwen2Attention(
              (q_proj): Linear(in_features=2048, out_features=2048, bias=True)
              (k_proj): Linear(in_features=2048, out_features=2048, bias=True)
              (v_proj): Linear(in_features=2048, out_features=2048, bias=True)
              (o_proj): Linear(in_features=2048, out_features=2048, bias=False)
              (rotary_emb): Qwen2RotaryEmbedding()
            )
            (mlp): moe.MLP(
              (base_layer): Qwen2MLP(
                (gate_proj): Linear(in_features=2048, out_features=5504, bias=False)
                (up_proj): Linear(in_features=2048, out_features=5504, bias=False)
                (down_proj): Linear(in_features=5504, out_features=2048, bias=False)
                (act_fn): SiLU()
              )
              (moe_router_embedding): ModuleDict(
                (default): Linear(in_features=2048, out_features=2, bias=False)
              )
              (moe_experts): ModuleDict(
                (default): ModuleList(
                  (0): Qwen2MLP(
                    (gate_proj): Linear(in_features=2048, out_features=5504, bias=False)
                    (up_proj): Linear(in_features=2048, out_features=5504, bias=False)
                    (down_proj): Linear(in_features=5504, out_features=2048, bias=False)
                    (act_fn): SiLU()
                  )
                )
              )
            )
            (input_layernorm): Qwen2RMSNorm()
            (post_attention_layernorm): Qwen2RMSNorm()
          )
          (21): Qwen2DecoderLayer(
            (self_attn): Qwen2Attention(
              (q_proj): Linear(in_features=2048, out_features=2048, bias=True)
              (k_proj): Linear(in_features=2048, out_features=2048, bias=True)
              (v_proj): Linear(in_features=2048, out_features=2048, bias=True)
              (o_proj): Linear(in_features=2048, out_features=2048, bias=False)
              (rotary_emb): Qwen2RotaryEmbedding()
            )
            (mlp): moe.MLP(
              (base_layer): Qwen2MLP(
                (gate_proj): Linear(in_features=2048, out_features=5504, bias=False)
                (up_proj): Linear(in_features=2048, out_features=5504, bias=False)
                (down_proj): Linear(in_features=5504, out_features=2048, bias=False)
                (act_fn): SiLU()
              )
              (moe_router_embedding): ModuleDict(
                (default): Linear(in_features=2048, out_features=2, bias=False)
              )
              (moe_experts): ModuleDict(
                (default): ModuleList(
                  (0): Qwen2MLP(
                    (gate_proj): Linear(in_features=2048, out_features=5504, bias=False)
                    (up_proj): Linear(in_features=2048, out_features=5504, bias=False)
                    (down_proj): Linear(in_features=5504, out_features=2048, bias=False)
                    (act_fn): SiLU()
                  )
                )
              )
            )
            (input_layernorm): Qwen2RMSNorm()
            (post_attention_layernorm): Qwen2RMSNorm()
          )
          (22): Qwen2DecoderLayer(
            (self_attn): Qwen2Attention(
              (q_proj): Linear(in_features=2048, out_features=2048, bias=True)
              (k_proj): Linear(in_features=2048, out_features=2048, bias=True)
              (v_proj): Linear(in_features=2048, out_features=2048, bias=True)
              (o_proj): Linear(in_features=2048, out_features=2048, bias=False)
              (rotary_emb): Qwen2RotaryEmbedding()
            )
            (mlp): moe.MLP(
              (base_layer): Qwen2MLP(
                (gate_proj): Linear(in_features=2048, out_features=5504, bias=False)
                (up_proj): Linear(in_features=2048, out_features=5504, bias=False)
                (down_proj): Linear(in_features=5504, out_features=2048, bias=False)
                (act_fn): SiLU()
              )
              (moe_router_embedding): ModuleDict(
                (default): Linear(in_features=2048, out_features=2, bias=False)
              )
              (moe_experts): ModuleDict(
                (default): ModuleList(
                  (0): Qwen2MLP(
                    (gate_proj): Linear(in_features=2048, out_features=5504, bias=False)
                    (up_proj): Linear(in_features=2048, out_features=5504, bias=False)
                    (down_proj): Linear(in_features=5504, out_features=2048, bias=False)
                    (act_fn): SiLU()
                  )
                )
              )
            )
            (input_layernorm): Qwen2RMSNorm()
            (post_attention_layernorm): Qwen2RMSNorm()
          )
          (23): Qwen2DecoderLayer(
            (self_attn): Qwen2Attention(
              (q_proj): Linear(in_features=2048, out_features=2048, bias=True)
              (k_proj): Linear(in_features=2048, out_features=2048, bias=True)
              (v_proj): Linear(in_features=2048, out_features=2048, bias=True)
              (o_proj): Linear(in_features=2048, out_features=2048, bias=False)
              (rotary_emb): Qwen2RotaryEmbedding()
            )
            (mlp): moe.MLP(
              (base_layer): Qwen2MLP(
                (gate_proj): Linear(in_features=2048, out_features=5504, bias=False)
                (up_proj): Linear(in_features=2048, out_features=5504, bias=False)
                (down_proj): Linear(in_features=5504, out_features=2048, bias=False)
                (act_fn): SiLU()
              )
              (moe_router_embedding): ModuleDict(
                (default): Linear(in_features=2048, out_features=2, bias=False)
              )
              (moe_experts): ModuleDict(
                (default): ModuleList(
                  (0): Qwen2MLP(
                    (gate_proj): Linear(in_features=2048, out_features=5504, bias=False)
                    (up_proj): Linear(in_features=2048, out_features=5504, bias=False)
                    (down_proj): Linear(in_features=5504, out_features=2048, bias=False)
                    (act_fn): SiLU()
                  )
                )
              )
            )
            (input_layernorm): Qwen2RMSNorm()
            (post_attention_layernorm): Qwen2RMSNorm()
          )
        )
        (norm): Qwen2RMSNorm()
      )
      (lm_head): Linear(in_features=2048, out_features=151936, bias=False)
    )
  )
)
Dataset({
    features: ['input_ids', 'attention_mask'],
    num_rows: 5872167
})
Dataset({
    features: ['input_ids', 'attention_mask'],
    num_rows: 5872167
})
[INFO|trainer.py:586] 2024-06-09 13:38:22,134 >> Using auto half precision backend
[2024-06-09 13:38:22,416] [INFO] [logging.py:96:log_dist] [Rank 0] DeepSpeed info: version=0.12.3, git-hash=unknown, git-branch=unknown
…
