…
04/01/2024 13:54:50 - WARNING - llmtuner.data.loader - Loading dataset from disk will ignore other data arguments.
Loading cached shuffled indices for dataset at /home/nfs03/wangzj/dataset/pretrain/llama_zhis_2b/cache-7c5371801f1872ef.arrow
Dataset({
    features: ['input_ids', 'attention_mask'],
    num_rows: 976529
})
Dataset({
    features: ['input_ids', 'attention_mask'],
    num_rows: 976529
})
Dataset({
    features: ['input_ids', 'attention_mask'],
    num_rows: 976529
})
Dataset({
    features: ['input_ids', 'attention_mask'],
    num_rows: 976529
})
PeftModelForCausalLM(
  (base_model): MoeModel(
    (model): LlamaForCausalLM(
      (model): LlamaModel(
        (embed_tokens): Embedding(32000, 4096)
        (layers): ModuleList(
          (0): LlamaDecoderLayer(
            (self_attn): LlamaFlashAttention2(
              (q_proj): Linear(in_features=4096, out_features=4096, bias=False)
              (k_proj): Linear(in_features=4096, out_features=4096, bias=False)
              (v_proj): Linear(in_features=4096, out_features=4096, bias=False)
              (o_proj): Linear(in_features=4096, out_features=4096, bias=False)
              (rotary_emb): LlamaRotaryEmbedding()
            )
            (mlp): moe.MLP(
              (base_layer): LlamaMLP(
                (gate_proj): Linear(in_features=4096, out_features=11008, bias=False)
                (up_proj): Linear(in_features=4096, out_features=11008, bias=False)
                (down_proj): Linear(in_features=11008, out_features=4096, bias=False)
                (act_fn): SiLU()
              )
              (moe_router_embedding): ModuleDict(
                (default): Linear(in_features=4096, out_features=2, bias=False)
              )
              (moe_experts): ModuleDict(
                (default): ModuleList(
                  (0): LlamaMLP(
                    (gate_proj): Linear(in_features=4096, out_features=11008, bias=False)
                    (up_proj): Linear(in_features=4096, out_features=11008, bias=False)
                    (down_proj): Linear(in_features=11008, out_features=4096, bias=False)
                    (act_fn): SiLU()
                  )
                )
              )
            )
            (input_layernorm): LlamaRMSNorm()
            (post_attention_layernorm): LlamaRMSNorm()
          )
          (1): LlamaDecoderLayer(
            (self_attn): LlamaFlashAttention2(
              (q_proj): Linear(in_features=4096, out_features=4096, bias=False)
              (k_proj): Linear(in_features=4096, out_features=4096, bias=False)
              (v_proj): Linear(in_features=4096, out_features=4096, bias=False)
              (o_proj): Linear(in_features=4096, out_features=4096, bias=False)
              (rotary_emb): LlamaRotaryEmbedding()
            )
            (mlp): moe.MLP(
              (base_layer): LlamaMLP(
                (gate_proj): Linear(in_features=4096, out_features=11008, bias=False)
                (up_proj): Linear(in_features=4096, out_features=11008, bias=False)
                (down_proj): Linear(in_features=11008, out_features=4096, bias=False)
                (act_fn): SiLU()
              )
              (moe_router_embedding): ModuleDict(
                (default): Linear(in_features=4096, out_features=2, bias=False)
              )
              (moe_experts): ModuleDict(
                (default): ModuleList(
                  (0): LlamaMLP(
                    (gate_proj): Linear(in_features=4096, out_features=11008, bias=False)
                    (up_proj): Linear(in_features=4096, out_features=11008, bias=False)
                    (down_proj): Linear(in_features=11008, out_features=4096, bias=False)
                    (act_fn): SiLU()
                  )
                )
              )
            )
            (input_layernorm): LlamaRMSNorm()
            (post_attention_layernorm): LlamaRMSNorm()
          )
          (2): LlamaDecoderLayer(
            (self_attn): LlamaFlashAttention2(
              (q_proj): Linear(in_features=4096, out_features=4096, bias=False)
              (k_proj): Linear(in_features=4096, out_features=4096, bias=False)
              (v_proj): Linear(in_features=4096, out_features=4096, bias=False)
              (o_proj): Linear(in_features=4096, out_features=4096, bias=False)
              (rotary_emb): LlamaRotaryEmbedding()
            )
            (mlp): moe.MLP(
              (base_layer): LlamaMLP(
                (gate_proj): Linear(in_features=4096, out_features=11008, bias=False)
                (up_proj): Linear(in_features=4096, out_features=11008, bias=False)
                (down_proj): Linear(in_features=11008, out_features=4096, bias=False)
                (act_fn): SiLU()
              )
              (moe_router_embedding): ModuleDict(
                (default): Linear(in_features=4096, out_features=2, bias=False)
              )
              (moe_experts): ModuleDict(
                (default): ModuleList(
                  (0): LlamaMLP(
                    (gate_proj): Linear(in_features=4096, out_features=11008, bias=False)
                    (up_proj): Linear(in_features=4096, out_features=11008, bias=False)
                    (down_proj): Linear(in_features=11008, out_features=4096, bias=False)
                    (act_fn): SiLU()
                  )
                )
              )
            )
            (input_layernorm): LlamaRMSNorm()
            (post_attention_layernorm): LlamaRMSNorm()
          )
          (3): LlamaDecoderLayer(
            (self_attn): LlamaFlashAttention2(
              (q_proj): Linear(in_features=4096, out_features=4096, bias=False)
              (k_proj): Linear(in_features=4096, out_features=4096, bias=False)
              (v_proj): Linear(in_features=4096, out_features=4096, bias=False)
              (o_proj): Linear(in_features=4096, out_features=4096, bias=False)
              (rotary_emb): LlamaRotaryEmbedding()
            )
            (mlp): moe.MLP(
              (base_layer): LlamaMLP(
                (gate_proj): Linear(in_features=4096, out_features=11008, bias=False)
                (up_proj): Linear(in_features=4096, out_features=11008, bias=False)
                (down_proj): Linear(in_features=11008, out_features=4096, bias=False)
                (act_fn): SiLU()
              )
              (moe_router_embedding): ModuleDict(
                (default): Linear(in_features=4096, out_features=2, bias=False)
              )
              (moe_experts): ModuleDict(
                (default): ModuleList(
                  (0): LlamaMLP(
                    (gate_proj): Linear(in_features=4096, out_features=11008, bias=False)
                    (up_proj): Linear(in_features=4096, out_features=11008, bias=False)
                    (down_proj): Linear(in_features=11008, out_features=4096, bias=False)
                    (act_fn): SiLU()
                  )
                )
              )
            )
            (input_layernorm): LlamaRMSNorm()
            (post_attention_layernorm): LlamaRMSNorm()
          )
          (4): LlamaDecoderLayer(
            (self_attn): LlamaFlashAttention2(
              (q_proj): Linear(in_features=4096, out_features=4096, bias=False)
              (k_proj): Linear(in_features=4096, out_features=4096, bias=False)
              (v_proj): Linear(in_features=4096, out_features=4096, bias=False)
              (o_proj): Linear(in_features=4096, out_features=4096, bias=False)
              (rotary_emb): LlamaRotaryEmbedding()
            )
            (mlp): moe.MLP(
              (base_layer): LlamaMLP(
                (gate_proj): Linear(in_features=4096, out_features=11008, bias=False)
                (up_proj): Linear(in_features=4096, out_features=11008, bias=False)
                (down_proj): Linear(in_features=11008, out_features=4096, bias=False)
                (act_fn): SiLU()
              )
              (moe_router_embedding): ModuleDict(
                (default): Linear(in_features=4096, out_features=2, bias=False)
              )
              (moe_experts): ModuleDict(
                (default): ModuleList(
                  (0): LlamaMLP(
                    (gate_proj): Linear(in_features=4096, out_features=11008, bias=False)
                    (up_proj): Linear(in_features=4096, out_features=11008, bias=False)
                    (down_proj): Linear(in_features=11008, out_features=4096, bias=False)
                    (act_fn): SiLU()
                  )
                )
              )
            )
            (input_layernorm): LlamaRMSNorm()
            (post_attention_layernorm): LlamaRMSNorm()
          )
          (5): LlamaDecoderLayer(
            (self_attn): LlamaFlashAttention2(
              (q_proj): Linear(in_features=4096, out_features=4096, bias=False)
              (k_proj): Linear(in_features=4096, out_features=4096, bias=False)
              (v_proj): Linear(in_features=4096, out_features=4096, bias=False)
              (o_proj): Linear(in_features=4096, out_features=4096, bias=False)
              (rotary_emb): LlamaRotaryEmbedding()
            )
            (mlp): moe.MLP(
              (base_layer): LlamaMLP(
                (gate_proj): Linear(in_features=4096, out_features=11008, bias=False)
                (up_proj): Linear(in_features=4096, out_features=11008, bias=False)
                (down_proj): Linear(in_features=11008, out_features=4096, bias=False)
                (act_fn): SiLU()
              )
              (moe_router_embedding): ModuleDict(
                (default): Linear(in_features=4096, out_features=2, bias=False)
              )
              (moe_experts): ModuleDict(
                (default): ModuleList(
                  (0): LlamaMLP(
                    (gate_proj): Linear(in_features=4096, out_features=11008, bias=False)
                    (up_proj): Linear(in_features=4096, out_features=11008, bias=False)
                    (down_proj): Linear(in_features=11008, out_features=4096, bias=False)
                    (act_fn): SiLU()
                  )
                )
              )
            )
            (input_layernorm): LlamaRMSNorm()
            (post_attention_layernorm): LlamaRMSNorm()
          )
          (6): LlamaDecoderLayer(
            (self_attn): LlamaFlashAttention2(
              (q_proj): Linear(in_features=4096, out_features=4096, bias=False)
              (k_proj): Linear(in_features=4096, out_features=4096, bias=False)
              (v_proj): Linear(in_features=4096, out_features=4096, bias=False)
              (o_proj): Linear(in_features=4096, out_features=4096, bias=False)
              (rotary_emb): LlamaRotaryEmbedding()
            )
            (mlp): moe.MLP(
              (base_layer): LlamaMLP(
                (gate_proj): Linear(in_features=4096, out_features=11008, bias=False)
                (up_proj): Linear(in_features=4096, out_features=11008, bias=False)
                (down_proj): Linear(in_features=11008, out_features=4096, bias=False)
                (act_fn): SiLU()
              )
              (moe_router_embedding): ModuleDict(
                (default): Linear(in_features=4096, out_features=2, bias=False)
              )
              (moe_experts): ModuleDict(
                (default): ModuleList(
                  (0): LlamaMLP(
                    (gate_proj): Linear(in_features=4096, out_features=11008, bias=False)
                    (up_proj): Linear(in_features=4096, out_features=11008, bias=False)
                    (down_proj): Linear(in_features=11008, out_features=4096, bias=False)
                    (act_fn): SiLU()
                  )
                )
              )
            )
            (input_layernorm): LlamaRMSNorm()
            (post_attention_layernorm): LlamaRMSNorm()
          )
          (7): LlamaDecoderLayer(
            (self_attn): LlamaFlashAttention2(
              (q_proj): Linear(in_features=4096, out_features=4096, bias=False)
              (k_proj): Linear(in_features=4096, out_features=4096, bias=False)
              (v_proj): Linear(in_features=4096, out_features=4096, bias=False)
              (o_proj): Linear(in_features=4096, out_features=4096, bias=False)
              (rotary_emb): LlamaRotaryEmbedding()
            )
            (mlp): moe.MLP(
              (base_layer): LlamaMLP(
                (gate_proj): Linear(in_features=4096, out_features=11008, bias=False)
                (up_proj): Linear(in_features=4096, out_features=11008, bias=False)
                (down_proj): Linear(in_features=11008, out_features=4096, bias=False)
                (act_fn): SiLU()
              )
              (moe_router_embedding): ModuleDict(
                (default): Linear(in_features=4096, out_features=2, bias=False)
              )
              (moe_experts): ModuleDict(
                (default): ModuleList(
                  (0): LlamaMLP(
                    (gate_proj): Linear(in_features=4096, out_features=11008, bias=False)
                    (up_proj): Linear(in_features=4096, out_features=11008, bias=False)
                    (down_proj): Linear(in_features=11008, out_features=4096, bias=False)
                    (act_fn): SiLU()
                  )
                )
              )
            )
            (input_layernorm): LlamaRMSNorm()
            (post_attention_layernorm): LlamaRMSNorm()
          )
          (8): LlamaDecoderLayer(
            (self_attn): LlamaFlashAttention2(
              (q_proj): Linear(in_features=4096, out_features=4096, bias=False)
              (k_proj): Linear(in_features=4096, out_features=4096, bias=False)
              (v_proj): Linear(in_features=4096, out_features=4096, bias=False)
              (o_proj): Linear(in_features=4096, out_features=4096, bias=False)
              (rotary_emb): LlamaRotaryEmbedding()
            )
            (mlp): moe.MLP(
              (base_layer): LlamaMLP(
                (gate_proj): Linear(in_features=4096, out_features=11008, bias=False)
                (up_proj): Linear(in_features=4096, out_features=11008, bias=False)
                (down_proj): Linear(in_features=11008, out_features=4096, bias=False)
                (act_fn): SiLU()
              )
              (moe_router_embedding): ModuleDict(
                (default): Linear(in_features=4096, out_features=2, bias=False)
              )
              (moe_experts): ModuleDict(
                (default): ModuleList(
                  (0): LlamaMLP(
                    (gate_proj): Linear(in_features=4096, out_features=11008, bias=False)
                    (up_proj): Linear(in_features=4096, out_features=11008, bias=False)
                    (down_proj): Linear(in_features=11008, out_features=4096, bias=False)
                    (act_fn): SiLU()
                  )
                )
              )
            )
            (input_layernorm): LlamaRMSNorm()
            (post_attention_layernorm): LlamaRMSNorm()
          )
          (9): LlamaDecoderLayer(
            (self_attn): LlamaFlashAttention2(
              (q_proj): Linear(in_features=4096, out_features=4096, bias=False)
              (k_proj): Linear(in_features=4096, out_features=4096, bias=False)
              (v_proj): Linear(in_features=4096, out_features=4096, bias=False)
              (o_proj): Linear(in_features=4096, out_features=4096, bias=False)
              (rotary_emb): LlamaRotaryEmbedding()
            )
            (mlp): moe.MLP(
              (base_layer): LlamaMLP(
                (gate_proj): Linear(in_features=4096, out_features=11008, bias=False)
                (up_proj): Linear(in_features=4096, out_features=11008, bias=False)
                (down_proj): Linear(in_features=11008, out_features=4096, bias=False)
                (act_fn): SiLU()
              )
              (moe_router_embedding): ModuleDict(
                (default): Linear(in_features=4096, out_features=2, bias=False)
              )
              (moe_experts): ModuleDict(
                (default): ModuleList(
                  (0): LlamaMLP(
                    (gate_proj): Linear(in_features=4096, out_features=11008, bias=False)
                    (up_proj): Linear(in_features=4096, out_features=11008, bias=False)
                    (down_proj): Linear(in_features=11008, out_features=4096, bias=False)
                    (act_fn): SiLU()
                  )
                )
              )
            )
            (input_layernorm): LlamaRMSNorm()
            (post_attention_layernorm): LlamaRMSNorm()
          )
          (10): LlamaDecoderLayer(
            (self_attn): LlamaFlashAttention2(
              (q_proj): Linear(in_features=4096, out_features=4096, bias=False)
              (k_proj): Linear(in_features=4096, out_features=4096, bias=False)
              (v_proj): Linear(in_features=4096, out_features=4096, bias=False)
              (o_proj): Linear(in_features=4096, out_features=4096, bias=False)
              (rotary_emb): LlamaRotaryEmbedding()
            )
            (mlp): moe.MLP(
              (base_layer): LlamaMLP(
                (gate_proj): Linear(in_features=4096, out_features=11008, bias=False)
                (up_proj): Linear(in_features=4096, out_features=11008, bias=False)
                (down_proj): Linear(in_features=11008, out_features=4096, bias=False)
                (act_fn): SiLU()
              )
              (moe_router_embedding): ModuleDict(
                (default): Linear(in_features=4096, out_features=2, bias=False)
              )
              (moe_experts): ModuleDict(
                (default): ModuleList(
                  (0): LlamaMLP(
                    (gate_proj): Linear(in_features=4096, out_features=11008, bias=False)
                    (up_proj): Linear(in_features=4096, out_features=11008, bias=False)
                    (down_proj): Linear(in_features=11008, out_features=4096, bias=False)
                    (act_fn): SiLU()
                  )
                )
              )
            )
            (input_layernorm): LlamaRMSNorm()
            (post_attention_layernorm): LlamaRMSNorm()
          )
          (11): LlamaDecoderLayer(
            (self_attn): LlamaFlashAttention2(
              (q_proj): Linear(in_features=4096, out_features=4096, bias=False)
              (k_proj): Linear(in_features=4096, out_features=4096, bias=False)
              (v_proj): Linear(in_features=4096, out_features=4096, bias=False)
              (o_proj): Linear(in_features=4096, out_features=4096, bias=False)
              (rotary_emb): LlamaRotaryEmbedding()
            )
            (mlp): moe.MLP(
              (base_layer): LlamaMLP(
                (gate_proj): Linear(in_features=4096, out_features=11008, bias=False)
                (up_proj): Linear(in_features=4096, out_features=11008, bias=False)
                (down_proj): Linear(in_features=11008, out_features=4096, bias=False)
                (act_fn): SiLU()
              )
              (moe_router_embedding): ModuleDict(
                (default): Linear(in_features=4096, out_features=2, bias=False)
              )
              (moe_experts): ModuleDict(
                (default): ModuleList(
                  (0): LlamaMLP(
                    (gate_proj): Linear(in_features=4096, out_features=11008, bias=False)
                    (up_proj): Linear(in_features=4096, out_features=11008, bias=False)
                    (down_proj): Linear(in_features=11008, out_features=4096, bias=False)
                    (act_fn): SiLU()
                  )
                )
              )
            )
            (input_layernorm): LlamaRMSNorm()
            (post_attention_layernorm): LlamaRMSNorm()
          )
          (12): LlamaDecoderLayer(
            (self_attn): LlamaFlashAttention2(
              (q_proj): Linear(in_features=4096, out_features=4096, bias=False)
              (k_proj): Linear(in_features=4096, out_features=4096, bias=False)
              (v_proj): Linear(in_features=4096, out_features=4096, bias=False)
              (o_proj): Linear(in_features=4096, out_features=4096, bias=False)
              (rotary_emb): LlamaRotaryEmbedding()
            )
            (mlp): moe.MLP(
              (base_layer): LlamaMLP(
                (gate_proj): Linear(in_features=4096, out_features=11008, bias=False)
                (up_proj): Linear(in_features=4096, out_features=11008, bias=False)
                (down_proj): Linear(in_features=11008, out_features=4096, bias=False)
                (act_fn): SiLU()
              )
              (moe_router_embedding): ModuleDict(
                (default): Linear(in_features=4096, out_features=2, bias=False)
              )
              (moe_experts): ModuleDict(
                (default): ModuleList(
                  (0): LlamaMLP(
                    (gate_proj): Linear(in_features=4096, out_features=11008, bias=False)
                    (up_proj): Linear(in_features=4096, out_features=11008, bias=False)
                    (down_proj): Linear(in_features=11008, out_features=4096, bias=False)
                    (act_fn): SiLU()
                  )
                )
              )
            )
            (input_layernorm): LlamaRMSNorm()
            (post_attention_layernorm): LlamaRMSNorm()
          )
          (13): LlamaDecoderLayer(
            (self_attn): LlamaFlashAttention2(
              (q_proj): Linear(in_features=4096, out_features=4096, bias=False)
              (k_proj): Linear(in_features=4096, out_features=4096, bias=False)
              (v_proj): Linear(in_features=4096, out_features=4096, bias=False)
              (o_proj): Linear(in_features=4096, out_features=4096, bias=False)
              (rotary_emb): LlamaRotaryEmbedding()
            )
            (mlp): moe.MLP(
              (base_layer): LlamaMLP(
                (gate_proj): Linear(in_features=4096, out_features=11008, bias=False)
                (up_proj): Linear(in_features=4096, out_features=11008, bias=False)
                (down_proj): Linear(in_features=11008, out_features=4096, bias=False)
                (act_fn): SiLU()
              )
              (moe_router_embedding): ModuleDict(
                (default): Linear(in_features=4096, out_features=2, bias=False)
              )
              (moe_experts): ModuleDict(
                (default): ModuleList(
                  (0): LlamaMLP(
                    (gate_proj): Linear(in_features=4096, out_features=11008, bias=False)
                    (up_proj): Linear(in_features=4096, out_features=11008, bias=False)
                    (down_proj): Linear(in_features=11008, out_features=4096, bias=False)
                    (act_fn): SiLU()
                  )
                )
              )
            )
            (input_layernorm): LlamaRMSNorm()
            (post_attention_layernorm): LlamaRMSNorm()
          )
          (14): LlamaDecoderLayer(
            (self_attn): LlamaFlashAttention2(
              (q_proj): Linear(in_features=4096, out_features=4096, bias=False)
              (k_proj): Linear(in_features=4096, out_features=4096, bias=False)
              (v_proj): Linear(in_features=4096, out_features=4096, bias=False)
              (o_proj): Linear(in_features=4096, out_features=4096, bias=False)
              (rotary_emb): LlamaRotaryEmbedding()
            )
            (mlp): moe.MLP(
              (base_layer): LlamaMLP(
                (gate_proj): Linear(in_features=4096, out_features=11008, bias=False)
                (up_proj): Linear(in_features=4096, out_features=11008, bias=False)
                (down_proj): Linear(in_features=11008, out_features=4096, bias=False)
                (act_fn): SiLU()
              )
              (moe_router_embedding): ModuleDict(
                (default): Linear(in_features=4096, out_features=2, bias=False)
              )
              (moe_experts): ModuleDict(
                (default): ModuleList(
                  (0): LlamaMLP(
                    (gate_proj): Linear(in_features=4096, out_features=11008, bias=False)
                    (up_proj): Linear(in_features=4096, out_features=11008, bias=False)
                    (down_proj): Linear(in_features=11008, out_features=4096, bias=False)
                    (act_fn): SiLU()
                  )
                )
              )
            )
            (input_layernorm): LlamaRMSNorm()
            (post_attention_layernorm): LlamaRMSNorm()
          )
          (15): LlamaDecoderLayer(
            (self_attn): LlamaFlashAttention2(
              (q_proj): Linear(in_features=4096, out_features=4096, bias=False)
              (k_proj): Linear(in_features=4096, out_features=4096, bias=False)
              (v_proj): Linear(in_features=4096, out_features=4096, bias=False)
              (o_proj): Linear(in_features=4096, out_features=4096, bias=False)
              (rotary_emb): LlamaRotaryEmbedding()
            )
            (mlp): moe.MLP(
              (base_layer): LlamaMLP(
                (gate_proj): Linear(in_features=4096, out_features=11008, bias=False)
                (up_proj): Linear(in_features=4096, out_features=11008, bias=False)
                (down_proj): Linear(in_features=11008, out_features=4096, bias=False)
                (act_fn): SiLU()
              )
              (moe_router_embedding): ModuleDict(
                (default): Linear(in_features=4096, out_features=2, bias=False)
              )
              (moe_experts): ModuleDict(
                (default): ModuleList(
                  (0): LlamaMLP(
                    (gate_proj): Linear(in_features=4096, out_features=11008, bias=False)
                    (up_proj): Linear(in_features=4096, out_features=11008, bias=False)
                    (down_proj): Linear(in_features=11008, out_features=4096, bias=False)
                    (act_fn): SiLU()
                  )
                )
              )
            )
            (input_layernorm): LlamaRMSNorm()
            (post_attention_layernorm): LlamaRMSNorm()
          )
          (16): LlamaDecoderLayer(
            (self_attn): LlamaFlashAttention2(
              (q_proj): Linear(in_features=4096, out_features=4096, bias=False)
              (k_proj): Linear(in_features=4096, out_features=4096, bias=False)
              (v_proj): Linear(in_features=4096, out_features=4096, bias=False)
              (o_proj): Linear(in_features=4096, out_features=4096, bias=False)
              (rotary_emb): LlamaRotaryEmbedding()
            )
            (mlp): moe.MLP(
              (base_layer): LlamaMLP(
                (gate_proj): Linear(in_features=4096, out_features=11008, bias=False)
                (up_proj): Linear(in_features=4096, out_features=11008, bias=False)
                (down_proj): Linear(in_features=11008, out_features=4096, bias=False)
                (act_fn): SiLU()
              )
              (moe_router_embedding): ModuleDict(
                (default): Linear(in_features=4096, out_features=2, bias=False)
              )
              (moe_experts): ModuleDict(
                (default): ModuleList(
                  (0): LlamaMLP(
                    (gate_proj): Linear(in_features=4096, out_features=11008, bias=False)
                    (up_proj): Linear(in_features=4096, out_features=11008, bias=False)
                    (down_proj): Linear(in_features=11008, out_features=4096, bias=False)
                    (act_fn): SiLU()
                  )
                )
              )
            )
            (input_layernorm): LlamaRMSNorm()
            (post_attention_layernorm): LlamaRMSNorm()
          )
          (17): LlamaDecoderLayer(
            (self_attn): LlamaFlashAttention2(
              (q_proj): Linear(in_features=4096, out_features=4096, bias=False)
              (k_proj): Linear(in_features=4096, out_features=4096, bias=False)
              (v_proj): Linear(in_features=4096, out_features=4096, bias=False)
              (o_proj): Linear(in_features=4096, out_features=4096, bias=False)
              (rotary_emb): LlamaRotaryEmbedding()
            )
            (mlp): moe.MLP(
              (base_layer): LlamaMLP(
                (gate_proj): Linear(in_features=4096, out_features=11008, bias=False)
                (up_proj): Linear(in_features=4096, out_features=11008, bias=False)
                (down_proj): Linear(in_features=11008, out_features=4096, bias=False)
                (act_fn): SiLU()
              )
              (moe_router_embedding): ModuleDict(
                (default): Linear(in_features=4096, out_features=2, bias=False)
              )
              (moe_experts): ModuleDict(
                (default): ModuleList(
                  (0): LlamaMLP(
                    (gate_proj): Linear(in_features=4096, out_features=11008, bias=False)
                    (up_proj): Linear(in_features=4096, out_features=11008, bias=False)
                    (down_proj): Linear(in_features=11008, out_features=4096, bias=False)
                    (act_fn): SiLU()
                  )
                )
              )
            )
            (input_layernorm): LlamaRMSNorm()
            (post_attention_layernorm): LlamaRMSNorm()
          )
          (18): LlamaDecoderLayer(
            (self_attn): LlamaFlashAttention2(
              (q_proj): Linear(in_features=4096, out_features=4096, bias=False)
              (k_proj): Linear(in_features=4096, out_features=4096, bias=False)
              (v_proj): Linear(in_features=4096, out_features=4096, bias=False)
              (o_proj): Linear(in_features=4096, out_features=4096, bias=False)
              (rotary_emb): LlamaRotaryEmbedding()
            )
            (mlp): moe.MLP(
              (base_layer): LlamaMLP(
                (gate_proj): Linear(in_features=4096, out_features=11008, bias=False)
                (up_proj): Linear(in_features=4096, out_features=11008, bias=False)
                (down_proj): Linear(in_features=11008, out_features=4096, bias=False)
                (act_fn): SiLU()
              )
              (moe_router_embedding): ModuleDict(
                (default): Linear(in_features=4096, out_features=2, bias=False)
              )
              (moe_experts): ModuleDict(
                (default): ModuleList(
                  (0): LlamaMLP(
                    (gate_proj): Linear(in_features=4096, out_features=11008, bias=False)
                    (up_proj): Linear(in_features=4096, out_features=11008, bias=False)
                    (down_proj): Linear(in_features=11008, out_features=4096, bias=False)
                    (act_fn): SiLU()
                  )
                )
              )
            )
            (input_layernorm): LlamaRMSNorm()
            (post_attention_layernorm): LlamaRMSNorm()
          )
          (19): LlamaDecoderLayer(
            (self_attn): LlamaFlashAttention2(
              (q_proj): Linear(in_features=4096, out_features=4096, bias=False)
              (k_proj): Linear(in_features=4096, out_features=4096, bias=False)
              (v_proj): Linear(in_features=4096, out_features=4096, bias=False)
              (o_proj): Linear(in_features=4096, out_features=4096, bias=False)
              (rotary_emb): LlamaRotaryEmbedding()
            )
            (mlp): moe.MLP(
              (base_layer): LlamaMLP(
                (gate_proj): Linear(in_features=4096, out_features=11008, bias=False)
                (up_proj): Linear(in_features=4096, out_features=11008, bias=False)
                (down_proj): Linear(in_features=11008, out_features=4096, bias=False)
                (act_fn): SiLU()
              )
              (moe_router_embedding): ModuleDict(
                (default): Linear(in_features=4096, out_features=2, bias=False)
              )
              (moe_experts): ModuleDict(
                (default): ModuleList(
                  (0): LlamaMLP(
                    (gate_proj): Linear(in_features=4096, out_features=11008, bias=False)
                    (up_proj): Linear(in_features=4096, out_features=11008, bias=False)
                    (down_proj): Linear(in_features=11008, out_features=4096, bias=False)
                    (act_fn): SiLU()
                  )
                )
              )
            )
            (input_layernorm): LlamaRMSNorm()
            (post_attention_layernorm): LlamaRMSNorm()
          )
          (20): LlamaDecoderLayer(
            (self_attn): LlamaFlashAttention2(
              (q_proj): Linear(in_features=4096, out_features=4096, bias=False)
              (k_proj): Linear(in_features=4096, out_features=4096, bias=False)
              (v_proj): Linear(in_features=4096, out_features=4096, bias=False)
              (o_proj): Linear(in_features=4096, out_features=4096, bias=False)
              (rotary_emb): LlamaRotaryEmbedding()
            )
            (mlp): moe.MLP(
              (base_layer): LlamaMLP(
                (gate_proj): Linear(in_features=4096, out_features=11008, bias=False)
                (up_proj): Linear(in_features=4096, out_features=11008, bias=False)
                (down_proj): Linear(in_features=11008, out_features=4096, bias=False)
                (act_fn): SiLU()
              )
              (moe_router_embedding): ModuleDict(
                (default): Linear(in_features=4096, out_features=2, bias=False)
              )
              (moe_experts): ModuleDict(
                (default): ModuleList(
                  (0): LlamaMLP(
                    (gate_proj): Linear(in_features=4096, out_features=11008, bias=False)
                    (up_proj): Linear(in_features=4096, out_features=11008, bias=False)
                    (down_proj): Linear(in_features=11008, out_features=4096, bias=False)
                    (act_fn): SiLU()
                  )
                )
              )
            )
            (input_layernorm): LlamaRMSNorm()
            (post_attention_layernorm): LlamaRMSNorm()
          )
          (21): LlamaDecoderLayer(
            (self_attn): LlamaFlashAttention2(
              (q_proj): Linear(in_features=4096, out_features=4096, bias=False)
              (k_proj): Linear(in_features=4096, out_features=4096, bias=False)
              (v_proj): Linear(in_features=4096, out_features=4096, bias=False)
              (o_proj): Linear(in_features=4096, out_features=4096, bias=False)
              (rotary_emb): LlamaRotaryEmbedding()
            )
            (mlp): moe.MLP(
              (base_layer): LlamaMLP(
                (gate_proj): Linear(in_features=4096, out_features=11008, bias=False)
                (up_proj): Linear(in_features=4096, out_features=11008, bias=False)
                (down_proj): Linear(in_features=11008, out_features=4096, bias=False)
                (act_fn): SiLU()
              )
              (moe_router_embedding): ModuleDict(
                (default): Linear(in_features=4096, out_features=2, bias=False)
              )
              (moe_experts): ModuleDict(
                (default): ModuleList(
                  (0): LlamaMLP(
                    (gate_proj): Linear(in_features=4096, out_features=11008, bias=False)
                    (up_proj): Linear(in_features=4096, out_features=11008, bias=False)
                    (down_proj): Linear(in_features=11008, out_features=4096, bias=False)
                    (act_fn): SiLU()
                  )
                )
              )
            )
            (input_layernorm): LlamaRMSNorm()
            (post_attention_layernorm): LlamaRMSNorm()
          )
          (22): LlamaDecoderLayer(
            (self_attn): LlamaFlashAttention2(
              (q_proj): Linear(in_features=4096, out_features=4096, bias=False)
              (k_proj): Linear(in_features=4096, out_features=4096, bias=False)
              (v_proj): Linear(in_features=4096, out_features=4096, bias=False)
              (o_proj): Linear(in_features=4096, out_features=4096, bias=False)
              (rotary_emb): LlamaRotaryEmbedding()
            )
            (mlp): moe.MLP(
              (base_layer): LlamaMLP(
                (gate_proj): Linear(in_features=4096, out_features=11008, bias=False)
                (up_proj): Linear(in_features=4096, out_features=11008, bias=False)
                (down_proj): Linear(in_features=11008, out_features=4096, bias=False)
                (act_fn): SiLU()
              )
              (moe_router_embedding): ModuleDict(
                (default): Linear(in_features=4096, out_features=2, bias=False)
              )
              (moe_experts): ModuleDict(
                (default): ModuleList(
                  (0): LlamaMLP(
                    (gate_proj): Linear(in_features=4096, out_features=11008, bias=False)
                    (up_proj): Linear(in_features=4096, out_features=11008, bias=False)
                    (down_proj): Linear(in_features=11008, out_features=4096, bias=False)
                    (act_fn): SiLU()
                  )
                )
              )
            )
            (input_layernorm): LlamaRMSNorm()
            (post_attention_layernorm): LlamaRMSNorm()
          )
          (23): LlamaDecoderLayer(
            (self_attn): LlamaFlashAttention2(
              (q_proj): Linear(in_features=4096, out_features=4096, bias=False)
              (k_proj): Linear(in_features=4096, out_features=4096, bias=False)
              (v_proj): Linear(in_features=4096, out_features=4096, bias=False)
              (o_proj): Linear(in_features=4096, out_features=4096, bias=False)
              (rotary_emb): LlamaRotaryEmbedding()
            )
            (mlp): moe.MLP(
              (base_layer): LlamaMLP(
                (gate_proj): Linear(in_features=4096, out_features=11008, bias=False)
                (up_proj): Linear(in_features=4096, out_features=11008, bias=False)
                (down_proj): Linear(in_features=11008, out_features=4096, bias=False)
                (act_fn): SiLU()
              )
              (moe_router_embedding): ModuleDict(
                (default): Linear(in_features=4096, out_features=2, bias=False)
              )
              (moe_experts): ModuleDict(
                (default): ModuleList(
                  (0): LlamaMLP(
                    (gate_proj): Linear(in_features=4096, out_features=11008, bias=False)
                    (up_proj): Linear(in_features=4096, out_features=11008, bias=False)
                    (down_proj): Linear(in_features=11008, out_features=4096, bias=False)
                    (act_fn): SiLU()
                  )
                )
              )
            )
            (input_layernorm): LlamaRMSNorm()
            (post_attention_layernorm): LlamaRMSNorm()
          )
          (24): LlamaDecoderLayer(
            (self_attn): LlamaFlashAttention2(
              (q_proj): Linear(in_features=4096, out_features=4096, bias=False)
              (k_proj): Linear(in_features=4096, out_features=4096, bias=False)
              (v_proj): Linear(in_features=4096, out_features=4096, bias=False)
              (o_proj): Linear(in_features=4096, out_features=4096, bias=False)
              (rotary_emb): LlamaRotaryEmbedding()
            )
            (mlp): moe.MLP(
              (base_layer): LlamaMLP(
                (gate_proj): Linear(in_features=4096, out_features=11008, bias=False)
                (up_proj): Linear(in_features=4096, out_features=11008, bias=False)
                (down_proj): Linear(in_features=11008, out_features=4096, bias=False)
                (act_fn): SiLU()
              )
              (moe_router_embedding): ModuleDict(
                (default): Linear(in_features=4096, out_features=2, bias=False)
              )
              (moe_experts): ModuleDict(
                (default): ModuleList(
                  (0): LlamaMLP(
                    (gate_proj): Linear(in_features=4096, out_features=11008, bias=False)
                    (up_proj): Linear(in_features=4096, out_features=11008, bias=False)
                    (down_proj): Linear(in_features=11008, out_features=4096, bias=False)
                    (act_fn): SiLU()
                  )
                )
              )
            )
            (input_layernorm): LlamaRMSNorm()
            (post_attention_layernorm): LlamaRMSNorm()
          )
          (25): LlamaDecoderLayer(
            (self_attn): LlamaFlashAttention2(
              (q_proj): Linear(in_features=4096, out_features=4096, bias=False)
              (k_proj): Linear(in_features=4096, out_features=4096, bias=False)
              (v_proj): Linear(in_features=4096, out_features=4096, bias=False)
              (o_proj): Linear(in_features=4096, out_features=4096, bias=False)
              (rotary_emb): LlamaRotaryEmbedding()
            )
            (mlp): moe.MLP(
              (base_layer): LlamaMLP(
                (gate_proj): Linear(in_features=4096, out_features=11008, bias=False)
                (up_proj): Linear(in_features=4096, out_features=11008, bias=False)
                (down_proj): Linear(in_features=11008, out_features=4096, bias=False)
                (act_fn): SiLU()
              )
              (moe_router_embedding): ModuleDict(
                (default): Linear(in_features=4096, out_features=2, bias=False)
              )
              (moe_experts): ModuleDict(
                (default): ModuleList(
                  (0): LlamaMLP(
                    (gate_proj): Linear(in_features=4096, out_features=11008, bias=False)
                    (up_proj): Linear(in_features=4096, out_features=11008, bias=False)
                    (down_proj): Linear(in_features=11008, out_features=4096, bias=False)
                    (act_fn): SiLU()
                  )
                )
              )
            )
            (input_layernorm): LlamaRMSNorm()
            (post_attention_layernorm): LlamaRMSNorm()
          )
          (26): LlamaDecoderLayer(
            (self_attn): LlamaFlashAttention2(
              (q_proj): Linear(in_features=4096, out_features=4096, bias=False)
              (k_proj): Linear(in_features=4096, out_features=4096, bias=False)
              (v_proj): Linear(in_features=4096, out_features=4096, bias=False)
              (o_proj): Linear(in_features=4096, out_features=4096, bias=False)
              (rotary_emb): LlamaRotaryEmbedding()
            )
            (mlp): moe.MLP(
              (base_layer): LlamaMLP(
                (gate_proj): Linear(in_features=4096, out_features=11008, bias=False)
                (up_proj): Linear(in_features=4096, out_features=11008, bias=False)
                (down_proj): Linear(in_features=11008, out_features=4096, bias=False)
                (act_fn): SiLU()
              )
              (moe_router_embedding): ModuleDict(
                (default): Linear(in_features=4096, out_features=2, bias=False)
              )
              (moe_experts): ModuleDict(
                (default): ModuleList(
                  (0): LlamaMLP(
                    (gate_proj): Linear(in_features=4096, out_features=11008, bias=False)
                    (up_proj): Linear(in_features=4096, out_features=11008, bias=False)
                    (down_proj): Linear(in_features=11008, out_features=4096, bias=False)
                    (act_fn): SiLU()
                  )
                )
              )
            )
            (input_layernorm): LlamaRMSNorm()
            (post_attention_layernorm): LlamaRMSNorm()
          )
          (27): LlamaDecoderLayer(
            (self_attn): LlamaFlashAttention2(
              (q_proj): Linear(in_features=4096, out_features=4096, bias=False)
              (k_proj): Linear(in_features=4096, out_features=4096, bias=False)
              (v_proj): Linear(in_features=4096, out_features=4096, bias=False)
              (o_proj): Linear(in_features=4096, out_features=4096, bias=False)
              (rotary_emb): LlamaRotaryEmbedding()
            )
            (mlp): moe.MLP(
              (base_layer): LlamaMLP(
                (gate_proj): Linear(in_features=4096, out_features=11008, bias=False)
                (up_proj): Linear(in_features=4096, out_features=11008, bias=False)
                (down_proj): Linear(in_features=11008, out_features=4096, bias=False)
                (act_fn): SiLU()
              )
              (moe_router_embedding): ModuleDict(
                (default): Linear(in_features=4096, out_features=2, bias=False)
              )
              (moe_experts): ModuleDict(
                (default): ModuleList(
                  (0): LlamaMLP(
                    (gate_proj): Linear(in_features=4096, out_features=11008, bias=False)
                    (up_proj): Linear(in_features=4096, out_features=11008, bias=False)
                    (down_proj): Linear(in_features=11008, out_features=4096, bias=False)
                    (act_fn): SiLU()
                  )
                )
              )
            )
            (input_layernorm): LlamaRMSNorm()
            (post_attention_layernorm): LlamaRMSNorm()
          )
          (28): LlamaDecoderLayer(
            (self_attn): LlamaFlashAttention2(
              (q_proj): Linear(in_features=4096, out_features=4096, bias=False)
              (k_proj): Linear(in_features=4096, out_features=4096, bias=False)
              (v_proj): Linear(in_features=4096, out_features=4096, bias=False)
              (o_proj): Linear(in_features=4096, out_features=4096, bias=False)
              (rotary_emb): LlamaRotaryEmbedding()
            )
            (mlp): moe.MLP(
              (base_layer): LlamaMLP(
                (gate_proj): Linear(in_features=4096, out_features=11008, bias=False)
                (up_proj): Linear(in_features=4096, out_features=11008, bias=False)
                (down_proj): Linear(in_features=11008, out_features=4096, bias=False)
                (act_fn): SiLU()
              )
              (moe_router_embedding): ModuleDict(
                (default): Linear(in_features=4096, out_features=2, bias=False)
              )
              (moe_experts): ModuleDict(
                (default): ModuleList(
                  (0): LlamaMLP(
                    (gate_proj): Linear(in_features=4096, out_features=11008, bias=False)
                    (up_proj): Linear(in_features=4096, out_features=11008, bias=False)
                    (down_proj): Linear(in_features=11008, out_features=4096, bias=False)
                    (act_fn): SiLU()
                  )
                )
              )
            )
            (input_layernorm): LlamaRMSNorm()
            (post_attention_layernorm): LlamaRMSNorm()
          )
          (29): LlamaDecoderLayer(
            (self_attn): LlamaFlashAttention2(
              (q_proj): Linear(in_features=4096, out_features=4096, bias=False)
              (k_proj): Linear(in_features=4096, out_features=4096, bias=False)
              (v_proj): Linear(in_features=4096, out_features=4096, bias=False)
              (o_proj): Linear(in_features=4096, out_features=4096, bias=False)
              (rotary_emb): LlamaRotaryEmbedding()
            )
            (mlp): moe.MLP(
              (base_layer): LlamaMLP(
                (gate_proj): Linear(in_features=4096, out_features=11008, bias=False)
                (up_proj): Linear(in_features=4096, out_features=11008, bias=False)
                (down_proj): Linear(in_features=11008, out_features=4096, bias=False)
                (act_fn): SiLU()
              )
              (moe_router_embedding): ModuleDict(
                (default): Linear(in_features=4096, out_features=2, bias=False)
              )
              (moe_experts): ModuleDict(
                (default): ModuleList(
                  (0): LlamaMLP(
                    (gate_proj): Linear(in_features=4096, out_features=11008, bias=False)
                    (up_proj): Linear(in_features=4096, out_features=11008, bias=False)
                    (down_proj): Linear(in_features=11008, out_features=4096, bias=False)
                    (act_fn): SiLU()
                  )
                )
              )
            )
            (input_layernorm): LlamaRMSNorm()
            (post_attention_layernorm): LlamaRMSNorm()
          )
          (30): LlamaDecoderLayer(
            (self_attn): LlamaFlashAttention2(
              (q_proj): Linear(in_features=4096, out_features=4096, bias=False)
              (k_proj): Linear(in_features=4096, out_features=4096, bias=False)
              (v_proj): Linear(in_features=4096, out_features=4096, bias=False)
              (o_proj): Linear(in_features=4096, out_features=4096, bias=False)
              (rotary_emb): LlamaRotaryEmbedding()
            )
            (mlp): moe.MLP(
              (base_layer): LlamaMLP(
                (gate_proj): Linear(in_features=4096, out_features=11008, bias=False)
                (up_proj): Linear(in_features=4096, out_features=11008, bias=False)
                (down_proj): Linear(in_features=11008, out_features=4096, bias=False)
                (act_fn): SiLU()
              )
              (moe_router_embedding): ModuleDict(
                (default): Linear(in_features=4096, out_features=2, bias=False)
              )
              (moe_experts): ModuleDict(
                (default): ModuleList(
                  (0): LlamaMLP(
                    (gate_proj): Linear(in_features=4096, out_features=11008, bias=False)
                    (up_proj): Linear(in_features=4096, out_features=11008, bias=False)
                    (down_proj): Linear(in_features=11008, out_features=4096, bias=False)
                    (act_fn): SiLU()
                  )
                )
              )
            )
            (input_layernorm): LlamaRMSNorm()
            (post_attention_layernorm): LlamaRMSNorm()
          )
          (31): LlamaDecoderLayer(
            (self_attn): LlamaFlashAttention2(
              (q_proj): Linear(in_features=4096, out_features=4096, bias=False)
              (k_proj): Linear(in_features=4096, out_features=4096, bias=False)
              (v_proj): Linear(in_features=4096, out_features=4096, bias=False)
              (o_proj): Linear(in_features=4096, out_features=4096, bias=False)
              (rotary_emb): LlamaRotaryEmbedding()
            )
            (mlp): moe.MLP(
              (base_layer): LlamaMLP(
                (gate_proj): Linear(in_features=4096, out_features=11008, bias=False)
                (up_proj): Linear(in_features=4096, out_features=11008, bias=False)
                (down_proj): Linear(in_features=11008, out_features=4096, bias=False)
                (act_fn): SiLU()
              )
              (moe_router_embedding): ModuleDict(
                (default): Linear(in_features=4096, out_features=2, bias=False)
              )
              (moe_experts): ModuleDict(
                (default): ModuleList(
                  (0): LlamaMLP(
                    (gate_proj): Linear(in_features=4096, out_features=11008, bias=False)
                    (up_proj): Linear(in_features=4096, out_features=11008, bias=False)
                    (down_proj): Linear(in_features=11008, out_features=4096, bias=False)
                    (act_fn): SiLU()
                  )
                )
              )
            )
            (input_layernorm): LlamaRMSNorm()
            (post_attention_layernorm): LlamaRMSNorm()
          )
        )
        (norm): LlamaRMSNorm()
      )
      (lm_head): Linear(in_features=4096, out_features=32000, bias=False)
    )
  )
)
Detected kernel version 4.15.0, which is below the recommended minimum of 5.5.0; this can cause the process to hang. It is recommended to upgrade the kernel to the minimum version or higher.
[INFO|trainer.py:586] 2024-04-01 13:56:30,923 >> Using auto half precision backend
[INFO|deepspeed.py:325] 2024-04-01 13:56:31,192 >> Detected ZeRO Offload and non-DeepSpeed optimizers: This combination should work as long as the custom optimizer has both CPU and GPU implementation (except LAMB)
…
