…
03/22/2024 13:02:06 - INFO - llmtuner.data.template - Add pad token: <|endoftext|>
03/22/2024 13:02:06 - WARNING - llmtuner.data.loader - Loading dataset from disk will ignore other data arguments.
Loading cached shuffled indices for dataset at /home/nfs03/wangzj/dataset/pretrain/6b/cache-ee6db49ab0b98f60.arrow
Dataset({
    features: ['input_ids', 'attention_mask'],
    num_rows: 3996838
})
Dataset({
    features: ['input_ids', 'attention_mask'],
    num_rows: 3996838
})
Dataset({
    features: ['input_ids', 'attention_mask'],
    num_rows: 3996838
})
PeftModelForCausalLM(
  (base_model): MoeModel(
    (model): PhiForCausalLM(
      (model): PhiModel(
        (embed_tokens): Embedding(51200, 2560)
        (embed_dropout): Dropout(p=0.0, inplace=False)
        (layers): ModuleList(
          (0): PhiDecoderLayer(
            (self_attn): PhiFlashAttention2(
              (q_proj): Linear(in_features=2560, out_features=2560, bias=True)
              (k_proj): Linear(in_features=2560, out_features=2560, bias=True)
              (v_proj): Linear(in_features=2560, out_features=2560, bias=True)
              (dense): Linear(in_features=2560, out_features=2560, bias=True)
              (rotary_emb): PhiRotaryEmbedding()
            )
            (mlp): moe.MLP(
              (base_layer): PhiMLP(
                (activation_fn): NewGELUActivation()
                (fc1): Linear(in_features=2560, out_features=10240, bias=True)
                (fc2): Linear(in_features=10240, out_features=2560, bias=True)
              )
              (moe_router_embedding): ModuleDict(
                (default): Linear(in_features=2560, out_features=2, bias=False)
              )
              (moe_experts): ModuleDict(
                (default): ModuleList(
                  (0): PhiMLP(
                    (activation_fn): NewGELUActivation()
                    (fc1): Linear(in_features=2560, out_features=10240, bias=True)
                    (fc2): Linear(in_features=10240, out_features=2560, bias=True)
                  )
                )
              )
            )
            (input_layernorm): LayerNorm((2560,), eps=1e-05, elementwise_affine=True)
            (resid_dropout): Dropout(p=0.1, inplace=False)
          )
          (1): PhiDecoderLayer(
            (self_attn): PhiFlashAttention2(
              (q_proj): Linear(in_features=2560, out_features=2560, bias=True)
              (k_proj): Linear(in_features=2560, out_features=2560, bias=True)
              (v_proj): Linear(in_features=2560, out_features=2560, bias=True)
              (dense): Linear(in_features=2560, out_features=2560, bias=True)
              (rotary_emb): PhiRotaryEmbedding()
            )
            (mlp): moe.MLP(
              (base_layer): PhiMLP(
                (activation_fn): NewGELUActivation()
                (fc1): Linear(in_features=2560, out_features=10240, bias=True)
                (fc2): Linear(in_features=10240, out_features=2560, bias=True)
              )
              (moe_router_embedding): ModuleDict(
                (default): Linear(in_features=2560, out_features=2, bias=False)
              )
              (moe_experts): ModuleDict(
                (default): ModuleList(
                  (0): PhiMLP(
                    (activation_fn): NewGELUActivation()
                    (fc1): Linear(in_features=2560, out_features=10240, bias=True)
                    (fc2): Linear(in_features=10240, out_features=2560, bias=True)
                  )
                )
              )
            )
            (input_layernorm): LayerNorm((2560,), eps=1e-05, elementwise_affine=True)
            (resid_dropout): Dropout(p=0.1, inplace=False)
          )
          (2): PhiDecoderLayer(
            (self_attn): PhiFlashAttention2(
              (q_proj): Linear(in_features=2560, out_features=2560, bias=True)
              (k_proj): Linear(in_features=2560, out_features=2560, bias=True)
              (v_proj): Linear(in_features=2560, out_features=2560, bias=True)
              (dense): Linear(in_features=2560, out_features=2560, bias=True)
              (rotary_emb): PhiRotaryEmbedding()
            )
            (mlp): moe.MLP(
              (base_layer): PhiMLP(
                (activation_fn): NewGELUActivation()
                (fc1): Linear(in_features=2560, out_features=10240, bias=True)
                (fc2): Linear(in_features=10240, out_features=2560, bias=True)
              )
              (moe_router_embedding): ModuleDict(
                (default): Linear(in_features=2560, out_features=2, bias=False)
              )
              (moe_experts): ModuleDict(
                (default): ModuleList(
                  (0): PhiMLP(
                    (activation_fn): NewGELUActivation()
                    (fc1): Linear(in_features=2560, out_features=10240, bias=True)
                    (fc2): Linear(in_features=10240, out_features=2560, bias=True)
                  )
                )
              )
            )
            (input_layernorm): LayerNorm((2560,), eps=1e-05, elementwise_affine=True)
            (resid_dropout): Dropout(p=0.1, inplace=False)
          )
          (3): PhiDecoderLayer(
            (self_attn): PhiFlashAttention2(
              (q_proj): Linear(in_features=2560, out_features=2560, bias=True)
              (k_proj): Linear(in_features=2560, out_features=2560, bias=True)
              (v_proj): Linear(in_features=2560, out_features=2560, bias=True)
              (dense): Linear(in_features=2560, out_features=2560, bias=True)
              (rotary_emb): PhiRotaryEmbedding()
            )
            (mlp): moe.MLP(
              (base_layer): PhiMLP(
                (activation_fn): NewGELUActivation()
                (fc1): Linear(in_features=2560, out_features=10240, bias=True)
                (fc2): Linear(in_features=10240, out_features=2560, bias=True)
              )
              (moe_router_embedding): ModuleDict(
                (default): Linear(in_features=2560, out_features=2, bias=False)
              )
              (moe_experts): ModuleDict(
                (default): ModuleList(
                  (0): PhiMLP(
                    (activation_fn): NewGELUActivation()
                    (fc1): Linear(in_features=2560, out_features=10240, bias=True)
                    (fc2): Linear(in_features=10240, out_features=2560, bias=True)
                  )
                )
              )
            )
            (input_layernorm): LayerNorm((2560,), eps=1e-05, elementwise_affine=True)
            (resid_dropout): Dropout(p=0.1, inplace=False)
          )
          (4): PhiDecoderLayer(
            (self_attn): PhiFlashAttention2(
              (q_proj): Linear(in_features=2560, out_features=2560, bias=True)
              (k_proj): Linear(in_features=2560, out_features=2560, bias=True)
              (v_proj): Linear(in_features=2560, out_features=2560, bias=True)
              (dense): Linear(in_features=2560, out_features=2560, bias=True)
              (rotary_emb): PhiRotaryEmbedding()
            )
            (mlp): moe.MLP(
              (base_layer): PhiMLP(
                (activation_fn): NewGELUActivation()
                (fc1): Linear(in_features=2560, out_features=10240, bias=True)
                (fc2): Linear(in_features=10240, out_features=2560, bias=True)
              )
              (moe_router_embedding): ModuleDict(
                (default): Linear(in_features=2560, out_features=2, bias=False)
              )
              (moe_experts): ModuleDict(
                (default): ModuleList(
                  (0): PhiMLP(
                    (activation_fn): NewGELUActivation()
                    (fc1): Linear(in_features=2560, out_features=10240, bias=True)
                    (fc2): Linear(in_features=10240, out_features=2560, bias=True)
                  )
                )
              )
            )
            (input_layernorm): LayerNorm((2560,), eps=1e-05, elementwise_affine=True)
            (resid_dropout): Dropout(p=0.1, inplace=False)
          )
          (5): PhiDecoderLayer(
            (self_attn): PhiFlashAttention2(
              (q_proj): Linear(in_features=2560, out_features=2560, bias=True)
              (k_proj): Linear(in_features=2560, out_features=2560, bias=True)
              (v_proj): Linear(in_features=2560, out_features=2560, bias=True)
              (dense): Linear(in_features=2560, out_features=2560, bias=True)
              (rotary_emb): PhiRotaryEmbedding()
            )
            (mlp): moe.MLP(
              (base_layer): PhiMLP(
                (activation_fn): NewGELUActivation()
                (fc1): Linear(in_features=2560, out_features=10240, bias=True)
                (fc2): Linear(in_features=10240, out_features=2560, bias=True)
              )
              (moe_router_embedding): ModuleDict(
                (default): Linear(in_features=2560, out_features=2, bias=False)
              )
              (moe_experts): ModuleDict(
                (default): ModuleList(
                  (0): PhiMLP(
                    (activation_fn): NewGELUActivation()
                    (fc1): Linear(in_features=2560, out_features=10240, bias=True)
                    (fc2): Linear(in_features=10240, out_features=2560, bias=True)
                  )
                )
              )
            )
            (input_layernorm): LayerNorm((2560,), eps=1e-05, elementwise_affine=True)
            (resid_dropout): Dropout(p=0.1, inplace=False)
          )
          (6): PhiDecoderLayer(
            (self_attn): PhiFlashAttention2(
              (q_proj): Linear(in_features=2560, out_features=2560, bias=True)
              (k_proj): Linear(in_features=2560, out_features=2560, bias=True)
              (v_proj): Linear(in_features=2560, out_features=2560, bias=True)
              (dense): Linear(in_features=2560, out_features=2560, bias=True)
              (rotary_emb): PhiRotaryEmbedding()
            )
            (mlp): moe.MLP(
              (base_layer): PhiMLP(
                (activation_fn): NewGELUActivation()
                (fc1): Linear(in_features=2560, out_features=10240, bias=True)
                (fc2): Linear(in_features=10240, out_features=2560, bias=True)
              )
              (moe_router_embedding): ModuleDict(
                (default): Linear(in_features=2560, out_features=2, bias=False)
              )
              (moe_experts): ModuleDict(
                (default): ModuleList(
                  (0): PhiMLP(
                    (activation_fn): NewGELUActivation()
                    (fc1): Linear(in_features=2560, out_features=10240, bias=True)
                    (fc2): Linear(in_features=10240, out_features=2560, bias=True)
                  )
                )
              )
            )
            (input_layernorm): LayerNorm((2560,), eps=1e-05, elementwise_affine=True)
            (resid_dropout): Dropout(p=0.1, inplace=False)
          )
          (7): PhiDecoderLayer(
            (self_attn): PhiFlashAttention2(
              (q_proj): Linear(in_features=2560, out_features=2560, bias=True)
              (k_proj): Linear(in_features=2560, out_features=2560, bias=True)
              (v_proj): Linear(in_features=2560, out_features=2560, bias=True)
              (dense): Linear(in_features=2560, out_features=2560, bias=True)
              (rotary_emb): PhiRotaryEmbedding()
            )
            (mlp): moe.MLP(
              (base_layer): PhiMLP(
                (activation_fn): NewGELUActivation()
                (fc1): Linear(in_features=2560, out_features=10240, bias=True)
                (fc2): Linear(in_features=10240, out_features=2560, bias=True)
              )
              (moe_router_embedding): ModuleDict(
                (default): Linear(in_features=2560, out_features=2, bias=False)
              )
              (moe_experts): ModuleDict(
                (default): ModuleList(
                  (0): PhiMLP(
                    (activation_fn): NewGELUActivation()
                    (fc1): Linear(in_features=2560, out_features=10240, bias=True)
                    (fc2): Linear(in_features=10240, out_features=2560, bias=True)
                  )
                )
              )
            )
            (input_layernorm): LayerNorm((2560,), eps=1e-05, elementwise_affine=True)
            (resid_dropout): Dropout(p=0.1, inplace=False)
          )
          (8): PhiDecoderLayer(
            (self_attn): PhiFlashAttention2(
              (q_proj): Linear(in_features=2560, out_features=2560, bias=True)
              (k_proj): Linear(in_features=2560, out_features=2560, bias=True)
              (v_proj): Linear(in_features=2560, out_features=2560, bias=True)
              (dense): Linear(in_features=2560, out_features=2560, bias=True)
              (rotary_emb): PhiRotaryEmbedding()
            )
            (mlp): moe.MLP(
              (base_layer): PhiMLP(
                (activation_fn): NewGELUActivation()
                (fc1): Linear(in_features=2560, out_features=10240, bias=True)
                (fc2): Linear(in_features=10240, out_features=2560, bias=True)
              )
              (moe_router_embedding): ModuleDict(
                (default): Linear(in_features=2560, out_features=2, bias=False)
              )
              (moe_experts): ModuleDict(
                (default): ModuleList(
                  (0): PhiMLP(
                    (activation_fn): NewGELUActivation()
                    (fc1): Linear(in_features=2560, out_features=10240, bias=True)
                    (fc2): Linear(in_features=10240, out_features=2560, bias=True)
                  )
                )
              )
            )
            (input_layernorm): LayerNorm((2560,), eps=1e-05, elementwise_affine=True)
            (resid_dropout): Dropout(p=0.1, inplace=False)
          )
          (9): PhiDecoderLayer(
            (self_attn): PhiFlashAttention2(
              (q_proj): Linear(in_features=2560, out_features=2560, bias=True)
              (k_proj): Linear(in_features=2560, out_features=2560, bias=True)
              (v_proj): Linear(in_features=2560, out_features=2560, bias=True)
              (dense): Linear(in_features=2560, out_features=2560, bias=True)
              (rotary_emb): PhiRotaryEmbedding()
            )
            (mlp): moe.MLP(
              (base_layer): PhiMLP(
                (activation_fn): NewGELUActivation()
                (fc1): Linear(in_features=2560, out_features=10240, bias=True)
                (fc2): Linear(in_features=10240, out_features=2560, bias=True)
              )
              (moe_router_embedding): ModuleDict(
                (default): Linear(in_features=2560, out_features=2, bias=False)
              )
              (moe_experts): ModuleDict(
                (default): ModuleList(
                  (0): PhiMLP(
                    (activation_fn): NewGELUActivation()
                    (fc1): Linear(in_features=2560, out_features=10240, bias=True)
                    (fc2): Linear(in_features=10240, out_features=2560, bias=True)
                  )
                )
              )
            )
            (input_layernorm): LayerNorm((2560,), eps=1e-05, elementwise_affine=True)
            (resid_dropout): Dropout(p=0.1, inplace=False)
          )
          (10): PhiDecoderLayer(
            (self_attn): PhiFlashAttention2(
              (q_proj): Linear(in_features=2560, out_features=2560, bias=True)
              (k_proj): Linear(in_features=2560, out_features=2560, bias=True)
              (v_proj): Linear(in_features=2560, out_features=2560, bias=True)
              (dense): Linear(in_features=2560, out_features=2560, bias=True)
              (rotary_emb): PhiRotaryEmbedding()
            )
            (mlp): moe.MLP(
              (base_layer): PhiMLP(
                (activation_fn): NewGELUActivation()
                (fc1): Linear(in_features=2560, out_features=10240, bias=True)
                (fc2): Linear(in_features=10240, out_features=2560, bias=True)
              )
              (moe_router_embedding): ModuleDict(
                (default): Linear(in_features=2560, out_features=2, bias=False)
              )
              (moe_experts): ModuleDict(
                (default): ModuleList(
                  (0): PhiMLP(
                    (activation_fn): NewGELUActivation()
                    (fc1): Linear(in_features=2560, out_features=10240, bias=True)
                    (fc2): Linear(in_features=10240, out_features=2560, bias=True)
                  )
                )
              )
            )
            (input_layernorm): LayerNorm((2560,), eps=1e-05, elementwise_affine=True)
            (resid_dropout): Dropout(p=0.1, inplace=False)
          )
          (11): PhiDecoderLayer(
            (self_attn): PhiFlashAttention2(
              (q_proj): Linear(in_features=2560, out_features=2560, bias=True)
              (k_proj): Linear(in_features=2560, out_features=2560, bias=True)
              (v_proj): Linear(in_features=2560, out_features=2560, bias=True)
              (dense): Linear(in_features=2560, out_features=2560, bias=True)
              (rotary_emb): PhiRotaryEmbedding()
            )
            (mlp): moe.MLP(
              (base_layer): PhiMLP(
                (activation_fn): NewGELUActivation()
                (fc1): Linear(in_features=2560, out_features=10240, bias=True)
                (fc2): Linear(in_features=10240, out_features=2560, bias=True)
              )
              (moe_router_embedding): ModuleDict(
                (default): Linear(in_features=2560, out_features=2, bias=False)
              )
              (moe_experts): ModuleDict(
                (default): ModuleList(
                  (0): PhiMLP(
                    (activation_fn): NewGELUActivation()
                    (fc1): Linear(in_features=2560, out_features=10240, bias=True)
                    (fc2): Linear(in_features=10240, out_features=2560, bias=True)
                  )
                )
              )
            )
            (input_layernorm): LayerNorm((2560,), eps=1e-05, elementwise_affine=True)
            (resid_dropout): Dropout(p=0.1, inplace=False)
          )
          (12): PhiDecoderLayer(
            (self_attn): PhiFlashAttention2(
              (q_proj): Linear(in_features=2560, out_features=2560, bias=True)
              (k_proj): Linear(in_features=2560, out_features=2560, bias=True)
              (v_proj): Linear(in_features=2560, out_features=2560, bias=True)
              (dense): Linear(in_features=2560, out_features=2560, bias=True)
              (rotary_emb): PhiRotaryEmbedding()
            )
            (mlp): moe.MLP(
              (base_layer): PhiMLP(
                (activation_fn): NewGELUActivation()
                (fc1): Linear(in_features=2560, out_features=10240, bias=True)
                (fc2): Linear(in_features=10240, out_features=2560, bias=True)
              )
              (moe_router_embedding): ModuleDict(
                (default): Linear(in_features=2560, out_features=2, bias=False)
              )
              (moe_experts): ModuleDict(
                (default): ModuleList(
                  (0): PhiMLP(
                    (activation_fn): NewGELUActivation()
                    (fc1): Linear(in_features=2560, out_features=10240, bias=True)
                    (fc2): Linear(in_features=10240, out_features=2560, bias=True)
                  )
                )
              )
            )
            (input_layernorm): LayerNorm((2560,), eps=1e-05, elementwise_affine=True)
            (resid_dropout): Dropout(p=0.1, inplace=False)
          )
          (13): PhiDecoderLayer(
            (self_attn): PhiFlashAttention2(
              (q_proj): Linear(in_features=2560, out_features=2560, bias=True)
              (k_proj): Linear(in_features=2560, out_features=2560, bias=True)
              (v_proj): Linear(in_features=2560, out_features=2560, bias=True)
              (dense): Linear(in_features=2560, out_features=2560, bias=True)
              (rotary_emb): PhiRotaryEmbedding()
            )
            (mlp): moe.MLP(
              (base_layer): PhiMLP(
                (activation_fn): NewGELUActivation()
                (fc1): Linear(in_features=2560, out_features=10240, bias=True)
                (fc2): Linear(in_features=10240, out_features=2560, bias=True)
              )
              (moe_router_embedding): ModuleDict(
                (default): Linear(in_features=2560, out_features=2, bias=False)
              )
              (moe_experts): ModuleDict(
                (default): ModuleList(
                  (0): PhiMLP(
                    (activation_fn): NewGELUActivation()
                    (fc1): Linear(in_features=2560, out_features=10240, bias=True)
                    (fc2): Linear(in_features=10240, out_features=2560, bias=True)
                  )
                )
              )
            )
            (input_layernorm): LayerNorm((2560,), eps=1e-05, elementwise_affine=True)
            (resid_dropout): Dropout(p=0.1, inplace=False)
          )
          (14): PhiDecoderLayer(
            (self_attn): PhiFlashAttention2(
              (q_proj): Linear(in_features=2560, out_features=2560, bias=True)
              (k_proj): Linear(in_features=2560, out_features=2560, bias=True)
              (v_proj): Linear(in_features=2560, out_features=2560, bias=True)
              (dense): Linear(in_features=2560, out_features=2560, bias=True)
              (rotary_emb): PhiRotaryEmbedding()
            )
            (mlp): moe.MLP(
              (base_layer): PhiMLP(
                (activation_fn): NewGELUActivation()
                (fc1): Linear(in_features=2560, out_features=10240, bias=True)
                (fc2): Linear(in_features=10240, out_features=2560, bias=True)
              )
              (moe_router_embedding): ModuleDict(
                (default): Linear(in_features=2560, out_features=2, bias=False)
              )
              (moe_experts): ModuleDict(
                (default): ModuleList(
                  (0): PhiMLP(
                    (activation_fn): NewGELUActivation()
                    (fc1): Linear(in_features=2560, out_features=10240, bias=True)
                    (fc2): Linear(in_features=10240, out_features=2560, bias=True)
                  )
                )
              )
            )
            (input_layernorm): LayerNorm((2560,), eps=1e-05, elementwise_affine=True)
            (resid_dropout): Dropout(p=0.1, inplace=False)
          )
          (15): PhiDecoderLayer(
            (self_attn): PhiFlashAttention2(
              (q_proj): Linear(in_features=2560, out_features=2560, bias=True)
              (k_proj): Linear(in_features=2560, out_features=2560, bias=True)
              (v_proj): Linear(in_features=2560, out_features=2560, bias=True)
              (dense): Linear(in_features=2560, out_features=2560, bias=True)
              (rotary_emb): PhiRotaryEmbedding()
            )
            (mlp): moe.MLP(
              (base_layer): PhiMLP(
                (activation_fn): NewGELUActivation()
                (fc1): Linear(in_features=2560, out_features=10240, bias=True)
                (fc2): Linear(in_features=10240, out_features=2560, bias=True)
              )
              (moe_router_embedding): ModuleDict(
                (default): Linear(in_features=2560, out_features=2, bias=False)
              )
              (moe_experts): ModuleDict(
                (default): ModuleList(
                  (0): PhiMLP(
                    (activation_fn): NewGELUActivation()
                    (fc1): Linear(in_features=2560, out_features=10240, bias=True)
                    (fc2): Linear(in_features=10240, out_features=2560, bias=True)
                  )
                )
              )
            )
            (input_layernorm): LayerNorm((2560,), eps=1e-05, elementwise_affine=True)
            (resid_dropout): Dropout(p=0.1, inplace=False)
          )
          (16): PhiDecoderLayer(
            (self_attn): PhiFlashAttention2(
              (q_proj): Linear(in_features=2560, out_features=2560, bias=True)
              (k_proj): Linear(in_features=2560, out_features=2560, bias=True)
              (v_proj): Linear(in_features=2560, out_features=2560, bias=True)
              (dense): Linear(in_features=2560, out_features=2560, bias=True)
              (rotary_emb): PhiRotaryEmbedding()
            )
            (mlp): moe.MLP(
              (base_layer): PhiMLP(
                (activation_fn): NewGELUActivation()
                (fc1): Linear(in_features=2560, out_features=10240, bias=True)
                (fc2): Linear(in_features=10240, out_features=2560, bias=True)
              )
              (moe_router_embedding): ModuleDict(
                (default): Linear(in_features=2560, out_features=2, bias=False)
              )
              (moe_experts): ModuleDict(
                (default): ModuleList(
                  (0): PhiMLP(
                    (activation_fn): NewGELUActivation()
                    (fc1): Linear(in_features=2560, out_features=10240, bias=True)
                    (fc2): Linear(in_features=10240, out_features=2560, bias=True)
                  )
                )
              )
            )
            (input_layernorm): LayerNorm((2560,), eps=1e-05, elementwise_affine=True)
            (resid_dropout): Dropout(p=0.1, inplace=False)
          )
          (17): PhiDecoderLayer(
            (self_attn): PhiFlashAttention2(
              (q_proj): Linear(in_features=2560, out_features=2560, bias=True)
              (k_proj): Linear(in_features=2560, out_features=2560, bias=True)
              (v_proj): Linear(in_features=2560, out_features=2560, bias=True)
              (dense): Linear(in_features=2560, out_features=2560, bias=True)
              (rotary_emb): PhiRotaryEmbedding()
            )
            (mlp): moe.MLP(
              (base_layer): PhiMLP(
                (activation_fn): NewGELUActivation()
                (fc1): Linear(in_features=2560, out_features=10240, bias=True)
                (fc2): Linear(in_features=10240, out_features=2560, bias=True)
              )
              (moe_router_embedding): ModuleDict(
                (default): Linear(in_features=2560, out_features=2, bias=False)
              )
              (moe_experts): ModuleDict(
                (default): ModuleList(
                  (0): PhiMLP(
                    (activation_fn): NewGELUActivation()
                    (fc1): Linear(in_features=2560, out_features=10240, bias=True)
                    (fc2): Linear(in_features=10240, out_features=2560, bias=True)
                  )
                )
              )
            )
            (input_layernorm): LayerNorm((2560,), eps=1e-05, elementwise_affine=True)
            (resid_dropout): Dropout(p=0.1, inplace=False)
          )
          (18): PhiDecoderLayer(
            (self_attn): PhiFlashAttention2(
              (q_proj): Linear(in_features=2560, out_features=2560, bias=True)
              (k_proj): Linear(in_features=2560, out_features=2560, bias=True)
              (v_proj): Linear(in_features=2560, out_features=2560, bias=True)
              (dense): Linear(in_features=2560, out_features=2560, bias=True)
              (rotary_emb): PhiRotaryEmbedding()
            )
            (mlp): moe.MLP(
              (base_layer): PhiMLP(
                (activation_fn): NewGELUActivation()
                (fc1): Linear(in_features=2560, out_features=10240, bias=True)
                (fc2): Linear(in_features=10240, out_features=2560, bias=True)
              )
              (moe_router_embedding): ModuleDict(
                (default): Linear(in_features=2560, out_features=2, bias=False)
              )
              (moe_experts): ModuleDict(
                (default): ModuleList(
                  (0): PhiMLP(
                    (activation_fn): NewGELUActivation()
                    (fc1): Linear(in_features=2560, out_features=10240, bias=True)
                    (fc2): Linear(in_features=10240, out_features=2560, bias=True)
                  )
                )
              )
            )
            (input_layernorm): LayerNorm((2560,), eps=1e-05, elementwise_affine=True)
            (resid_dropout): Dropout(p=0.1, inplace=False)
          )
          (19): PhiDecoderLayer(
            (self_attn): PhiFlashAttention2(
              (q_proj): Linear(in_features=2560, out_features=2560, bias=True)
              (k_proj): Linear(in_features=2560, out_features=2560, bias=True)
              (v_proj): Linear(in_features=2560, out_features=2560, bias=True)
              (dense): Linear(in_features=2560, out_features=2560, bias=True)
              (rotary_emb): PhiRotaryEmbedding()
            )
            (mlp): moe.MLP(
              (base_layer): PhiMLP(
                (activation_fn): NewGELUActivation()
                (fc1): Linear(in_features=2560, out_features=10240, bias=True)
                (fc2): Linear(in_features=10240, out_features=2560, bias=True)
              )
              (moe_router_embedding): ModuleDict(
                (default): Linear(in_features=2560, out_features=2, bias=False)
              )
              (moe_experts): ModuleDict(
                (default): ModuleList(
                  (0): PhiMLP(
                    (activation_fn): NewGELUActivation()
                    (fc1): Linear(in_features=2560, out_features=10240, bias=True)
                    (fc2): Linear(in_features=10240, out_features=2560, bias=True)
                  )
                )
              )
            )
            (input_layernorm): LayerNorm((2560,), eps=1e-05, elementwise_affine=True)
            (resid_dropout): Dropout(p=0.1, inplace=False)
          )
          (20): PhiDecoderLayer(
            (self_attn): PhiFlashAttention2(
              (q_proj): Linear(in_features=2560, out_features=2560, bias=True)
              (k_proj): Linear(in_features=2560, out_features=2560, bias=True)
              (v_proj): Linear(in_features=2560, out_features=2560, bias=True)
              (dense): Linear(in_features=2560, out_features=2560, bias=True)
              (rotary_emb): PhiRotaryEmbedding()
            )
            (mlp): moe.MLP(
              (base_layer): PhiMLP(
                (activation_fn): NewGELUActivation()
                (fc1): Linear(in_features=2560, out_features=10240, bias=True)
                (fc2): Linear(in_features=10240, out_features=2560, bias=True)
              )
              (moe_router_embedding): ModuleDict(
                (default): Linear(in_features=2560, out_features=2, bias=False)
              )
              (moe_experts): ModuleDict(
                (default): ModuleList(
                  (0): PhiMLP(
                    (activation_fn): NewGELUActivation()
                    (fc1): Linear(in_features=2560, out_features=10240, bias=True)
                    (fc2): Linear(in_features=10240, out_features=2560, bias=True)
                  )
                )
              )
            )
            (input_layernorm): LayerNorm((2560,), eps=1e-05, elementwise_affine=True)
            (resid_dropout): Dropout(p=0.1, inplace=False)
          )
          (21): PhiDecoderLayer(
            (self_attn): PhiFlashAttention2(
              (q_proj): Linear(in_features=2560, out_features=2560, bias=True)
              (k_proj): Linear(in_features=2560, out_features=2560, bias=True)
              (v_proj): Linear(in_features=2560, out_features=2560, bias=True)
              (dense): Linear(in_features=2560, out_features=2560, bias=True)
              (rotary_emb): PhiRotaryEmbedding()
            )
            (mlp): moe.MLP(
              (base_layer): PhiMLP(
                (activation_fn): NewGELUActivation()
                (fc1): Linear(in_features=2560, out_features=10240, bias=True)
                (fc2): Linear(in_features=10240, out_features=2560, bias=True)
              )
              (moe_router_embedding): ModuleDict(
                (default): Linear(in_features=2560, out_features=2, bias=False)
              )
              (moe_experts): ModuleDict(
                (default): ModuleList(
                  (0): PhiMLP(
                    (activation_fn): NewGELUActivation()
                    (fc1): Linear(in_features=2560, out_features=10240, bias=True)
                    (fc2): Linear(in_features=10240, out_features=2560, bias=True)
                  )
                )
              )
            )
            (input_layernorm): LayerNorm((2560,), eps=1e-05, elementwise_affine=True)
            (resid_dropout): Dropout(p=0.1, inplace=False)
          )
          (22): PhiDecoderLayer(
            (self_attn): PhiFlashAttention2(
              (q_proj): Linear(in_features=2560, out_features=2560, bias=True)
              (k_proj): Linear(in_features=2560, out_features=2560, bias=True)
              (v_proj): Linear(in_features=2560, out_features=2560, bias=True)
              (dense): Linear(in_features=2560, out_features=2560, bias=True)
              (rotary_emb): PhiRotaryEmbedding()
            )
            (mlp): moe.MLP(
              (base_layer): PhiMLP(
                (activation_fn): NewGELUActivation()
                (fc1): Linear(in_features=2560, out_features=10240, bias=True)
                (fc2): Linear(in_features=10240, out_features=2560, bias=True)
              )
              (moe_router_embedding): ModuleDict(
                (default): Linear(in_features=2560, out_features=2, bias=False)
              )
              (moe_experts): ModuleDict(
                (default): ModuleList(
                  (0): PhiMLP(
                    (activation_fn): NewGELUActivation()
                    (fc1): Linear(in_features=2560, out_features=10240, bias=True)
                    (fc2): Linear(in_features=10240, out_features=2560, bias=True)
                  )
                )
              )
            )
            (input_layernorm): LayerNorm((2560,), eps=1e-05, elementwise_affine=True)
            (resid_dropout): Dropout(p=0.1, inplace=False)
          )
          (23): PhiDecoderLayer(
            (self_attn): PhiFlashAttention2(
              (q_proj): Linear(in_features=2560, out_features=2560, bias=True)
              (k_proj): Linear(in_features=2560, out_features=2560, bias=True)
              (v_proj): Linear(in_features=2560, out_features=2560, bias=True)
              (dense): Linear(in_features=2560, out_features=2560, bias=True)
              (rotary_emb): PhiRotaryEmbedding()
            )
            (mlp): moe.MLP(
              (base_layer): PhiMLP(
                (activation_fn): NewGELUActivation()
                (fc1): Linear(in_features=2560, out_features=10240, bias=True)
                (fc2): Linear(in_features=10240, out_features=2560, bias=True)
              )
              (moe_router_embedding): ModuleDict(
                (default): Linear(in_features=2560, out_features=2, bias=False)
              )
              (moe_experts): ModuleDict(
                (default): ModuleList(
                  (0): PhiMLP(
                    (activation_fn): NewGELUActivation()
                    (fc1): Linear(in_features=2560, out_features=10240, bias=True)
                    (fc2): Linear(in_features=10240, out_features=2560, bias=True)
                  )
                )
              )
            )
            (input_layernorm): LayerNorm((2560,), eps=1e-05, elementwise_affine=True)
            (resid_dropout): Dropout(p=0.1, inplace=False)
          )
          (24): PhiDecoderLayer(
            (self_attn): PhiFlashAttention2(
              (q_proj): Linear(in_features=2560, out_features=2560, bias=True)
              (k_proj): Linear(in_features=2560, out_features=2560, bias=True)
              (v_proj): Linear(in_features=2560, out_features=2560, bias=True)
              (dense): Linear(in_features=2560, out_features=2560, bias=True)
              (rotary_emb): PhiRotaryEmbedding()
            )
            (mlp): moe.MLP(
              (base_layer): PhiMLP(
                (activation_fn): NewGELUActivation()
                (fc1): Linear(in_features=2560, out_features=10240, bias=True)
                (fc2): Linear(in_features=10240, out_features=2560, bias=True)
              )
              (moe_router_embedding): ModuleDict(
                (default): Linear(in_features=2560, out_features=2, bias=False)
              )
              (moe_experts): ModuleDict(
                (default): ModuleList(
                  (0): PhiMLP(
                    (activation_fn): NewGELUActivation()
                    (fc1): Linear(in_features=2560, out_features=10240, bias=True)
                    (fc2): Linear(in_features=10240, out_features=2560, bias=True)
                  )
                )
              )
            )
            (input_layernorm): LayerNorm((2560,), eps=1e-05, elementwise_affine=True)
            (resid_dropout): Dropout(p=0.1, inplace=False)
          )
          (25): PhiDecoderLayer(
            (self_attn): PhiFlashAttention2(
              (q_proj): Linear(in_features=2560, out_features=2560, bias=True)
              (k_proj): Linear(in_features=2560, out_features=2560, bias=True)
              (v_proj): Linear(in_features=2560, out_features=2560, bias=True)
              (dense): Linear(in_features=2560, out_features=2560, bias=True)
              (rotary_emb): PhiRotaryEmbedding()
            )
            (mlp): moe.MLP(
              (base_layer): PhiMLP(
                (activation_fn): NewGELUActivation()
                (fc1): Linear(in_features=2560, out_features=10240, bias=True)
                (fc2): Linear(in_features=10240, out_features=2560, bias=True)
              )
              (moe_router_embedding): ModuleDict(
                (default): Linear(in_features=2560, out_features=2, bias=False)
              )
              (moe_experts): ModuleDict(
                (default): ModuleList(
                  (0): PhiMLP(
                    (activation_fn): NewGELUActivation()
                    (fc1): Linear(in_features=2560, out_features=10240, bias=True)
                    (fc2): Linear(in_features=10240, out_features=2560, bias=True)
                  )
                )
              )
            )
            (input_layernorm): LayerNorm((2560,), eps=1e-05, elementwise_affine=True)
            (resid_dropout): Dropout(p=0.1, inplace=False)
          )
          (26): PhiDecoderLayer(
            (self_attn): PhiFlashAttention2(
              (q_proj): Linear(in_features=2560, out_features=2560, bias=True)
              (k_proj): Linear(in_features=2560, out_features=2560, bias=True)
              (v_proj): Linear(in_features=2560, out_features=2560, bias=True)
              (dense): Linear(in_features=2560, out_features=2560, bias=True)
              (rotary_emb): PhiRotaryEmbedding()
            )
            (mlp): moe.MLP(
              (base_layer): PhiMLP(
                (activation_fn): NewGELUActivation()
                (fc1): Linear(in_features=2560, out_features=10240, bias=True)
                (fc2): Linear(in_features=10240, out_features=2560, bias=True)
              )
              (moe_router_embedding): ModuleDict(
                (default): Linear(in_features=2560, out_features=2, bias=False)
              )
              (moe_experts): ModuleDict(
                (default): ModuleList(
                  (0): PhiMLP(
                    (activation_fn): NewGELUActivation()
                    (fc1): Linear(in_features=2560, out_features=10240, bias=True)
                    (fc2): Linear(in_features=10240, out_features=2560, bias=True)
                  )
                )
              )
            )
            (input_layernorm): LayerNorm((2560,), eps=1e-05, elementwise_affine=True)
            (resid_dropout): Dropout(p=0.1, inplace=False)
          )
          (27): PhiDecoderLayer(
            (self_attn): PhiFlashAttention2(
              (q_proj): Linear(in_features=2560, out_features=2560, bias=True)
              (k_proj): Linear(in_features=2560, out_features=2560, bias=True)
              (v_proj): Linear(in_features=2560, out_features=2560, bias=True)
              (dense): Linear(in_features=2560, out_features=2560, bias=True)
              (rotary_emb): PhiRotaryEmbedding()
            )
            (mlp): moe.MLP(
              (base_layer): PhiMLP(
                (activation_fn): NewGELUActivation()
                (fc1): Linear(in_features=2560, out_features=10240, bias=True)
                (fc2): Linear(in_features=10240, out_features=2560, bias=True)
              )
              (moe_router_embedding): ModuleDict(
                (default): Linear(in_features=2560, out_features=2, bias=False)
              )
              (moe_experts): ModuleDict(
                (default): ModuleList(
                  (0): PhiMLP(
                    (activation_fn): NewGELUActivation()
                    (fc1): Linear(in_features=2560, out_features=10240, bias=True)
                    (fc2): Linear(in_features=10240, out_features=2560, bias=True)
                  )
                )
              )
            )
            (input_layernorm): LayerNorm((2560,), eps=1e-05, elementwise_affine=True)
            (resid_dropout): Dropout(p=0.1, inplace=False)
          )
          (28): PhiDecoderLayer(
            (self_attn): PhiFlashAttention2(
              (q_proj): Linear(in_features=2560, out_features=2560, bias=True)
              (k_proj): Linear(in_features=2560, out_features=2560, bias=True)
              (v_proj): Linear(in_features=2560, out_features=2560, bias=True)
              (dense): Linear(in_features=2560, out_features=2560, bias=True)
              (rotary_emb): PhiRotaryEmbedding()
            )
            (mlp): moe.MLP(
              (base_layer): PhiMLP(
                (activation_fn): NewGELUActivation()
                (fc1): Linear(in_features=2560, out_features=10240, bias=True)
                (fc2): Linear(in_features=10240, out_features=2560, bias=True)
              )
              (moe_router_embedding): ModuleDict(
                (default): Linear(in_features=2560, out_features=2, bias=False)
              )
              (moe_experts): ModuleDict(
                (default): ModuleList(
                  (0): PhiMLP(
                    (activation_fn): NewGELUActivation()
                    (fc1): Linear(in_features=2560, out_features=10240, bias=True)
                    (fc2): Linear(in_features=10240, out_features=2560, bias=True)
                  )
                )
              )
            )
            (input_layernorm): LayerNorm((2560,), eps=1e-05, elementwise_affine=True)
            (resid_dropout): Dropout(p=0.1, inplace=False)
          )
          (29): PhiDecoderLayer(
            (self_attn): PhiFlashAttention2(
              (q_proj): Linear(in_features=2560, out_features=2560, bias=True)
              (k_proj): Linear(in_features=2560, out_features=2560, bias=True)
              (v_proj): Linear(in_features=2560, out_features=2560, bias=True)
              (dense): Linear(in_features=2560, out_features=2560, bias=True)
              (rotary_emb): PhiRotaryEmbedding()
            )
            (mlp): moe.MLP(
              (base_layer): PhiMLP(
                (activation_fn): NewGELUActivation()
                (fc1): Linear(in_features=2560, out_features=10240, bias=True)
                (fc2): Linear(in_features=10240, out_features=2560, bias=True)
              )
              (moe_router_embedding): ModuleDict(
                (default): Linear(in_features=2560, out_features=2, bias=False)
              )
              (moe_experts): ModuleDict(
                (default): ModuleList(
                  (0): PhiMLP(
                    (activation_fn): NewGELUActivation()
                    (fc1): Linear(in_features=2560, out_features=10240, bias=True)
                    (fc2): Linear(in_features=10240, out_features=2560, bias=True)
                  )
                )
              )
            )
            (input_layernorm): LayerNorm((2560,), eps=1e-05, elementwise_affine=True)
            (resid_dropout): Dropout(p=0.1, inplace=False)
          )
          (30): PhiDecoderLayer(
            (self_attn): PhiFlashAttention2(
              (q_proj): Linear(in_features=2560, out_features=2560, bias=True)
              (k_proj): Linear(in_features=2560, out_features=2560, bias=True)
              (v_proj): Linear(in_features=2560, out_features=2560, bias=True)
              (dense): Linear(in_features=2560, out_features=2560, bias=True)
              (rotary_emb): PhiRotaryEmbedding()
            )
            (mlp): moe.MLP(
              (base_layer): PhiMLP(
                (activation_fn): NewGELUActivation()
                (fc1): Linear(in_features=2560, out_features=10240, bias=True)
                (fc2): Linear(in_features=10240, out_features=2560, bias=True)
              )
              (moe_router_embedding): ModuleDict(
                (default): Linear(in_features=2560, out_features=2, bias=False)
              )
              (moe_experts): ModuleDict(
                (default): ModuleList(
                  (0): PhiMLP(
                    (activation_fn): NewGELUActivation()
                    (fc1): Linear(in_features=2560, out_features=10240, bias=True)
                    (fc2): Linear(in_features=10240, out_features=2560, bias=True)
                  )
                )
              )
            )
            (input_layernorm): LayerNorm((2560,), eps=1e-05, elementwise_affine=True)
            (resid_dropout): Dropout(p=0.1, inplace=False)
          )
          (31): PhiDecoderLayer(
            (self_attn): PhiFlashAttention2(
              (q_proj): Linear(in_features=2560, out_features=2560, bias=True)
              (k_proj): Linear(in_features=2560, out_features=2560, bias=True)
              (v_proj): Linear(in_features=2560, out_features=2560, bias=True)
              (dense): Linear(in_features=2560, out_features=2560, bias=True)
              (rotary_emb): PhiRotaryEmbedding()
            )
            (mlp): moe.MLP(
              (base_layer): PhiMLP(
                (activation_fn): NewGELUActivation()
                (fc1): Linear(in_features=2560, out_features=10240, bias=True)
                (fc2): Linear(in_features=10240, out_features=2560, bias=True)
              )
              (moe_router_embedding): ModuleDict(
                (default): Linear(in_features=2560, out_features=2, bias=False)
              )
              (moe_experts): ModuleDict(
                (default): ModuleList(
                  (0): PhiMLP(
                    (activation_fn): NewGELUActivation()
                    (fc1): Linear(in_features=2560, out_features=10240, bias=True)
                    (fc2): Linear(in_features=10240, out_features=2560, bias=True)
                  )
                )
              )
            )
            (input_layernorm): LayerNorm((2560,), eps=1e-05, elementwise_affine=True)
            (resid_dropout): Dropout(p=0.1, inplace=False)
          )
        )
        (final_layernorm): LayerNorm((2560,), eps=1e-05, elementwise_affine=True)
      )
      (lm_head): Linear(in_features=2560, out_features=51200, bias=True)
    )
  )
)
Detected kernel version 4.15.0, which is below the recommended minimum of 5.5.0; this can cause the process to hang. It is recommended to upgrade the kernel to the minimum version or higher.
[INFO|trainer.py:586] 2024-03-22 13:02:28,326 >> Using auto half precision backend
Dataset({
    features: ['input_ids', 'attention_mask'],
    num_rows: 3996838
…
